ROSMAP/models/4/C.pth (torch, 2111 bytes, 4 tensors)

model.0.weight f4 [8, 8]
1.2008523 0.7721124 0.78911465 -0.8027365 1.3453925 0.08455098 -0.4512592 -1.2700672
0.43662804 0.903662 1.2613306 -0.5106281 0.85247064 -0.25794563 -0.3988594 -1.4771769
0.896195 0.65337896 -0.07328523 -0.19114862 0.39838752 -0.5067997 -0.69337416 -0.6186596
0.54424745 1.0239004 1.3994583 -0.44840592 -0.070486866 -0.3139492 -0.3602949 -0.658825
-0.8170567 -0.80396676 -0.35613352 1.0201867 -0.76651335 0.62144727 0.9619382 1.0425547
0.7227962 1.034372 0.9329846 -0.5407345 1.1786104 -0.5687871 -0.76710254 -0.74663955
-0.6852989 -0.15429954 -1.1514956 0.8164656 -1.018806 0.8567768 1.0662805 1.2901495
0.5309372 0.21859363 0.8179764 -0.14479673 0.76394755 -0.31329998 -0.6787929 -1.1401705
00000000: 87b5 993f 29a9 453f 6b03 4a3f 2480 4dbf
00000010: d235 ac3f 1029 ad3d 720b e7be 9091 a2bf
00000020: b68d df3e 6556 673f 4873 a13f 86b8 02bf
00000030: 843b 5a3f 7311 84be 4d37 ccbe 2214 bdbf
00000040: 096d 653f d843 273f 9116 96bd 77bc 43be
00000050: 73f9 cb3e a0bd 01bf f880 31bf 7a60 1ebf
00000060: cd53 0b3f 2b0f 833f 7321 b33f 7695 e5be
00000070: 6b5b 90bd f3bd a0be 9378 b8be c1a8 28bf
00000080: a12a 51bf c4d0 4dbf 2257 b6be 7a95 823f
00000090: 383a 44bf 2b17 1f3f 9541 763f 6f72 853f
000000a0: 2c09 393f 4d66 843f 14d8 6e3f 946d 0abf
000000b0: b5dc 963f 089c 11bf d560 44bf c523 3fbf
000000c0: c06f 2fbf b300 1ebe 3564 93bf e403 513f
000000d0: 3c68 82bf b955 5b3f e17b 883f 9e23 a53f
000000e0: 80eb 073f 02d7 5f3e e766 513f 9845 14be
000000f0: 1192 433f db68 a0be 5fc5 2dbf 1bf1 91bf

model.0.bias f4 [8]
0.24019009 0.341065 0.2949824 0.15163933 0.6527362 0.24454242 0.7529774 0.31745017
00000000: 64f4 753e 12a0 ae3e ef07 973e 5747 1b3e
00000010: b819 273f 5469 7a3e 20c3 403f d488 a23e

model.2.weight f4 [2, 8]
1.142577 0.7617516 1.5261195 1.1107916 -0.9362885 0.58604985 -1.1367823 1.0044174
-0.5552522 -0.82828903 -0.8214506 -0.6817074 1.061432 -0.95951253 0.759755 -1.2555126
00000000: f73f 923f 2702 433f e257 c33f 6b2e 8e3f
00000010: 9ab0 6fbf 5d07 163f 1582 91bf c090 803f
00000020: 0225 0ebf c00a 54bf 964a 52bf 6084 2ebf
00000030: 01dd 873f 9da2 75bf 4e7f 423f a3b4 a0bf

model.2.bias f4 [2]
-0.5456169 0.5456197
00000000: 8dad 0bbf bcad 0b3f
