ROSMAP/models/4/C1.pth (torch, 1912 bytes, 2 tensors)

clf.0.weight f4 [2, 100]
-0.2856295 -0.30226275 0.17986408 -0.27222818 -0.2819052 0.29735976 0.20424782 0.15587924
0.06535623 0.18281868 0.36676967 -0.38812318 0.391128 0.17465699 -0.24184439 -0.36637467
0.20542145 0.15048005 0.11867466 0.28265184 -0.35418865 0.04799832 0.26578298 -0.12288457
-0.3438589 -0.3740676 -0.33554345 -0.24574462 0.35381326 0.37166384 0.11165401 -0.14236733
-0.0030841157 -0.06951647 0.14793661 -0.10661711 -0.16818506 0.27259088 0.3529585 -0.2573881
0.15997031 -0.16303983 0.4402348 0.32502583 -0.19561763 -0.038630378 0.40457726 0.30012432
-0.075138696 -0.30154973 -0.3812558 0.17859057 -0.32059997 0.16040643 -0.111822106 0.042805843
-0.4493627 -0.13655259 -0.45798835 0.050604805 -0.09456482 0.3823163 0.2496404 0.30043435
-0.2428719 0.1800019 0.3491051 0.1317936 -0.021833228 -0.1321162 -0.15179884 -0.153324
-0.22830567 -0.33623448 -0.06768738 -0.35714278 -0.076282084 0.09550147 0.2492797 0.048623707
-0.35407346 0.26173908 -0.22048049 0.24409603 0.35492924 -0.12878644 0.3990792 0.38341272
0.09411077 -0.18306017 -0.07812922 0.16716066 -0.25892353 0.31577238 -0.1704427 0.053868912
0.46813378 -0.30448446 0.19817008 0.119806394 -0.051429834 0.2235262 0.07155839 0.52536714
0.21857056 -0.2488305 -0.08494142 -0.34916133 -0.32901827 -0.3238316 0.0365404 0.18057959
-0.44840753 -0.18207787 -0.053509124 0.19732058 -0.19169828 -0.27498987 -0.20098703 -0.112696536
-0.017421184 -0.33473632 -0.17661951 0.22187491 0.08056121 0.103649035 -0.1137208 0.052941266
0.013333428 -0.30988115 -0.21770704 0.16193184 -0.28038618 0.32871133 -0.17747876 0.14559822
0.40845034 -0.2717247 -0.04254772 0.27480283 -0.46721622 0.16765243 0.0793254 -0.022999896
0.047609426 0.21057795 -0.39761746 -0.16945331 0.23363373 0.18014605 0.08570202 -0.2412612
0.20065393 -0.3887225 0.30474937 -0.24624799 0.19996478 0.2670724 0.197742 -0.27542052
0.31807166 -0.36376005 -0.22222443 -0.061031874 -0.026224196 -0.680851 -0.24778922 -0.37375396
0.24443601 0.35484445 0.17203048 0.12779461 0.27388364 0.2196203 0.39764053 0.11880631
0.20036821 -0.41425005 -0.16323878 0.393608 0.18256706 -0.30066007 0.40081835 -0.3466351
-0.09532843 0.273238 -0.18169989 -0.00752532 -0.35383677 0.26190478 0.19513005 -0.30916476
0.10426535 -0.13421999 0.47008637 0.29063722 -0.06464202 0.06254145 -0.08713723 -0.32907298
00000000: 083e 92be 2fc2 9abe 4a2e 383e 7e61 8bbe
00000010: e155 90be 8a3f 983e 5726 513e cf9e 1f3e
00000020: 7dd9 853d d234 3b3e 3cc9 bb3e 15b8 c6be
00000030: ee41 c83e 48d9 323e 0ea6 77be 7695 bbbe
00000040: 005a 523e 7117 1a3e b30b f33d beb7 903e
00000050: 3758 b5be e399 443d b514 883e e8aa fbbd
00000060: 460e b0be ca85 bfbe 5acc abbe 7aa4 7bbe
00000070: 0327 b53e b94a be3e dcaa e43d bec8 11be
00000080: e01e 4abb a75e 8ebd b27c 173e 125a dabd
00000090: b438 2cbe 0891 8b3e fab6 b43e 5fc8 83be
000000a0: 42cf 233e eaf3 26be 7566 e13e c969 a63e
000000b0: fd4f 48be e33a 1ebd c024 cf3e e5a9 993e
000000c0: 51e2 99bd ba64 9abe f633 c3be 72e0 363e
000000d0: ae25 a4be 9541 243e fd02 e5bd 2e55 2f3d
000000e0: de12 e6be 71d4 0bbe 737d eabe fc46 4f3d
000000f0: 33ab c1bd f6be c33e bca1 7f3e 88d2 993e
00000100: 69b3 78be 6b52 383e e7bd b23e e7f4 063e
00000110: 99db b2bc 7849 07be 2871 1bbe f700 1dbe
00000120: f6c8 69be ed26 acbe ae9f 8abd 6bdb b6be
00000130: c839 9cbd 4696 c33d 2d43 7f3e a729 473d
00000140: 1e49 b5be aa02 863e a3c5 61be 4ff4 793e
00000150: 49b9 b53e 98e0 03be 1c54 cc3e ac4e c43e
00000160: 26bd c03d 2074 3bbe 3602 a0bd 2a2c 2b3e
00000170: a091 84be ebac a13e 8888 2ebe a6a5 5c3d
00000180: 3baf ef3e 63e5 9bbe 19ed 4a3e 0e5d f53d
00000190: 17a8 52bd 0de4 643e 358d 923d 767e 063f
000001a0: f6d0 5f3e 6ccd 7ebe c4f5 adbd 46c5 b2be
000001b0: 1575 a8be 41cd a5be 63ab 153d dbe9 383e
000001c0: ac95 e5be 9f72 3abe 622c 5bbd 680e 4a3e
000001d0: 8e4c 44be 79cb 8cbe 8bcf 4dbe 71cd e6bd
000001e0: dfb6 8ebc 8f62 abbe bfdb 34be 2d33 633e
000001f0: 47fd a43d f245 d43d 73e6 e8bd f1d8 583d
00000200: 7374 5a3c bea8 9ebe 98ee 5ebe 76d1 253e
00000210: c78e 8fbe da4c a83e febc 35be b317 153e
00000220: 6720 d13e 801f 8bbe 8546 2ebd f5b2 8c3e
00000230: f736 efbe 14ad 2b3e 5b75 a23d 476a bcbc
00000240: 1a02 433d bfa1 573e 8494 cbbe 2b85 2dbe
00000250: ae3d 6f3e 3578 383e 8a84 af3d 2d0d 77be
00000260: 3978 4d3e a306 c7be 1c08 9c3e 6f28 7cbe
00000270: 91c3 4c3e b7bd 883e e17c 4a3e eb03 8dbe
00000280: 4ada a23e c23e babe cd8e 63be 8ffc 79bd
00000290: 20d4 d6bc 404c 2ebf 75bc 7dbe ae5c bfbe
000002a0: 6f4d 7a3e 2cae b53e c228 303e 97dc 023e
000002b0: 7a3a 8c3e 25e4 603e 8a97 cb3e b950 f33d
000002c0: 532d 4d3e 9518 d4be 1128 27be fd86 c93e
000002d0: dcf2 3a3e 1ef0 99be 1038 cd3e 287a b1be
000002e0: 8d3b c3bd dae5 8b3e 890f 3abe f696 f6bb
000002f0: 182a b5be 6218 863e 2cd0 473e d84a 9ebe
00000300: 1289 d53d f770 09be 29af f03e 67ce 943e
00000310: 0963 84bd bb15 803d 0175 b2bd 417c a8be

clf.0.bias f4 [2]
-0.022860814 0.02286162
00000000: 9a46 bbbc 4b48 bb3c
