ROSMAP/models/4/E1.pth (torch, 404227 bytes, 6 tensors)

gc1.weight f4 [200, 200]
000000 8a 99 85 ba b6 59 24 be a0 3e bd 3d bd d1 85 3e
       -0.0010192853 -0.16049847 0.092404604 0.2613658
000010 a2 59 3c 3e 4c 6f 4a 3a d4 83 41 be b1 4b 82 3c
       0.18393567 0.0007722273 -0.18897945 0.015905233
000020 53 ec 73 3e 77 68 01 3e b7 5a b4 bd 50 18 32 bd
       0.2382062 0.12637506 -0.08806365 -0.043480217
000030 48 c7 b2 3b a1 92 31 be b0 48 90 bd a4 16 13 be
       0.005455885 -0.1734109 -0.07045114 -0.14364105
000040 e2 96 31 3d e3 94 06 be 10 d7 b2 bd 72 1d 70 be
       0.043356784 -0.13142733 -0.08732426 -0.23448732
000050 7a bc e6 3d c8 29 28 be 24 0a 11 3e de 4e 64 3a
       0.11266418 -0.16422188 0.14164025 0.0008709262
000060 5d 6c 0f 3d ad 99 ee bd cb 1b f3 bc 88 2a b8 3d
       0.035015453 -0.11650405 -0.029676339 0.08992487
000070 a1 99 72 be 0f b6 15 3a 9e cf 02 be 50 69 4b be
       -0.23691417 0.0005711028 -0.12774512 -0.19864392
000080 55 ee b7 3d f4 84 80 bb 07 dc 37 3d 3d 7a e2 bc
       0.08981005 -0.0039220992 0.04488757 -0.027646178
000090 eb 91 11 bd 6e 99 0e be 19 c5 f3 bc a5 6e 36 bd
       -0.03553955 -0.13925716 -0.02975707 -0.044539113
0000a0 a1 2e 4a 3d f6 fa 14 3e 58 15 06 be e1 0d 6f 3d
       0.049360875 0.14548859 -0.1309408 0.058362845
0000b0 a6 f8 cf bb 6d 0d 3f 3e 4a f5 e3 bd 6d 52 02 bd
       -0.00634678 0.18657465 -0.111307696 -0.03181689
0000c0 5c 5e 72 bd eb f7 83 bc 80 f5 52 be 41 bd ee bd
       -0.05917202 -0.016109427 -0.20601463 -0.11657191
0000d0 d3 af 55 3e bf 33 56 3d bb 4a cd bb 8f da dd 3d
       0.20867853 0.052295443 -0.006265012 0.10832702
0000e0 7d e8 30 3d 93 fb f3 bc 34 0d 7b be 74 da 2f 3d
       0.043190468 -0.029783046 -0.24516755 0.042932943
0000f0 13 69 6f bc f4 69 b5 3c b3 28 40 bd 6e fd 32 bd
       -0.014612454 0.022145249 -0.046913814 -0.04369872
000100 ba 2a ca bd 1e bd 18 be da aa 6f 3d b8 8c 13 3e
       -0.09871431 -0.14915892 0.058512546 0.14409149
000110 c7 24 13 3b 90 3d a1 3d ea ec 45 be af 63 41 3b
       0.002245234 0.0787307 -0.19328657 0.002950888
000120 00 42 1f 3d c9 90 0c 3e 2b f3 13 bd 19 dc b6 3d
       0.038881302 0.13727106 -0.036120575 0.08928699
000130 00 e7 fa 3c 91 3b d7 bd ba 5c 46 bd a5 ce 51 be
       0.030627728 -0.10509408 -0.048428275 -0.20488985
000140 98 74 cf bd 1e b3 68 be c7 14 13 3e cf 04 a5 b8
       -0.1012966 -0.22724578 0.14363395 -7.868709e-05
000150 70 f8 b5 bd 2b b8 11 be 51 77 d5 bd fc 95 a1 bd
       -0.08885276 -0.14230411 -0.104231484 -0.078899354
000160 2c 6c bb 3d e7 95 c1 bd 95 c9 4e be f9 04 87 3d
       0.091514915 -0.0945242 -0.20194085 0.06592745
000170 b8 ee 35 3d 6d c1 5a bd d3 09 bf bd 32 5b b3 3d
       0.044417113 -0.05340712 -0.09328046 0.087576285
000180 da 52 59 3e df 4e b2 bc 98 e7 57 ba 2d 09 07 bc
       0.21223012 -0.021766124 -0.0008236109 -0.008241934
000190 37 60 19 3c 78 f1 bc 3d 85 dd 26 3e ca 84 39 bc
       0.009361318 0.09225744 0.1629544 -0.011323163
0001a0 32 92 69 3d 45 17 5b bd f4 93 e3 3c ff 77 e8 ba
       0.05702419 -0.05348899 0.02778051 -0.0017735957
0001b0 19 3d 99 bd 0f 1b ee 3d 54 56 13 3e ab 49 30 3e
       -0.074823566 0.11626255 0.143884 0.17215602
0001c0 96 db 32 3e 31 a8 74 bd ee 2e 03 be 38 d7 2d 3d
       0.17466578 -0.059730712 -0.12810871 0.042441577
0001d0 90 b7 23 bd 37 01 1d 3e d1 40 02 bd 64 a7 c8 3d
       -0.03996998 0.15332495 -0.031800095 0.09797552
0001e0 ca a0 8d bd 9f 32 e1 3c 6c 34 91 3d 85 e3 1c be
       -0.06915434 0.027489958 0.07090077 -0.15321167
0001f0 7e f7 67 bd 6a 15 14 3c 7c cf 1c be 3a 41 00 3e
       -0.05663251 0.009038309 -0.15313524 0.12524882
000200 ab d0 0e 3e 75 b5 43 3d 7e 1b a1 3a ae 0b 49 3d
       0.13946788 0.047780473 0.0012291519 0.049083404
000210 0f e7 1e bd 06 23 be 3d 25 71 2b be c3 0c a6 3d
       -0.038794573 0.09284024 -0.1674238 0.08107903
000220 77 80 8a 3e 36 3f 94 bd d3 d9 91 bd ad 79 48 be
       0.27051136 -0.07238619 -0.07121625 -0.19577666
000230 aa c2 30 3e 69 8f 65 be 1e 92 a6 bc 87 b1 c1 bd
       0.17261758 -0.22417988 -0.020333346 -0.09457689
000240 21 f2 14 be 9e 5c 58 bd 82 ce 3a 3e a1 f7 22 be
       -0.1454549 -0.0528227 0.18242839 -0.15914775
000250 a3 48 c2 3d 84 d6 b3 3d c7 d8 15 be e8 5c 8f be
       0.094865106 0.0878115 -0.14633475 -0.2800057
000260 69 d1 47 3e 77 95 3c 3d 8f 49 28 3e 66 16 90 be
       0.19513477 0.04604098 0.1643431 -0.2814209
000270 17 fe 92 bb c8 fa 42 be 6b b5 33 3d 83 6a ae 3d
       -0.0044858563 -0.19040978 0.043874186 0.08516409
000280 5c 07 1a bc ee 13 e8 bd e3 08 5e be 4d 82 11 3e
       -0.009401169 -0.11331926 -0.21683078 0.14209862
000290 b4 8f 05 3d d1 1a 0f bc 29 a8 cd bd 73 1f 71 be
       0.03260775 -0.008734421 -0.1004184 -0.23547153
0002a0 b8 e5 aa bd 84 18 34 3e af b5 33 3e 0f 57 c5 bd
       -0.083445966 0.17587477 0.17549776 -0.09635746
0002b0 90 eb 50 bd 57 e2 eb 3d bc 05 21 3d 32 1f 6e bb
       -0.0510059 0.1151778 0.03931211 -0.0036334512
0002c0 eb ea 16 be 77 d4 78 bd c6 0d f4 bd be b8 b0 bd
       -0.14738052 -0.060749497 -0.119166896 -0.08628987
0002d0 70 e9 92 3c 46 47 1f be 47 d1 23 3e dc 12 20 3d
       0.017933577 -0.15554532 0.15997802 0.039080486
0002e0 f1 97 25 3e fd 63 b5 3d cf 39 c0 bd 5b 8d 15 bd
       0.16171242 0.08856962 -0.09386026 -0.03651176
0002f0 a6 5d f7 bc 7c 20 25 be 03 52 94 3c 94 0e e8 bd
       -0.030196022 -0.16125673 0.018105512 -0.113309056
000300 9f 51 1f be 82 80 2c be c8 86 e2 bd 56 af 06 bd
       -0.1555848 -0.16845897 -0.11060864 -0.032882057
000310 ad 92 73 3e 0f 54 2c 3d d8 51 70 bc fb 7f 28 be
       0.23786421 0.042072352 -0.014667951 -0.1645507
000320 c7 38 02 be bf 7c a9 bd 74 17 25 3e 7a 67 4a 3e
       -0.12716971 -0.082757466 0.16122228 0.19766036
000330 1e ce c0 3b 4f 6a 17 3e 65 4a 88 bd 6f b5 c8 bd
       0.005883946 0.14786647 -0.06654815 -0.09800231
000340 c6 68 ae 3d 14 3e d5 bc 0c ac 48 be 58 0a c6 3d
       0.08516078 -0.026030578 -0.1959688 0.09669942
000350 55 ac 04 3e fd f4 01 be a7 6e ec bd fd 58 0c be
       0.12956364 -0.12691112 -0.11544543 -0.13705821
000360 2a 94 2e bd 48 58 5e be b5 9c b9 3d ed 7d 58 be
       -0.04262177 -0.21713364 0.090630926 -0.21141787
000370 4b 51 1c 3e 24 38 be bd 26 d3 67 3d 6e 15 d2 3d
       0.15265386 -0.09288052 0.05659785 0.10257994
000380 56 67 c6 bd da 93 17 be 0e 47 62 bd 6d 45 88 3d
       -0.096876785 -0.14802495 -0.055243544 0.06653867
000390 fc 01 6b bd 17 86 6b bc c0 45 53 3c eb 9d 3b be
       -0.05737494 -0.014375231 0.012895048 -0.1832196
0003a0 17 d9 ad 3a ba 15 66 3d 3e e1 ac 3d 16 1e 02 3e
       0.001326355 0.056173064 0.08441399 0.1270679
0003b0 29 8f 87 3d 6a 6e f4 bd 4c ba 18 be e8 09 b3 3d
       0.066191025 -0.11935122 -0.14914817 0.08742124
0003c0 1b 48 80 3c 9e 9b 82 bd e3 70 3f bd 60 9d 38 bd
       0.015659383 -0.06377338 -0.046738517 -0.04507196
0003d0 1b 19 8f 3d 51 70 c4 bb 7c d8 3c bd 22 b5 2a 3d
       0.0698721 -0.0059948345 -0.046104893 0.041676648
0003e0 f2 ae 6c 3e 07 4a d8 3d 2f 94 e9 bd 16 d9 2a be
       0.23113611 0.105609946 -0.11405217 -0.16684374
0003f0 21 e5 a5 bb a6 42 c4 39 60 05 34 3e fd 7e b8 3d
       -0.0050627147 0.0003743369 0.17580175 0.09008596

gc1.bias f4 [200]
000000 80 d0 9a 3c 12 d1 02 bb fe aa 19 3c e2 e7 b4 3c
       0.018898249 -0.0019961041 0.009379147 0.022083227
000010 36 6f 80 3c 85 0c c4 3b 9d 9a 84 3c 35 b6 74 bc
       0.01567803 0.0059829378 0.016187007 -0.01493602
000020 df 38 f7 3b b0 e8 89 3c 3d 0c d5 38 9b 8b 89 3c
       0.0075446214 0.016834587 0.00010158911 0.016790202
000030 1c 42 52 3c df 21 5f 3c bf 47 0f ba f1 2b c3 bc
       0.0128331445 0.013618915 -0.0005465708 -0.023824664
000040 ed 81 69 3c e3 34 21 3c e7 17 f4 3c fe 2c 3e 3c
       0.014252168 0.009839269 0.029796554 0.011607407
000050 df 05 7f bb 0e 1c d1 3c b8 25 95 3b f0 eb 42 3c
       -0.0038913412 0.025526073 0.0045516156 0.011897072
000060 86 6e b7 bb 57 5a 33 3c b4 28 0a 3b d4 fc bd 3c
       -0.005597892 0.010946832 0.002108139 0.023191847
000070 38 fa 98 ba bb 04 20 3c c7 af de 3c a8 15 53 3b
       -0.0011671251 0.009766753 0.027183427 0.0032208953
000080 7e dd be 3c 04 78 b3 3c ba f6 25 3c 14 fd ab 3a
       0.023298975 0.021907814 0.010129625 0.0013121688
000090 e9 6f 28 3c c2 c4 1c 3c 89 d0 8a bb c5 72 51 3c
       0.010280588 0.009568395 -0.004236285 0.012783711
0000a0 67 31 33 3b 5b 33 d0 b8 cd 87 b6 bb df 98 4a 3c
       0.0027342679 -9.9277786e-05 -0.005570388 0.012365549
0000b0 d0 53 e9 3b 03 03 c4 3b 47 df b0 3b 66 80 c4 bc
       0.007120587 0.0059818043 0.0053977105 -0.023987006
0000c0 7c f0 d9 3b e5 11 eb 3b 90 c6 8c 3c 4a 9f b2 3c
       0.0066509824 0.007173764 0.017184526 0.02180447
0000d0 c2 f1 62 3c f8 ca 2b 3c 8c e2 3e 3c 05 c6 70 3c
       0.013851585 0.010485403 0.011650693 0.014695649
0000e0 02 aa 89 bc 57 2f 2b 3c 9e 55 8d 3c 44 bb d7 ba
       -0.016804699 0.010448298 0.01725274 -0.0016459008
0000f0 b5 9d ff 3c c2 07 df 3c b4 83 b0 3c d8 c7 26 3b
       0.03120313 0.027225379 0.021547176 0.0025448706
000100 33 32 52 3c b6 e0 10 3c eb 9a cd 3b b3 3e 60 bc
       0.012829351 0.008842638 0.006274571 -0.013686824
000110 98 f4 24 3b 52 3d 30 3c ce 97 52 3b 50 8a 09 bb
       0.0025170203 0.010756807 0.003213394 -0.0020986982
000120 be 08 8e bc f9 9c 5a 3b 0f c1 91 3c 83 42 cf 3c
       -0.017338153 0.0033357723 0.017792253 0.02530027
000130 0d 1e 90 3c 01 18 ad 3b 95 6d 03 3c 62 d8 2d bb
       0.017592454 0.0052824025 0.008021732 -0.002652668
000140 e8 ae 2b bb 94 6a 30 3c ce 28 60 3a 35 d4 3e 3c
       -0.0026196782 0.010767598 0.0008551002 0.011647274
000150 ad 13 58 bb a9 4b 9c 3b e8 fe d6 3b 42 c0 a1 3c
       -0.0032970712 0.0047697616 0.006561149 0.019744996
000160 5f 42 60 bc 5b 89 c3 3a 0f 7d 21 bc a0 f1 9d 3c
       -0.013687699 0.0014918254 -0.009856476 0.019280255
000170 b3 55 5e 3c 57 5a 95 bb 7e 3c 80 bc 51 2d cd bc
       0.013570237 -0.0045578885 -0.015653845 -0.025046023
000180 eb 6b e4 bb 08 2d f4 ba 6f e5 26 bc d8 c6 fa ba
       -0.0069708726 -0.0018629143 -0.010186537 -0.0019132746
000190 01 3e 83 3c 00 28 86 3c 4e 40 40 bb 9c 31 55 bc
       0.016020777 0.016376495 -0.0029335204 -0.013012316
0001a0 3f ad ca bb 83 0d 7b 3c a6 ea bb 3b 3e de 95 ba
       -0.0061852033 0.015323046 0.0057347594 -0.0011434031
0001b0 cb cb af 3a 38 ae e6 3c de 44 76 3a af 83 3a bc
       0.0013412175 0.028159246 0.0009394417 -0.011383935
0001c0 10 ae ea bb a6 96 c8 3b d1 ff a9 3a 00 1a 12 3c
       -0.007161863 0.0061214743 0.0012969916 0.008917332
0001d0 f7 c2 80 ba c3 80 9d 3c 91 15 04 3c ff a1 cc ba
       -0.0009823729 0.019226437 0.008061782 -0.0015612243
0001e0 1c d2 c5 bc 5b 04 99 bc fb 98 2c 3c c3 2e fc 3b
       -0.02414804 -0.018678835 0.01053452 0.007696004
0001f0 23 73 0e bc 3a 0e 0b 3b 26 aa 13 3c f0 6a 9c bb
       -0.008694443 0.0021218196 0.0090127345 -0.00477349
000200 60 47 18 3a 36 8c 5d 3b ca 98 d7 ba d9 2c e6 bb
       0.00058089755 0.0033805496 -0.0016448733 -0.007024389
000210 06 c3 4c bb 04 9e f4 3a cb 94 3c bc 0c 98 77 3c
       -0.0031244173 0.0018662815 -0.011510084 0.015111934
000220 20 9a 22 3c bc 8a ac 3c 51 97 9f 3c 11 42 84 3c
       0.009924442 0.021062247 0.019481333 0.016144784
000230 93 ae e6 3b 56 7a 99 3c ca 4f 7f bb 89 03 80 3b
       0.007039854 0.018735092 -0.003895747 0.0039066714
000240 14 16 f9 3b e2 3c 24 3c ed 1c 29 3c 9a 70 3e 3b
       0.007601509 0.010024281 0.010321838 0.0029058815
000250 a5 1b d6 bc 4d 7e 19 39 e9 c3 a9 bb e9 c7 08 3c
       -0.026136229 0.00014638268 -0.005180825 0.008348444
000260 37 42 f9 3b 5a 79 06 3d 1b 9e 22 3c d3 b9 14 3c
       0.0076067704 0.032830574 0.009925391 0.009077507
000270 9d 80 99 3c c1 2a 7c 3c fd 8a bb bc be 62 13 bc
       0.018738085 0.015391053 -0.022893423 -0.00899571
000280 34 32 71 bc fb 81 04 3c 6f 93 97 3c 56 29 fd 3c
       -0.014721442 0.00808763 0.018502919 0.0309035
000290 bf b2 de bc 84 10 3f 3c 4f 07 17 bb 18 8e d6 3c
       -0.027184842 0.0116616525 -0.0023045128 0.026190802
0002a0 7d 05 d5 bb b1 bb cc 3c f2 55 52 3c 90 13 f0 bb
       -0.0065008984 0.024991842 0.012837874 -0.007326551
0002b0 32 0c 2e bb 12 e4 fd bb 29 c1 4c bc 95 33 9c 3b
       -0.0026557562 -0.0077481354 -0.012497225 0.0047668912
0002c0 49 d9 94 bb b1 9d dc bc a8 23 4f ba 8c cb cd 3b
       -0.004542504 -0.026930662 -0.00079017365 0.006280368
0002d0 85 f5 86 bc c5 60 20 bb af d1 98 3c dc ac ee 3b
       -0.016474495 -0.0024471742 0.018654672 0.00728379
0002e0 87 3f ee 3b ea c0 22 ba b2 4f 96 3c 62 83 60 bc
       0.0072707566 -0.0006208556 0.018348549 -0.013703199
0002f0 81 f6 b0 3b b1 91 02 bc ff 44 12 3c 75 55 97 3b
       0.0054004793 -0.007969306 0.008927583 0.0046183416
000300 9a 67 7e 39 c2 aa 26 3c d4 a1 ba 3c 37 68 b8 3a
       0.00024261922 0.010172548 0.022782244 0.0014069144
000310 16 26 6e 3b 4d a7 72 3c ff a2 3d 3a 51 ae 69 3c
       0.003633862 0.014810395 0.0007234066 0.014262752

gc2.weight f4 [200, 200]
000000 be a0 84 3d ab 37 56 3c 09 d0 5e 3d bf 0b c1 bc
       0.06475972 0.013074796 0.054397617 -0.023565171
000010 c9 01 45 3d 29 05 27 3c d5 7b 62 3d 21 85 ae bd
       0.048097406 0.010194101 0.055293877 -0.08521486
000020 e5 ef 55 bd e9 42 42 bc 74 99 86 3d 38 47 67 bc
       -0.052230734 -0.011856773 0.065722376 -0.014116101
000030 69 b6 2a 3d 3c f6 c7 bd fb c4 03 3e fc fb 60 3d
       0.041677866 -0.09763762 0.12868111 0.05492781
000040 10 ac 12 3d 85 42 4f 3d 88 b4 46 bd 49 81 ee 3d
       0.035808623 0.050600547 -0.04851201 0.11645753
000050 ff 42 86 3d 53 16 5f 3d d0 ea 58 3c db 19 1d be
       0.06555747 0.05446465 0.013239577 -0.15341894
000060 1c b7 b5 bd 0e 3e 6c bd f8 00 21 bd 38 5d 6a bd
       -0.08872816 -0.057676367 -0.039307564 -0.057217807
000070 ba ca 97 bc b1 1d fe 3c 27 d7 aa 3c e4 71 a0 bd
       -0.018529285 0.031020017 0.020854546 -0.07834223
000080 5d 28 23 3d e2 d0 cd 38 0f 09 92 bd 64 13 a6 3d
       0.039833415 9.814069e-05 -0.07130634 0.08109167
000090 d3 73 82 be 8b eb 11 3e b9 d5 33 bd 9e 10 55 3d
       -0.25478992 0.14250009 -0.043904994 0.0520178
0000a0 8d 53 82 bc a7 2f 5f bc 18 d9 a7 3d b6 24 dd bc
       -0.01590898 -0.013622201 0.08195704 -0.026995044
0000b0 dc d2 73 3c 62 d1 98 3d 72 15 67 bd 5d 5d 13 bd
       0.014881816 0.074618116 -0.056416936 -0.03597771
0000c0 02 cb 42 3c c3 98 78 3c f0 11 45 3d 9e 3c 1f 3d
       0.011889221 0.01517314 0.04811281 0.03887617
0000d0 2e 1f 0a 3d 9a a8 ba bb 09 b1 80 3c 26 bf e3 bb
       0.03372114 -0.0056963684 0.015709417 -0.006950277
0000e0 07 bd 45 3c 6e ac 15 3e 51 10 4c 3c d6 12 66 3c
       0.012068993 0.14616558 0.012455062 0.014042577
0000f0 8a b0 d2 bd 33 31 82 bd 19 fa 07 3c ef 49 41 bc
       -0.102875784 -0.0635704 0.008299374 -0.011797412
000100 63 96 d0 bd 86 35 ef 3c 6f 61 0f 3d c4 45 07 bb
       -0.10184934 0.029200327 0.03500503 -0.0020640949
000110 fc 7e cd bc 84 bc ac bd 44 fc 22 bd e8 68 98 3c
       -0.025084965 -0.08434394 -0.03979136 0.01860471
000120 26 86 ea bc 20 54 74 3d d7 ec 5b 3d 9b 54 9c 3c
       -0.02862842 0.05965054 0.053692665 0.019083312
000130 c4 9f e1 bd 8f 15 29 bd 8d fc f8 3c f3 13 a3 3d
       -0.11016801 -0.041280326 0.030393863 0.079627894
000140 01 40 5e 3b 2a 61 04 bd 36 b5 49 bd d8 e8 ed bc
       0.003391266 -0.032319225 -0.04924508 -0.029041693
000150 62 bf ac bc 8a f1 77 bd 8c c5 bf bb b1 fb 04 3e
       -0.021087352 -0.060533084 -0.005852407 0.12986638
000160 18 7e 0f 3e 7c 85 43 3d f4 7f b3 bc 16 7b 73 bd
       0.14012945 0.047734722 -0.021911599 -0.059443556
000170 ff b8 05 3d 08 a5 6a bd 03 b1 53 bd 68 f0 18 bb
       0.03264713 -0.057286292 -0.051682483 -0.0023336653
000180 cb 62 34 bd 61 c4 2f 3e db 31 6e bd 6f c5 a0 bd
       -0.04403953 0.17164756 -0.058153015 -0.078501575
000190 58 0d 09 bc f6 23 16 bd 11 85 06 bd 6b ab f0 3d
       -0.008364998 -0.03665539 -0.032841746 0.117514454
0001a0 fd b5 f2 3c 29 27 62 bd c1 ff 97 3d 60 56 23 3b
       0.029627794 -0.055213127 0.07421828 0.002492331
0001b0 36 cf 01 be a3 63 7d bd 31 28 2e bd 87 ae 99 bd
       -0.12676701 -0.0618626 -0.0425188 -0.075039916
0001c0 95 5d 63 3b 77 a0 87 bd 16 8b 5c bd 7f ee e5 3d
       0.003469323 -0.06622403 -0.05384358 0.1122713
0001d0 1c 91 6c bd c7 85 9f bb dc 5c a1 3d 96 23 e3 bc
       -0.057755575 -0.0048682424 0.0787904 -0.02772693
0001e0 04 67 8a bd 72 7f 64 bc a3 c6 9f bc c5 47 92 3d
       -0.0675793 -0.013946401 -0.019503897 0.07142595
0001f0 63 4b da 3c 9e 2b 95 bc 8c 44 83 bd d0 31 4c 3c
       0.026647275 -0.018209275 -0.06409559 0.012463048
000200 43 91 0b bd 15 ac ea 3c a1 54 e6 bc 59 12 e9 3d
       -0.03407408 0.028646508 -0.028116526 0.11380453
000210 b0 d4 33 bd 45 63 3d bb b0 f1 e2 3b 08 83 8f bd
       -0.043904006 -0.002889828 0.006925784 -0.07007414
000220 d3 93 e9 3d cc 76 98 bd 86 45 45 3d 0e 44 f1 3d
       0.11405148 -0.07444534 0.048162006 0.117805585
000230 30 e1 8e bc 0a 05 99 3d 86 ca 11 3d 66 52 9f 3d
       -0.017441362 0.07471664 0.035593532 0.07779388
000240 64 ab fe bc 66 40 85 3d c1 49 0d 3e dd 3f 8e 3d
       -0.031087585 0.06506424 0.13797666 0.06945775
000250 35 a8 02 3e e6 4e 43 3e 2b 94 16 3d 06 d4 b3 3c
       0.12759478 0.19073066 0.036762398 0.021951687
000260 a7 6d 99 3d ac 36 e2 bc 36 47 c6 bd 26 02 97 3a
       0.07491618 -0.02761396 -0.09681551 0.0011521026
000270 39 40 6f bd c1 27 9b bd 42 ca ab 3d 23 4c d4 3c
       -0.058410857 -0.07575942 0.08388187 0.025915211
000280 36 76 26 bc c9 af 42 3d 31 99 51 3d 17 ec 2a 3d
       -0.01016002 0.047530923 0.051171485 0.04172906
000290 7a 89 75 3d 45 ea 1f 3d b6 58 59 3d c6 2b 46 3d
       0.05994556 0.039041776 0.053063117 0.04838159
0002a0 95 1c 60 3d 90 fd 4e bc d4 ea 90 3d b4 60 27 bc
       0.054714758 -0.012633696 0.0707604 -0.010215927
0002b0 e2 83 94 3d 12 eb 5b 3a c6 66 af bc d1 1a be 3d
       0.07251717 0.0008389215 -0.02141131 0.092824586
0002c0 98 06 38 3e c4 23 55 3c 2f 18 db 3c fe dc f8 3d
       0.17971265 0.0130090155 0.02674493 0.12151526
0002d0 0d 4a 1a 3d 4f 64 58 3d 99 e7 6e 3b 60 5c 13 39
       0.037668277 0.052830037 0.003645396 0.00014053425
0002e0 48 05 02 3d 70 1f 02 3e 96 61 e7 3c c3 66 d7 bb
       0.031743318 0.12707305 0.028244775 -0.0065735294
0002f0 58 7d 63 3d 57 7a 26 3c 94 10 62 3d 26 b8 f9 bd
       0.05553946 0.010161004 0.05519159 -0.12193327
000300 9a 89 89 3d bc 9e c4 3d 6f dc fb 3c cb 4a 22 be
       0.067156985 0.09600589 0.03074476 -0.15848844
000310 95 51 65 3d 24 b7 04 3d 32 98 2e 3c 41 c2 80 3d
       0.055986006 0.03240122 0.010656403 0.06287051
000320 ea 5a 0a 3c 1f a7 f5 bd 1a a6 d3 3c 27 e9 51 3d
       0.008444527 -0.119947664 0.02583604 0.051247742
000330 ef 7c a5 39 0e 37 a8 bd 2d 94 06 bd 8a 54 96 bd
       0.00031564335 -0.08213626 -0.032856155 -0.07340343
000340 2f bd ce 3d 77 f1 ed bc 06 ac fb bd c3 48 3b 3d
       0.10094678 -0.029045803 -0.1228867 0.045723688
000350 5b d5 e8 3c 68 10 b9 3d 1b 3a 3c 3e 1f 7f cc bd
       0.028422048 0.09036332 0.1838154 -0.09985184
000360 42 1b 0d bd 32 48 c8 3c ab 7f ed bd 6a 64 de 3d
       -0.034449823 0.024448488 -0.11596616 0.10858996
000370 5a 86 19 3d d5 e3 fc bd 0c b4 45 3d 27 e5 38 bd
       0.037481643 -0.12348143 0.04826741 -0.04514041
000380 3b f6 61 bc fa 3a bc bd 46 07 6e bc 1b 61 e4 3d
       -0.013791616 -0.091909364 -0.014528101 0.11151334
000390 54 2a 0e 3e 4c 18 02 bd 54 15 76 bd c7 43 b0 bd
       0.13883334 -0.031761453 -0.060078934 -0.086066775
0003a0 92 85 41 3e d1 ef b3 3d 69 98 85 bd 37 cd 53 3d
       0.1889861 0.08785976 -0.065232106 0.05170938
0003b0 e6 d0 e2 3c 25 c4 1d 3d cc 1e c9 3c 38 63 2f bd
       0.027687501 0.038517136 0.024550818 -0.04281923
0003c0 f9 b6 a0 3a 65 37 c1 bc 28 40 db 3d c3 72 8d 3d
       0.0012261561 -0.023585984 0.10705596 0.06906655
0003d0 d9 21 1d 3d da c4 5d bd 30 86 42 bd 73 fc 4f 3d
       0.038362358 -0.05414281 -0.047491252 0.050777864
0003e0 05 1b ed bd 8d b7 dc bc 9e ce 26 bd 6b a9 81 bd
       -0.11577419 -0.026942993 -0.04072439 -0.06331142
0003f0 3c b9 09 be 27 25 ba 3d cb 39 78 3c e3 bf 91 bc
       -0.13449568 0.090891175 0.015150498 -0.017791694

gc2.bias f4 [200]
000000 b9 51 0e ba c7 4b 10 bc 33 4c 99 bc df 6f 88 bc
       -0.0005429048 -0.008807129 -0.018713092 -0.016654907
000010 e1 e6 5c bd c2 3b 16 bd cf d4 7c bc 0f 80 93 bd
       -0.05393112 -0.036678083 -0.015431597 -0.072021596
000020 3f eb 05 bd 81 3a 63 bc 5e 63 a2 3c 80 51 f0 bb
       -0.03269505 -0.013868929 0.019822773 -0.0073339343
000030 44 2f b3 bc 75 fb 41 bc ac 00 68 bc 94 89 ef bb
       -0.021873124 -0.011839737 -0.014160316 -0.0073101018
000040 d4 b9 79 bc 7d 1c ee ba ac 98 62 bd 9a 72 b9 bc
       -0.015242059 -0.0018166449 -0.05532138 -0.022637654
000050 1d b7 72 3c 29 1b 9a bc 33 ca bf bc 63 4b 90 3c
       0.014814165 -0.01881178 -0.023411846 0.017614072
000060 d4 82 54 bc bd 3a 9a bb ee bc c5 3b 26 d7 40 3b
       -0.012970645 -0.004706709 0.006034485 0.0029425113
000070 fd d6 11 bd f5 c1 fc 3c 6f dc 20 bd d5 0d 0a bc
       -0.03560542 0.030854205 -0.03927272 -0.008426149
000080 ba bb 4b bc 54 c3 75 bc 3e 46 89 bb 96 fa 9f 3c
       -0.012434894 -0.015000183 -0.0041892817 0.019528668
000090 04 d4 01 bd 2d 9c c7 bd d8 33 b2 bc 43 89 9c bc
       -0.031696334 -0.09746585 -0.021753237 -0.01910842
0000a0 f6 8d af 3b f9 e0 0b 3c ad 92 e2 bc 00 1f 02 bd
       0.0053574992 0.008537524 -0.027657831 -0.031767845
0000b0 48 89 10 bc 38 c3 dd bb 12 21 78 bc 73 e2 46 bd
       -0.008821793 -0.0067676567 -0.015144603 -0.048555803
0000c0 56 68 89 bc 8a cd ad bb 21 0e 8a bb 11 bd fe bc
       -0.016773384 -0.005304043 -0.00421311 -0.031096013
0000d0 83 4c 5d ba 52 24 1c ba 92 ab 06 bd 72 43 e4 bc
       -0.0008441882 -0.000595634 -0.032878466 -0.027864192
0000e0 fc bf b4 bc 51 d2 69 bd 25 32 d8 3c ca c7 56 3b
       -0.022064202 -0.05708534 0.026391098 0.0032772892
0000f0 10 3b 37 bc ff 8d bf bc ac 49 36 3c 38 7a bd 3c
       -0.011183515 -0.023383139 0.011125963 0.023129568
000100 a2 f2 08 bb f0 80 db bc e5 ff 88 3a d7 3d 2a bd
       -0.0020896574 -0.02679488 0.0010452239 -0.04156288
000110 7c 0a 81 bb 0b 33 9d 3a fa 4e 3a bd 07 45 2b bc
       -0.0039380174 0.0011993361 -0.045485474 -0.010453469
000120 f3 de 46 3c ab f6 5f bc c7 c7 3a bc a5 fc 34 bc
       0.012138116 -0.01366965 -0.01140017 -0.011046563
000130 77 67 82 bb 76 87 44 3d 1f 30 a1 bd f6 b0 23 bc
       -0.003979619 0.047980748 -0.078705065 -0.009990921
000140 5a 3d b2 bc 5f 25 eb b9 02 9b 36 bd 0b b7 44 3d
       -0.02175777 -0.00044850537 -0.04458142 0.048026126
000150 13 43 53 bd b7 0b b7 bc 09 52 96 bd 75 1c 08 bc
       -0.05157764 -0.022344453 -0.07339866 -0.008307566
000160 95 e3 32 bc ff 8b e5 3c 0f 8b be bc f8 1e 81 bb
       -0.010918518 0.028020857 -0.023259668 -0.0039404593
000170 ca 28 68 bd 57 a8 43 bd 00 91 a9 bc 13 48 fe 3a
       -0.056679524 -0.047767963 -0.020699024 0.0019400142
000180 ba 3b 2f bd 8c aa ec bb 08 42 86 3b 2d 1e 74 bc
       -0.04278157 -0.007222479 0.004097227 -0.014899773
000190 7a 8f 78 bc d5 3d c5 bc 6f b5 02 bc 5d 41 47 39
       -0.015170926 -0.024077335 -0.007977827 0.00019002469
0001a0 ed ac 43 3b e1 e5 06 bc 27 d5 ea bb 0e 92 eb bb
       0.002985771 -0.008233518 -0.007166523 -0.007189042
0001b0 e3 e5 f3 bc b8 cc 07 bd 79 4d 2c bd 25 a6 ba bc
       -0.029772704 -0.03315422 -0.04206607 -0.022784302
0001c0 47 4b 30 bc 7f 49 b7 bc cb 4a b4 bb 19 c6 83 3b
       -0.010760135 -0.022373913 -0.00550208 0.004021418
0001d0 b2 2b 98 3b 46 66 89 bc 8f a8 9d bd 54 a0 72 bd
       0.0046438808 -0.0167724 -0.076981656 -0.059234932
0001e0 f1 d8 17 3c 42 5a 94 bc ed 54 63 bc 7c f3 38 bc
       0.009268031 -0.018109445 -0.013875228 -0.01128852
0001f0 f7 28 f4 3c 00 f3 29 bc c5 ba 38 bd 1b 0f 0f bc
       0.02980469 -0.010372877 -0.045099992 -0.008731629
000200 00 ad 1c bd b1 f6 fe bc be 47 b5 bc f1 0a bb bc
       -0.038250923 -0.031123491 -0.022128936 -0.022832366
000210 33 21 d5 b9 14 9c 65 3c bb 41 03 bd 52 19 98 bd
       -0.0004065126 0.014014263 -0.032045107 -0.074267045
000220 02 09 88 bc 36 60 42 bc cb d6 d1 b9 33 fc 5a bd
       -0.016605858 -0.011863759 -0.0004002362 -0.053463172
000230 ba 5a 83 bd 2b b0 06 bd cd f6 24 bd ff fc 59 bc
       -0.06413789 -0.03288285 -0.04027443 -0.013304948
000240 f5 98 dc 39 c9 3a 9c bd 12 95 1a bc 55 ca 3d 3b
       0.00042075632 -0.076284 -0.009434955 0.002895971
000250 f8 ab 54 3d d9 f1 e5 ba ce d0 ce bc cf 11 58 bb
       0.051921815 -0.001754339 -0.02524605 -0.00329696
000260 bc fd e1 bc 54 72 48 3c 6e 64 ee bc 43 c6 f3 bc
       -0.02758681 0.012234289 -0.029100623 -0.029757624
000270 c3 98 d6 ba d3 8c af bc c1 12 6f bc ba 80 f1 bc
       -0.0016372431 -0.021429455 -0.014591874 -0.029480327
000280 a3 7b 34 bc fb 30 a4 bc 83 84 03 bc c7 5b 73 3c
       -0.011015805 -0.020042887 -0.008027199 0.014853424
000290 ae d4 d7 bc ee d1 ec bc 7d 9e 27 3c 96 f2 0a bc
       -0.02634653 -0.028908696 0.010230658 -0.008480689
0002a0 e3 13 78 3c 22 27 45 bd ee d7 f6 bc cf 2c 04 bd
       0.01514146 -0.048133023 -0.03013226 -0.032269295
0002b0 43 94 67 3c 2a 6a 8c bc e1 54 63 bd 2d de 3e bd
       0.014134469 -0.017140467 -0.05550087 -0.046598602
0002c0 1a 27 13 bc 77 07 9e bc 53 a0 cc b9 23 7b ac bc
       -0.0089814905 -0.019290669 -0.00039029363 -0.02105481
0002d0 9e 84 b7 bc c3 9a 3f bc 01 24 9c bc 7d 16 9a bd
       -0.022402104 -0.011694613 -0.019060137 -0.075238205
0002e0 76 ef c3 bc 5c ef 4b bc f0 49 ef bc 56 3c aa bc
       -0.023917895 -0.012447204 -0.02921006 -0.020780724
0002f0 08 6b b3 bc 2d 13 fa bb 0c c9 a6 bc eb 98 22 bd
       -0.021901622 -0.0076316805 -0.020359538 -0.039696615
000300 cc 5b 07 bc f2 c0 64 bc bf b9 ca bc 08 3f df bc
       -0.008261632 -0.013962017 -0.024746774 -0.027251735
000310 e5 02 32 bd b5 d1 79 bb 6d 24 97 3b 73 3e cc bb
       -0.04345979 -0.003811938 0.0046124966 -0.0062330305

gc3.weight f4 [200, 100]
000000 b3 bf 09 3e f0 78 e2 bd aa 1d 40 3d 3e dd b9 3d
       0.13452034 -0.11058223 0.04690329 0.09075402
000010 39 a6 cd bd 70 04 2e 3e 3b 46 86 bd b0 73 60 3d
       -0.1004147 0.1699388 -0.06556364 0.05479783
000020 19 5b 5b 3e b7 c0 64 3e 15 e9 2a 3e 02 29 c3 3d
       0.2142147 0.2233914 0.16690476 0.09529306
000030 b0 2e 28 be 77 37 77 3e 58 61 50 bc f6 5b e3 3c
       -0.1642406 0.24142252 -0.012718521 0.027753811
000040 ee e6 79 3e 67 ca 74 3e b0 0f 0f 3e 51 18 aa 3d
       0.24404499 0.23905335 0.13970828 0.08305419
000050 55 68 56 3d d6 e2 6a bd fe 37 15 3e 1e 49 fb bd
       0.052345593 -0.057345234 0.1457214 -0.12269805
000060 0f 9f 45 3d 26 5c 02 3e 34 12 35 bd a8 66 9f 3d
       0.048247393 0.12730464 -0.044206813 0.07783252
000070 35 d2 0d 3c 11 ca 99 3d b7 f4 91 3e 5a 47 0a be
       0.008656074 0.07509244 0.28507015 -0.13503781
000080 c5 ac 85 3e 40 41 31 be 98 ae 35 3e 4a d0 29 3c
       0.26108375 -0.17310047 0.17742383 0.010364601
000090 16 e4 91 bc 34 33 eb bc 8f 7d 26 3e ae 02 83 bd
       -0.017808955 -0.028710939 0.16258834 -0.063969955
0000a0 c4 fe cf bc 35 33 86 3d 0f ee 65 bd 06 36 45 3d
       -0.025390036 0.06552736 -0.056135233 0.048147224
0000b0 95 7d c1 3c 99 4a 5a bc 42 93 72 3e a8 44 aa 3e
       0.023619452 -0.0133234495 0.23688987 0.33255506
0000c0 95 72 76 be a5 ba 88 bd 50 51 f7 bc 6b a0 76 3e
       -0.24067147 -0.066762246 -0.03019014 0.24084632
0000d0 4d 80 3c 3c 70 0f a0 3d c4 d0 e1 3d 19 a2 e6 3d
       0.011505199 0.078154445 0.11026147 0.112613864
0000e0 44 33 80 bd e2 40 52 be 5a 98 6e bb c1 24 28 3e
       -0.06259778 -0.20532563 -0.0036406727 0.1642027
0000f0 db 02 ee 3c 74 fb e6 3d 5e 74 89 3e 77 97 9b 3e
       0.029054096 0.112784296 0.26846594 0.30388996
000100 08 c5 cb 3d c5 e8 53 be d5 9c 23 be 67 46 c0 3d
       0.0994969 -0.20694263 -0.15977795 0.09388428
000110 c4 37 01 3e 92 9e 6f 3d b6 5f 85 bd 2b 46 19 bd
       0.12618929 0.058500834 -0.06512396 -0.037420433
000120 c0 c9 c9 3d 84 6f b2 bc cc ac 56 3d ad 97 b9 3d
       0.09852934 -0.02178169 0.052410886 0.09062133
000130 04 da 1f 3e 6b ae f2 3e 7e c6 83 3e d2 30 ee bd
       0.1561051 0.47398695 0.25737375 -0.116304055
000140 a4 89 60 be b2 94 b8 3d c4 92 29 bc 36 8f 24 3e
       -0.21927506 0.090127364 -0.010349933 0.16070256
000150 a9 b5 b9 bc 12 54 b7 3d 4d 7a b6 3e 27 bb ec 3d
       -0.02266963 0.08951582 0.35640183 0.11559134
000160 cd b3 3a 3e 68 10 07 be 9b 3d 9b bd 08 c9 d0 3e
       0.18232651 -0.13189852 -0.0758011 0.40778375
000170 bb 4e 08 3d f3 b5 2b 3e b0 5b 21 bd f7 36 25 bd
       0.03327821 0.16768627 -0.03939408 -0.04033562
000180 7d 41 1a 3e b6 79 e8 bd 6b 40 3f 3e bc b4 96 bd
       0.15064044 -0.113513395 0.18676917 -0.07358691
000190 78 5e 81 bc 59 e4 c4 bd 76 53 a8 3c ff c3 83 bc
       -0.015792117 -0.09613866 0.02054761 -0.01608467
0001a0 cb 1f ee bb f9 f9 85 bd 04 7d 6a 3e b2 ef c7 3d
       -0.0072669736 -0.06541819 0.22899252 0.09762515
0001b0 fb ae 9d 3d 5b 1a 84 bc 67 8c ea bc cc 79 d3 3d
       0.076993905 -0.016125849 -0.028631402 0.10325965
0001c0 86 23 4e 3e ec ce 10 be aa 71 bc 3d ad b7 87 3d
       0.20130739 -0.14141434 0.09201367 0.0662683
0001d0 cd 49 33 3d af ab 02 3e 30 93 54 be 7a b3 23 3e
       0.043771554 0.12760805 -0.20759273 0.15986434
0001e0 01 e4 c5 bd 6d cb 49 3e 59 6d 1b 3d 2c 23 e8 3c
       -0.09662629 0.19706507 0.03794608 0.028337084
0001f0 47 5f df bc d4 15 f6 3d ca f8 e4 3c 01 3a 2e be
       -0.027267111 0.12015882 0.027950663 -0.17014314
000200 a8 59 9d 3d cd 8f 1b 3e 43 2b 21 3e 82 d5 d5 3d
       0.07683116 0.15191574 0.1573916 0.10441114
000210 f4 18 f5 3d c8 a4 c8 3d b4 fc a4 3b 36 b6 f6 3d
       0.1196765 0.097970545 0.0050350074 0.12046473
000220 55 52 39 be 99 54 07 3d 3e bd 80 3d a9 4d 06 bc
       -0.18097813 0.033039663 0.06286095 -0.008197227
000230 a2 e2 22 3e 47 aa aa 3d fe b4 8b be e5 65 03 3e
       0.15906766 0.08333259 -0.27286524 0.12831838
000240 47 1e 03 be d0 5f 8b 3d 77 a0 7a 3c f6 6a d5 3c
       -0.12804519 0.06805384 0.015297047 0.02605198
000250 d2 04 f5 3d d5 03 01 bd bd ca e4 bc fd 45 43 3e
       0.1196381 -0.031497795 -0.027928704 0.19069667
000260 00 4e 47 bd 0c 79 4f 3e cf 37 7c 3d fb 04 cf 3d
       -0.04865837 0.2026102 0.06157666 0.10108372
000270 55 2d ca bd 79 89 18 3e e7 2e 5b bc d3 aa ba 3d
       -0.09871928 0.14896192 -0.013377882 0.091146134
000280 55 cb 05 3b d8 50 3c 3e 9e c9 eb bc 17 ed a1 3d
       0.0020415385 0.18390214 -0.028782662 0.079065494
000290 59 1d 30 3e e8 7c 6b 3e c6 32 63 3e 5f e4 a7 3d
       0.17198695 0.22996867 0.22187337 0.08197855
0002a0 e7 e3 ae 3d a0 bb 03 bc 30 cd dd bd c2 a9 d7 bd
       0.08539563 -0.008040339 -0.10830152 -0.105304256
0002b0 d6 55 d7 3d 85 78 f1 3b 39 fc a4 bc 5c 14 18 be
       0.10514419 0.0073691034 -0.0201398 -0.14851516
0002c0 ea e4 c5 3d 55 2f d5 3d 8e 53 2e 3e cf a0 ae 3d
       0.096628025 0.104094185 0.17024061 0.085267656
0002d0 f4 c2 38 3d 44 30 4c bd 90 62 94 bc c1 61 91 3d
       0.045107797 -0.049850717 -0.018113405 0.07098723
0002e0 84 02 17 be 96 cb 58 3a 58 17 fd b9 e4 8f ba 3d
       -0.14747053 0.0008270083 -0.00048273313 0.09109476
0002f0 ed 0f aa 3d 88 ee e5 bc f1 37 02 bd d4 b6 67 3e
       0.08303819 -0.028067842 -0.03179163 0.22628337
000300 a3 1e 92 bd 02 da 8d bd 89 6e a4 bd 47 74 51 3d
       -0.0713475 -0.06926347 -0.080288954 0.05113628
000310 77 19 f1 3d e5 9a d6 3d 4c 4c 31 bc 3e 12 e0 3d
       0.11772435 0.104787625 -0.010821413 0.109409794
000320 5e 64 ef 39 50 8e 84 3d 52 1e f1 3b 50 fb 9e 3c
       0.00045660412 0.064724565 0.007358351 0.019406945
000330 f1 c1 50 3c d9 86 63 3c 96 73 55 3e a7 80 54 3e
       0.012741552 0.013887131 0.20844874 0.20752202
000340 c0 fa 12 3e d0 a3 72 3e 4e f7 2d 3e 65 91 50 3c
       0.14353466 0.23695302 0.1698887 0.012729977
000350 97 ec d3 3d 99 c5 2d 3e af d3 e6 bd 20 56 57 3c
       0.1034786 0.16969909 -0.11270844 0.013143092
000360 e4 f6 55 3e 95 a0 28 3e 1d 75 19 be 83 52 51 3e
       0.20894963 0.16467507 -0.14986081 0.20441632
000370 3b 4b 9f bd be 68 a7 3d aa 2f 0b bc dc 54 e4 bd
       -0.07778021 0.08174275 -0.008495251 -0.11148998
000380 e4 c9 31 3d 0d 8e c1 bd cc 59 28 bd df 64 3f 3d
       0.04340543 -0.09450922 -0.041101262 0.046727058
000390 b0 80 96 3e 3f 13 d7 bc 0b ba aa 3d ca 0a db bd
       0.29395056 -0.026254294 0.08336266 -0.10695417
0003a0 39 1e 5a 3c 4d 1d 80 3c ce 1f 91 3e 47 bf da 3d
       0.01331287 0.015638972 0.28344578 0.106810145
0003b0 1b 71 02 bc bc dd 68 3e 3d 88 0e 3e 2c be 2f bd
       -0.007961537 0.22740835 0.13919158 -0.04290597
0003c0 ae 6f ba 3d 02 d5 99 3c 39 e3 6d be 2e b7 31 3e
       0.091033325 0.018778328 -0.2323121 0.17355034
0003d0 99 c8 27 3d 16 fa 3b bc 4c 0c a9 3d a5 87 e2 bd
       0.04096279 -0.011473199 0.082542986 -0.110610284
0003e0 ba ec e8 3d 38 49 2c be d6 79 d3 bd ca 0e 1f bd
       0.11373277 -0.16824806 -0.10325973 -0.038832463
0003f0 5b 22 ee bd 70 00 3a 3d 7a 51 25 3e 3f 0e 4e 3d
       -0.116276465 0.045410573 0.16144362 0.050306555

gc3.bias f4 [100]
000000 14 a2 59 bc 49 b3 8a ba 1b c1 2a bd 0a c7 ac bc
       -0.013283271 -0.0010581996 -0.041688066 -0.021091003
000010 cb 1b 84 bc 31 7f c5 bb 53 c1 53 bc 8f c1 b1 bb
       -0.016126534 -0.0060271253 -0.01292451 -0.0054246853
000020 82 89 b7 bc 49 2b 28 3b 15 85 e2 ba 3f 40 b9 bb
       -0.022404436 0.0025660566 -0.0017282093 -0.0056534107
000030 f7 9d 34 bc 71 0c cd bc a9 61 0f 3d 0a 35 2f bd
       -0.01102399 -0.025030347 0.035005245 -0.04277519
000040 de 1b 00 bd b1 69 09 bd ff 40 9d 3b 5a 8c f4 bb
       -0.031276576 -0.03354806 0.004799008 -0.0074630203
000050 8b de 47 3d dc 5f 97 bc e9 5a 0a 3a 27 e8 18 3d
       0.048796218 -0.018478326 0.0005277829 0.037330773
000060 94 4e 2a bd 80 25 12 bd ed 26 05 3d 2d d2 26 3d
       -0.041578844 -0.035680294 0.032507826 0.040727783
000070 fd 52 f8 3c 01 66 09 bd ae ee 8b bb fd 84 54 3d
       0.03031301 -0.033544544 -0.004270396 0.05188464
000080 1a 82 79 bd 40 b6 da bc 75 69 a4 bc 02 bb e2 3c
       -0.06091509 -0.026698232 -0.020069817 0.027677063
000090 37 a9 9f bc 2b 95 5d bc cd 5f 7d bc b2 50 da bc
       -0.019489868 -0.013524334 -0.015464735 -0.026649807
0000a0 dd c5 3f bd 4b 04 03 bd a2 68 a0 ba 0a b2 61 bc
       -0.046819557 -0.031986516 -0.0012238214 -0.013775358
0000b0 81 b5 28 3d 10 3f 02 bd 8f 37 ae 3b 3f 46 79 bd
       0.04118872 -0.031798422 0.0053166817 -0.060858008
0000c0 65 3d 07 3d ac 16 90 bc 23 43 ce bc 42 ae 84 bc
       0.033017535 -0.017588936 -0.025178498 -0.016196374
0000d0 9b 03 e6 bb f8 11 27 bb 43 4c 0e bd 6f b4 e4 bc
       -0.007019473 -0.0025492888 -0.034740698 -0.027918069
0000e0 d8 01 21 3c 81 22 59 3d 26 18 5f 3c 7f bd 00 bd
       0.0098271 0.05301142 0.013616597 -0.031430718
0000f0 6d 6c 9a 3c 0d c1 42 bc fb 64 b8 bc b0 54 63 bd
       0.01885053 -0.011886847 -0.022509089 -0.055500686
000100 cc ae 82 bb 26 97 cd bc 9f 95 83 bb f2 f0 2f bd
       -0.0039881226 -0.025096487 -0.004015639 -0.042954393
000110 db bd cd bb f8 5e 24 bc cf 35 3c 3d a4 c8 40 3d
       -0.006278736 -0.010032408 0.045949753 0.047066346
000120 ab ec f3 bc 3d 5d 6c 3c da 66 19 bb 4a 13 b3 39
       -0.029775938 0.014426527 -0.0023407252 0.00034155912
000130 23 39 4a 3d 5f 4e 99 bc 50 85 54 bd 7a 38 ab bc
       0.049370896 -0.018714128 -0.05188495 -0.020900954
000140 c6 86 78 bc 91 e7 53 3c 0a 0d 0b bd fe fb ef b9
       -0.015168851 0.012933628 -0.033947982 -0.0004577338
000150 d2 ef 4b bb 00 a8 1d bc 54 c5 79 3b f7 ea ac bc
       -0.0031118286 -0.009622574 0.0038112001 -0.021108134
000160 d6 d0 e2 bc 7d a5 84 bb be 9c de 3c da 28 3a bd
       -0.027687471 -0.004048048 0.02717435 -0.045449115
000170 69 24 f6 bc 5f a2 25 bc 79 f0 05 bd 59 3a 07 3d
       -0.030046659 -0.010109513 -0.032700036 0.03301463
000180 86 ac ed bc 99 b7 f0 3a 37 39 1d bd b2 99 f1 bb
       -0.02901293 0.0018365263 -0.038384642 -0.0073730582
