BRCA/models/1/C1.pth (torch, 5112 bytes, 2 tensors)

clf.0.weight f4 [5, 200]
000000 b5 b6 fb bd 92 79 0c bc 68 8f 6f bc e2 9a a7 3c
       -0.12290708 -0.0085739065 -0.014621593 0.020459596
000010 b6 7d 73 3c f8 97 8f 3d de cc a4 3c 62 c5 ef 3d
       0.014861515 0.070114076 0.02011722 0.1170757
000020 12 50 60 bd 1a d3 2e bc a3 3d 93 bd 6f 76 41 3e
       -0.05476386 -0.010670448 -0.07189491 0.18892835
000030 04 d4 9f bb de 33 08 3e 14 d3 33 3e d5 18 c4 3d
       -0.004877569 0.13301036 0.17560989 0.09575049
000040 81 cb 23 3e 0a c8 08 3d b7 5d 6d 3e b4 cc b4 bd
       0.159956 0.033393897 0.2318028 -0.088281065
000050 41 c3 6b bd d2 c4 71 bb e8 80 6a 3e 9d 74 74 3b
       -0.057559256 -0.0036890996 0.22900736 0.0037300952
000060 7b 78 8e bc 12 51 2d 3e a0 61 4e be c3 72 99 bd
       -0.017391434 0.16925457 -0.20154428 -0.07492592
000070 a3 95 d9 bd 78 ba 8e ba 3b 08 a4 bd 07 10 fd bc
       -0.10624244 -0.0010889312 -0.08009382 -0.030891431
000080 6c 9f 3a 3d 1c f9 07 be 1b 16 4d 3c 01 10 6d bd
       0.045562193 -0.13278621 0.012517477 -0.05787659
000090 22 c2 a0 3d 2b 1a 2f 3e 6c 3e 9e bd 7e d9 5b 3d
       0.07849528 0.17099826 -0.0772675 0.053674214
0000a0 6c 39 88 b6 f4 74 e9 bc 1b b0 0f bd 67 92 38 3c
       -4.0598006e-06 -0.02849815 -0.035080057 0.011265374
0000b0 60 9f 26 be b8 eb dc 3d ec 8d 17 3e 50 f0 0f bd
       -0.16271734 0.10787147 0.14800233 -0.03514129
0000c0 52 5b 13 be aa 40 14 bc d8 f9 66 bd 0b 25 10 3d
       -0.14390305 -0.00904862 -0.056390613 0.035191577
0000d0 ba 41 b8 3d 33 87 22 3e 0d 7e 67 3e 4d ee 17 3e
       0.08996911 0.15871887 0.22606678 0.14836998
0000e0 f7 7f eb 3c 50 0f cd bd 2a 1b 8f bd 57 38 ae bd
       0.028747542 -0.10012686 -0.06987603 -0.0850684
0000f0 83 2c a8 3c 73 3e 3e 3d 04 8d f8 3d 7d 70 e4 3d
       0.020529037 0.046446275 0.121362716 0.11154268
000100 89 87 d8 3c b3 9f a1 3d 32 6e d2 3c b4 e8 68 bd
       0.026431816 0.07891788 0.02568731 -0.056862548
000110 79 e9 85 bd a1 8d 63 be dd 26 fe bc c4 03 e0 3d
       -0.06538672 -0.22221996 -0.03102439 0.10938218
000120 45 f6 a6 3d fc 08 40 bd e4 22 09 3d a4 59 0e 3e
       0.08152441 -0.04688357 0.03348054 0.13901383
000130 3b a8 14 3d 19 5f 16 3d df 9e dd bd 24 d8 7b bd
       0.03629325 0.036711786 -0.10821318 -0.061485425
000140 42 80 e2 bd 60 54 25 bd ef b1 dc bc 1d dd 8b be
       -0.110596195 -0.04036367 -0.026940314 -0.27317134
000150 ce e1 a7 3d 30 90 15 3e dd 9c 77 3d c5 65 34 3d
       0.08197366 0.14605784 0.06045233 0.044042367
000160 79 b8 50 3d 6a 5d ee 3d 24 24 03 be 86 2e 09 3d
       0.050957177 0.11638911 -0.12806755 0.033491634
000170 2f e8 22 be d7 4f db bc 9d e9 ab 3c a3 88 04 be
       -0.15908884 -0.026771469 0.020985419 -0.12942748
000180 39 59 0d 3d 7e 8f 87 bc 0d 5b 3d 3e 4e 4b 81 3b
       0.034508917 -0.016547915 0.18491764 0.0039457446
000190 e5 b5 a9 3d b4 cc ee bd 99 5a db 3c 1e 47 67 bc
       0.08286647 -0.11660138 0.026776599 -0.014116077
0001a0 7e af 18 3d c9 08 0e 3c e9 5e 0b 3e ab c9 48 3d
       0.037276737 0.008669087 0.13610424 0.04902045
0001b0 bd 26 b2 bd dc 2e 91 bd b4 11 a3 bd 34 c0 8d 3c
       -0.08698795 -0.07089016 -0.07962361 0.017303564
0001c0 71 69 18 3e 5c ec e5 3c 36 0e 36 3d 49 1d 20 bd
       0.14883973 0.028066806 0.044447146 -0.03909043
0001d0 34 64 8f 3d 4d 7f ca 3d 1a 87 aa bd 28 75 fa 3d
       0.07001534 0.09887562 -0.0832655 0.12229377
0001e0 0f 1b 18 be 91 cb 3a 3c 72 c0 0e 3e cc 93 e8 bc
       -0.14854072 0.011401073 0.139406 -0.028390788
0001f0 ca 1d 87 3d 4b d8 88 bc 7f ee 70 3d d8 4d 4a bd
       0.06597479 -0.016704699 0.058821198 -0.049390644
000200 75 77 1f 3e dc 3e 76 bd 00 20 69 3d 1c 9d 8b 3c
       0.15572913 -0.06011854 0.056915283 0.017042689
000210 54 17 cf 3a bf 4b fc bb e2 80 ab bd 35 28 9a bc
       0.0015799799 -0.0076994593 -0.08374192 -0.018818
000220 ed e3 d3 3c 9d 77 12 be 36 07 2b be 86 2d 8b bc
       0.02586552 -0.14303441 -0.1670197 -0.01698948
000230 0b 34 0e 3e 54 0e 1c bd 30 67 8d bd ab aa 3c be
       0.1388704 -0.038099602 -0.06904447 -0.1842448
000240 f7 d5 59 3d 77 f4 12 be ee b3 b0 3d 37 5d ed bc
       0.05318257 -0.14351068 0.08628069 -0.028975112
000250 70 3d e6 bd 00 04 15 bd 6d 0c c1 bd 30 f7 2a be
       -0.11242187 -0.036380768 -0.09426198 -0.16695857
000260 c4 d8 ca bd 39 ca aa bd 9f 51 4d be 18 62 47 3e
       -0.09904626 -0.08339352 -0.20050667 0.19471014
000270 58 ec 5e bc 58 73 dc bc 1c 6f ba bb a4 3f dc bd
       -0.013606153 -0.026910469 -0.005689515 -0.10754326
000280 db 95 9d 3d 53 0b 1f 3e ae 82 89 bd ae bc 54 bd
       0.07694598 0.15531664 -0.06714378 -0.05193775
000290 0e 41 c8 bc 7b f8 1f 3e 18 9a f8 bc 02 c0 59 be
       -0.024445083 0.15622132 -0.030346915 -0.21264651
0002a0 ba ea 02 3e 86 b7 a8 bd e2 34 cf bd c3 2a 23 bb
       0.12784854 -0.08238129 -0.101175085 -0.0024897314
0002b0 78 da 03 3e 0d b2 7c 3c ce 89 67 3e 84 38 49 bd
       0.12876308 0.01542331 0.22611162 -0.049126163
0002c0 e6 8c b8 bd 81 ae 3b bb a5 1a 8f bd 02 49 23 be
       -0.09011249 -0.0028637948 -0.06987504 -0.15945819
0002d0 c7 84 92 bd 99 7f 11 3b 8e 8e 14 3b 58 96 32 bd
       -0.071542315 0.0022201298 0.0022667977 -0.04360041
0002e0 c0 1c 28 3d 3a 18 d2 3d 3a 17 cd 3c 4f c1 40 be
       0.041043043 0.10258527 0.02503549 -0.18823741
0002f0 10 ec 44 bc 5f a0 c2 3d d6 6a 3d bd e3 e7 34 bd
       -0.012019172 0.095032446 -0.046244465 -0.044166457
000300 c0 6a 6e bd 83 83 44 bd e7 db 32 bb 55 c7 85 bd
       -0.058207273 -0.04797698 -0.0027291717 -0.0653216
000310 c0 83 16 3d 1d da 1f bc 08 31 18 3d e1 95 e4 bc
       0.03674674 -0.009756592 0.037156135 -0.0279035
000320 b2 df bb ba ca 69 5e bc d9 af 99 bd ae 51 8a bd
       -0.0014333634 -0.013575027 -0.075042434 -0.067538604
000330 70 93 fc bd 33 74 c5 3e 0f bf 13 3d 36 d9 c3 bd
       -0.12332809 0.38565215 0.03607088 -0.09562914
000340 e2 7f 5e be dc e7 3f 3e 4a 33 dc 3d 43 61 62 3d
       -0.21728471 0.18740791 0.1075197 0.055268537
000350 15 8f 26 3c 79 03 5f bd 64 35 22 3d 64 de 1f bd
       0.010165949 -0.05444667 0.0396017 -0.039030448
000360 17 83 b6 3d 7d d3 c9 bc 45 0c 73 be 4b 55 fb bc
       0.08911722 -0.024636978 -0.23735149 -0.03068032
000370 c7 95 b3 bd bd 35 1c be de e6 2d 3e 5c a5 5f 3d
       -0.08768802 -0.15254875 0.169826 0.05460106
000380 62 72 8c be 82 14 f9 bd d8 d4 9a bd c8 50 81 bd
       -0.27431017 -0.12162115 -0.07560128 -0.06314236
000390 31 40 a1 3d 09 1d 33 bd 50 7b db 3c 14 db ea 3d
       0.07873572 -0.043728862 0.026792198 0.11467567
0003a0 0c 68 85 3d 01 ab a1 3d 24 a5 f3 3c 12 67 1e 3d
       0.06513986 0.078939445 0.029741831 0.038672514
0003b0 9e fa 20 be d2 02 ec bc 52 4c 39 3d 6b 98 43 3c
       -0.15720603 -0.028809939 0.0452388 0.011938195
0003c0 d5 67 2b bd 3f 14 c7 3c d0 37 81 bb 0c ba 30 bb
       -0.04184707 0.024301646 -0.003943421 -0.0026966361
0003d0 7f ce 4f 3b 5c bd 19 3e db 6c 14 3e 20 55 c6 3c
       0.0031708775 0.15013641 0.1449465 0.024210513
0003e0 48 37 45 bc 4f 11 1f bd f3 b2 85 3d f3 6a 3d 3d
       -0.012037106 -0.038834866 0.065282725 0.046244573
0003f0 8d 4f 52 3c 07 4a 89 3d e4 e6 4d bd d2 7a 1f bd
       0.012836349 0.06703573 -0.050269023 -0.03893549

clf.0.bias f4 [5]
000000 be 34 68 bd d8 24 a9 bd b5 36 5c bd ee 06 41 3d
       -0.056690924 -0.082589805 -0.05376311 0.04712575
000010 a9 0f 9a bb
       -0.004701574
