BRCA/models/1/C2.pth (torch, 5111 bytes, 2 tensors)

clf.0.weight f4 [5, 200]
0.16656397 -0.0710299 -0.029372577 -0.009424399 -0.08000756 -0.1406167 0.006574699 0.0010522342
-0.07641841 0.09529028 0.024691025 -0.105483204 0.09311946 -0.018297173 -0.099343166 -0.027168116
-0.00527978 -0.076995745 -0.09935462 0.015423028 -0.08794912 -0.21406585 0.014243604 0.13603412
0.1589027 0.1092958 -0.080683164 0.101912834 -0.027780585 0.055881813 0.053420577 -0.103461504
0.11870644 -0.1082147 -0.0014230948 -0.022294112 0.06901169 -0.016308857 0.046337165 -0.041639786
0.13504444 -0.045375742 0.03407881 -0.046955325 0.03129783 0.18635195 0.12565221 0.031211019
-0.04400576 0.076600455 -0.07087414 -0.019057676 0.057419453 0.073936306 -0.007030216 -0.118300214
0.13989505 -0.013675504 0.018703133 -0.012585472 0.071073584 0.10195562 -0.016691793 0.021154845
-0.102278 -0.114351265 0.027364984 0.05473628 0.055831607 0.028015975 0.0746437 0.028499141
0.007984762 0.026436768 -0.013274364 -0.10937561 -0.05810966 -0.22882624 -0.059887 -0.00042741216
-0.09239873 0.018653098 -0.33050004 0.033074472 -0.17539781 0.12307638 0.097071044 -0.03946398
-0.01877724 -0.061910126 -0.04427203 -0.039721787 0.022160994 0.13256748 0.2330072 0.045227945
-0.04477703 0.25025937 -0.071475394 -0.074795626 0.034087565 0.11788781 0.09041716 0.029269645
0.050183225 -0.060011704 0.056839354 0.10995014 0.0033758592 0.043083195 -0.030653005 -0.13039713
-0.028757168 0.07530889 -0.075202785 -0.052106056 0.03312969 -0.07982263 0.13401712 0.123957366
-0.07465433 0.06474183 -0.0945215 0.00015428907 0.0024232694 -0.033866614 -0.05139971 -0.11495361
0.038180754 -0.11094171 -0.20411089 -0.06273531 -0.01976123 0.12531614 0.019919617 -0.059748724
0.03936446 -0.03778007 0.04838304 -0.037704755 -0.083578676 -0.025461879 -0.046066005 -0.031076329
0.14190532 0.11564673 0.04135425 0.098434195 0.062203653 0.12389086 -0.11308546 0.12653835
-0.03851758 -0.054807786 -0.098741755 -0.0034291525 0.10882844 0.0132190315 0.06610552 0.003480454
0.090015024 0.040529683 0.11602215 -0.06316529 0.01560192 0.050155673 0.06853329 0.043158174
0.04155888 0.038133588 -0.014868953 -0.073403016 0.015390709 0.06264931 -0.032272227 -0.11030472
0.06498963 0.028496606 -0.10074837 -0.09584306 0.02907474 -0.06750588 0.026199436 0.062692255
-0.07725094 0.08364707 0.061285242 0.12031757 -0.07599222 -0.007554376 0.013121186 -0.079066716
0.039797105 -0.030196428 -0.01711453 -0.06628849 0.081467256 0.023123045 0.0027759126 -0.08865125
0.054560218 0.03527013 -0.055086937 0.09307982 -0.0033742047 -0.054627016 0.02341874 0.012076984
0.14717667 -0.046080433 0.02254609 -0.10925047 0.033980895 -0.06097798 -0.031650525 0.0057092593
0.069748916 -0.14099337 -0.17156836 0.04130463 -0.21930711 0.029759692 0.063711576 -0.04322701
0.073906735 -0.11738164 -0.11272408 -0.032971036 0.10954946 0.049547277 0.04379613 -0.0076629794
-0.14925425 0.017101703 0.020128742 -0.114989355 0.14800075 0.010388802 0.109025635 -0.00042749688
0.013846189 -0.04170376 -0.14437355 -0.09057406 -0.020749034 -0.2944186 0.13583246 0.014835154
-0.07019325 -0.015194576 0.017709818 0.21417266 0.09284571 0.0461627 0.114377506 -0.024798289
00000000: bf8f 2a3e 2078 91bd c29e f0bc cb68 1abc
00000010: 01db a3bd d3fd 0fbe 9370 d73b 1feb 893a
00000020: 4181 9cbd 8d27 c33d d544 ca3c 9407 d8bd
00000030: 6ab5 be3d f4e3 95bc 6e74 cbbd ab8f debc
00000040: 0102 adbb f2af 9dbd 6f7a cbbd deb0 7c3c
00000050: ab1e b4bd 1434 5bbe 015e 693c 874c 0b3e
00000060: 64b7 223e 7ad6 df3d 373d a5bd adb7 d03d
00000070: 1c94 e3bc 54e4 643d 89cf 5a3d a0e3 d3bd
00000080: 5d1c f33d ab9f ddbd 2387 baba 24a2 b6bc
00000090: 0056 8d3d 279a 85bc 0acc 3d3d 7b8e 2abd
000000a0: 1749 0a3e eadb 39bd 3996 0b3d 3a54 40bd
000000b0: 2732 003d 0cd3 3e3e f9aa 003e 40ae ff3c
000000c0: 623f 34bd b3e0 9c3d 7626 91bd d81e 9cbc
000000d0: a930 6b3d eb6b 973d ba5d e6bb 6247 f2bd
000000e0: a640 0f3e 390f 60bc 5037 993c 4c33 4ebc
000000f0: 078f 913d 1cce d03d 3abd 88bc ed4c ad3c
00000100: 2177 d1bd ff30 eabd 882c e03c 2633 603d
00000110: afaf 643d c281 e53c ccde 983d 0877 e93c
00000120: 85d2 023c ec91 d83c b87c 59bc 5200 e0bd
00000130: 6504 6ebd 6d51 6abe 124c 75bd 4a16 e0b9
00000140: 8c3b bdbd 62ce 983c 4d37 a9be 1979 073d
00000150: 7c9b 33be 780f fc3d 2fcd c63d fba4 21bd
00000160: bad2 99bc 7995 7dbd 9756 35bd 50b3 22bd
00000170: f98a b53c c5bf 073e 7099 6e3e f040 393d
00000180: 1e68 37bd ff21 803e b161 92bd 732e 99bd
00000190: 679f 0b3d 2a6f f13d a22c b93d e5c6 ef3c
000001a0: ed8c 4d3d d5ce 75bd 62d0 683d 8a2d e13d
000001b0: 853d 5d3b 0178 303d 031c fbbc d386 05be
000001c0: 2794 ebbc 8c3b 9a3d eb03 9abd 296d 55bd
000001d0: ffb2 073d 0c7a a3bd c93b 093e 5cdd fd3d
000001e0: 5fe4 98bd 5d97 843d 7d94 c1bd a8c8 2139
000001f0: b7cf 1e3b b8b7 0abd 8188 52bd cc6c ebbd
00000200: 6c63 1c3d 6835 e3bd 7202 51be 5f7b 80bd
00000210: 4ee2 a1bc e052 003e 772e a33c 14bb 74bd
00000220: a13c 213d 46bf 1abd 4b2d 463d 4d70 1abd
00000230: 4c2b abbd 6e95 d0bc b5af 3cbd c993 febc
00000240: a14f 113e 31d8 ec3d 1363 293d de97 c93d
00000250: 42c9 7e3d 7eba fd3d 5a99 e7bd 4593 013e
00000260: 9cc4 1dbd 217e 60bd 1e39 cabd a2bb 60bb
00000270: 72e1 de3d a394 583c 5562 873d 5418 643b
00000280: cc59 b83d 7402 263d 059d ed3d ce5c 81bd
00000290: 329f 7f3c 0970 4d3d 2e5b 8c3d a0c6 303d
000002a0: a539 2a3d f731 1c3d e99c 73bc 5254 96bd
000002b0: 5029 7c3c 484e 803d e22f 04bd 71e7 e1bd
000002c0: 4819 853d b771 e93c 2955 cebd 5e49 c4bd
000002d0: 262e ee3c 8640 8abd 33a0 d63c cc64 803d
000002e0: be35 9ebd 284f ab3d 3c06 7b3d 0f69 f63d
000002f0: cfa1 9bbd b38a f7bb 3efa 563c bbed a1bd
00000300: 4a02 233d 805e f7bc c533 8cbc 43c2 87bd
00000310: 4ed8 a63d 8a6c bd3c 16ec 353b c98e b5bd
00000320: 897a 5f3d 6977 103d d7a2 61bd a2a0 be3d
00000330: c321 5dbb 94c0 5fbd a8d8 bf3c 8bde 453c
00000340: 7bb5 163e d6be 3cbd 94b2 b83c b6be dfbd
00000350: 8d2f 0b3d 0cc4 79bd fba3 01bd bd14 bb3b
00000360: 85d8 8e3d 9160 10be 9eaf 2fbe 0b2f 293d
00000370: 0b92 60be 99ca f33c 377b 823d ce0e 31bd
00000380: 6a5c 973d c965 f0bd e2db e6bd a30c 07bd
00000390: 785b e03d 16f2 4a3d 9263 333d bb19 fbbb
000003a0: 1bd6 18be df18 8c3c 08e5 a43c 8a7f ebbd
000003b0: 828d 173e cb35 2a3c d548 df3d a921 e0b9
000003c0: 20db 623c 90d1 2abd a9d6 13be e57e b9bd
000003d0: e1f9 a9bc 09be 96be aa17 0b3e 250f 733c
000003e0: 7bc1 8fbd acf2 78bc 2e14 913c 1450 5b3e
000003f0: e425 be3d 1915 3d3d c13e ea3d c825 cbbc

clf.0.bias f4 [5]
-0.08033445 -0.07599511 -0.13149242 0.08198603 -0.029640364
00000000: 6386 a4bd 53a3 9bbd f3a5 06be 4be8 a73d
00000010: 59d0 f2bc
