BRCA/models/1/C3.pth (torch, 5112 bytes, 2 tensors)

clf.0.weight f4 [5, 200]
-0.21955812 -0.366673 -0.023199061 -0.2590852 -0.03986768 -0.10169312 -0.10667456 0.030851131
-0.011628217 -0.18122704 0.0701429 -0.15521556 0.011016394 -0.10347102 0.04231411 0.112894334
-0.16944335 0.24902965 -0.123755105 -0.3875726 -0.016998755 0.01941329 0.18156296 -0.12061602
-0.13005605 -0.0054258085 0.08559682 -0.15455328 0.11317025 -0.119451664 -0.036394157 0.067862086
-0.17196986 0.16248062 0.12934896 0.34768483 -0.097278856 -0.11685739 0.10128027 -0.042468224
0.13830623 0.018126687 -0.020962058 0.115853615 -0.031332694 -0.38500303 0.105948426 -0.014988728
0.30291083 -0.01856759 -0.082258366 -0.17833498 -0.018408287 0.020133007 -0.22666256 -0.093015164
0.1955806 0.11741047 0.14046495 0.02882048 0.05204252 -0.005747801 0.027978614 -0.0042596254
-0.052251022 -0.12594917 -0.066514045 0.20503211 -0.0051404866 0.11277784 -0.49689353 -0.01348176
0.16225265 0.07091853 -0.032284677 -0.21962859 0.08861004 -0.14811344 -0.012561502 0.118684486
0.34330747 0.025431823 -0.31960866 -0.17115065 -0.026987752 0.09480493 -0.0859805 0.0046230513
0.039805938 -0.30608705 0.0005785016 -0.063424505 0.025798162 -0.075591795 0.06263718 0.076641776
-0.13288262 0.14165233 0.08492756 0.020429067 -0.11046859 0.09724323 -0.074880704 -0.037308026
-0.20637786 -0.026754957 0.11618753 0.16111371 -0.09408758 -0.3178493 -0.07180787 -0.3965504
-0.030995008 -0.2716253 0.054734625 0.05184598 -0.026550844 -0.018666044 -0.18520232 -0.15703067
-0.18185551 0.08240855 -0.21357651 -0.12901694 -0.022921808 -0.09944324 -0.11439098 -0.08279933
0.18124866 -0.014811531 -0.07211965 -0.011672094 0.14418261 -0.0063905786 -0.22104569 -0.38817838
0.013204193 0.023341479 -0.04490348 0.3301304 0.22026113 0.19860539 0.06293773 0.4202714
0.15159792 0.044183914 -0.06518834 -0.301667 -0.38231602 -0.082590744 0.07289462 -0.07217028
0.0790715 0.04676635 -0.305629 0.09545557 0.29807118 -0.02597604 -0.08238299 -0.110899225
-0.044037282 -0.060063556 0.15604891 0.018241428 -0.016437108 -0.29142576 -0.07750769 -0.045326427
-0.0884689 -0.05039208 0.28860053 -0.33247292 0.15125972 -0.047192484 0.008891021 -0.02629729
-0.2772403 -0.16451928 -0.046969283 0.23159298 -0.094551675 -0.10960989 0.025261192 0.12645635
0.039785188 -0.048256848 0.18325703 0.061223537 -0.18402824 0.035681374 0.3032602 0.16370204
-0.07941868 -0.22333416 0.26547998 0.07342883 0.028375145 0.14537987 0.06151201 -0.079991676
0.20187566 0.09770992 0.21463306 0.10040289 0.058050536 -0.036530484 0.073014654 0.05990255
-0.064351186 0.038783178 0.12073429 -0.03846646 0.15636884 -0.04103033 -0.0799573 0.1591626
-0.12339231 0.18463297 -0.06524999 -0.05842426 0.033534076 -0.060489617 0.039580036 0.058694515
0.21017183 0.0010796748 0.0711429 0.007765161 -0.4720635 -0.14893796 0.0022848225 0.29288426
-0.07390772 0.1269286 -0.2900546 -0.013127319 0.12715296 0.10583508 -0.20367508 0.25413662
-4.533317e-05 0.111305974 -0.07789593 -0.06780977 0.081272185 0.03758809 0.11850477 -0.021964382
-0.09610505 0.16631517 0.19379134 -0.018759187 0.06851236 -0.15944156 0.05899041 0.19184147
00000000: d8d3 60be 90bc bbbe f50b bebc d1a6 84be
00000010: 4b4c 23bd 7c44 d0bd 3178 dabd 83bb fc3c
00000020: 4784 3ebc 9593 39be 15a7 8f3d d4f0 1ebe
00000030: 1b7e 343c 9de8 d3bd 8f51 2d3d 2535 e73d
00000040: 8f82 2dbe a101 7f3e 5173 fdbd ea6f c6be
00000050: f940 8bbc 9f08 9f3c a4eb 393e 8805 f7bd
00000060: 6a2d 05be fbca b1bb 634d af3d 3743 1ebe
00000070: cec5 e73d 13a3 f4bd 0a12 15bd 47fb 8a3d
00000080: de18 30be 5261 263e 0e74 043e bf03 b23e
00000090: 233a c7bd ed52 efbd 086c cf3d 29f3 2dbd
000000a0: 26a0 0d3e 6b7e 943c 9fb8 abbc a944 ed3d
000000b0: b656 00bd 1e1f c5be 7dfb d83d 4893 75bc
000000c0: 2117 9b3e 0f1b 98bc 1377 a8bd 729d 36be
000000d0: facc 96bc faed a43c 3b1a 68be bc7e bebd
000000e0: 4846 483e e774 f03d 0bd6 0f3e ed18 ec3c
000000f0: 8a2a 553d 0d58 bcbb 6833 e53c 5494 8bbb
00000100: 2b05 56bd d2f8 00be 8438 88bd f0f3 513e
00000110: 8771 a8bb 11f8 e63d d468 febe 9ae2 5cbc
00000120: 8f25 263e bc3d 913d f03c 04bd 51e6 60be
00000130: 2e79 b53d 0dab 17be c2ce 4dbc da10 f33d
00000140: ffc5 af3e 6656 d03c bfa3 a3be 1e42 2fbe
00000150: 6b15 ddbc 1629 c23d 8b16 b0bd f77c 973b
00000160: 8d0b 233d 71b7 9cbe 96a6 173a b5e4 81bd
00000170: ab56 d33c dfcf 9abd ec47 803d 5df6 9c3d
00000180: 6212 08be 4f0d 113e 80ee ad3d dc5a a73c
00000190: 5b3d e2bd 7527 c73d 0e5b 99bd 4dd0 18bd
000001a0: b854 53be 362d dbbc baf3 ed3d fefa 243e
000001b0: fdb0 c0bd 25bd a2be 0110 93bd a708 cbbe
000001c0: 3ee9 fdbc 7912 8bbe 6a31 603d 735c 543d
000001d0: 2881 d9bc 88e9 98bc ada5 3dbe a6cc 20be
000001e0: 5538 3abe d0c5 a83d cdb3 5abe 041d 04be
000001f0: 84c6 bbbc e6a8 cbbd d145 eabd b292 a9bd
00000200: 4099 393e 10ac 72bc 78b3 93bd 503c 3fbc
00000210: 9ba4 133e 0f68 d1bb cd59 62be 51bf c6be
00000220: 6656 583c a136 bf3c b6ec 37bd da06 a93e
00000230: 228c 613e 365f 4b3e 7fe5 803d d02d d73e
00000240: 7c3c 1b3e 31fa 343d 7781 85bd 1974 9abe
00000250: edbe c3be 5625 a9bd c649 953d 03ce 93bd
00000260: 3df0 a13d 128e 3f3d 677b 9cbe 367e c33d
00000270: c99c 983e b4cb d4bc 6ab8 a8bd 221f e3bd
00000280: 7060 34bd 3405 76bd 49cb 1f3e 0c6f 953c
00000290: 1da7 86bc c235 95be 5abc 9ebd 34a8 39bd
000002a0: 2f2f b5bd ed67 4ebd 73c3 933e e439 aabe
000002b0: d4e3 1a3e e84c 41bd a5ab 113c 6a6d d7bc
000002c0: 71f2 8dbe be77 28be dd62 40bd b626 6d3e
000002d0: 4fa4 c1bd 267b e0bd 8ff0 ce3c c67d 013e
000002e0: cbf5 223d f9a8 45bd bba7 3b3e 88c5 7a3d
000002f0: e671 3cbe a226 123d ec44 9b3e 82a1 273e
00000300: 43a6 a2bd b6b1 64be feec 873e db61 963d
00000310: fe72 e83c 76de 143e 04f4 7b3d add2 a3bd
00000320: 7eb8 4e3e 231c c83d c5c8 5b3e 08a0 cd3d
00000330: 66c6 6d3d fda0 15bd b588 953d 605c 753d
00000340: 8eca 83bd 1cdb 1e3d 8a43 f73d 028f 1dbd
00000350: 271f 203e 6b0f 28bd a7c0 a3bd 85fb 223e
00000360: 1cb5 fcbd 6d10 3d3e c9a1 85bd 474e 6fbd
00000370: 075b 093d f6c3 77bd ad1e 223d a969 703d
00000380: 4937 573e e083 8d3a 5eb3 913d e472 fe3b
00000390: 4fb2 f1be 3183 18be f6bc 153b edf4 953e
000003a0: ee5c 97bd 92f9 013e 0982 94be f713 57bc
000003b0: 6334 023e 10c0 d83d 3390 50be 321e 823e
000003c0: 1f24 3eb8 63f4 e33d e787 9fbd d9df 8abd
000003d0: 0872 a63d f8f5 193d a1b2 f23d a6ee b3bc
000003e0: b9d2 c4bd 864e 2a3e 3d71 463e deac 99bc
000003f0: 3550 8c3d a644 23be ee9f 713d 1772 443e

clf.0.bias f4 [5]
-0.08507727 -0.082969464 -0.091995485 0.0631393 -0.00971547
00000000: fe3c aebd e5eb a9bd 2168 bcbd 2d4f 813d
00000010: a22d 1fbc
