BRCA/models/2/C2.pth (torch, 5111 bytes, 2 tensors)

clf.0.weight f4 [5, 200]
00000000: 3a73 22bc 95cc 95bd c694 60bd 9c8e ae3d
00000010: dde5 95bc d43a 57bc c12a 7cbd 92c1 ddbc
00000020: 0781 cf3d 1870 403d 0b7a 02bd 5ed9 ed3d
00000030: 3660 3f3c 84b0 683d 80b1 d6bc 67c5 93bd
00000040: dafe 993c 23b1 86bd a193 79bd 095d 163e
00000050: 88f8 bb3d 8999 27be f11c dcbd c45f c93c
00000060: daa0 393e e59e 9abd 3ddf 2fbd 4e02 5a3d
00000070: 0593 e33d ad6b 87bb 9101 563c c911 7fbd
00000080: efb1 143d 6ca1 163e 1881 113c ca4c 4c3d
00000090: 0506 bb3d f8be b23d 8525 98bd b63b bcbc
000000a0: 81f3 cabd 7d7e 383c 36e1 a23d 1d3a e7bc
000000b0: 192d 26bc 8512 e93c 5469 a8bd d1b2 b03c
000000c0: 88b2 103d 4620 373d 44e2 da3d d27d 3bbd
000000d0: d58a d5bc d978 edbd b867 9bbb dde5 18be
000000e0: 9c7b ab3d 7721 e1bd cec4 5d3d 359f ccbc
000000f0: 5eb8 733c 4e84 3cbb a6be 41bd 72c2 d5bd
00000100: d336 28be f8a7 643d d60a af3b e656 05be
00000110: 4ee9 9f3c 1f30 ccbb 77fc ea3b e237 7e3c
00000120: b089 e63d 4193 07bc 3460 fcbc 79d5 f83d
00000130: 3697 f93d c531 01be 4bee 863d f5b1 343d
00000140: 021a ec3c f802 82bd 8f46 15bd c340 8a3b
00000150: 81d3 f03d 0834 4239 bb6d 80bc 7299 96bd
00000160: 5034 bdbd a64d 30be 2223 793d dc46 d7bd
00000170: 0089 d53d cdb8 573d 3961 8c3d 18cf 65bc
00000180: dc09 73bc 2be0 b6bd dbd7 71bd f478 05bd
00000190: 2f45 c63d 8de8 663c 10f1 1fbd a177 45bd
000001a0: a407 bb3d 5c02 103a a50d e3bd 8152 393e
000001b0: 5e1f 10bd 88f3 1cbd b04e 08be 0b5f b83c
000001c0: 358e 18be 278e 2d3c 98fb 543d a111 d43d
000001d0: 8cff 763d 3d00 c63d 6641 f53b bc5d 8fbd
000001e0: 7e0e 803d ae7b 913b e885 45be 9f97 643d
000001f0: fe3f 82bd 7753 8b3c 180c a93d 422e fdbc
00000200: ac5f 18bc c536 3f3c c6cf 5f3d ce0f dbbd
00000210: a354 32be 941a bfbc f0db 233d ae91 60bd
00000220: 75ab 97bd 9af8 aaba f3d4 043c 35e7 163d
00000230: e3ff d339 836c c33c 6c2c 33bd 079f 2c3e
00000240: 4633 043e 4730 51bd d775 5e3d 48c8 04be
00000250: 8e7b 4e3c badc 75bd 391f 8ebd a044 b83d
00000260: eada 5dbd b91d 8dbc 1b86 623c a2cb 153d
00000270: b9e9 de3d a679 c4bc 44f1 34be a2f4 c6bd
00000280: fe59 d8bd c465 31b9 ccc9 bf3b 966b 1d3c
00000290: 79c2 8d3d 0757 81be 6257 eebc 44af 513c
000002a0: 6789 02be a5ef 8ebd 8815 49bd c6f8 7dbd
000002b0: 3f05 83bd 5567 9a3d 7807 9d3d 330a 7d3d
000002c0: 0786 4ebc 9a4f 213d 60f7 80bd 507a 04bd
000002d0: 8fbf b7bd 0cce 563d 15ea 023d 2003 92bd
000002e0: 3e88 5e3d b18b 413c b131 c33c 858f 4ebe
000002f0: a2df 373d 36a1 d9ba 82d4 80bc f5bd e03c
00000300: a3a4 84be 6c7d 33be aece 99bc 2464 9bbd
00000310: 6704 773c d4d2 003e cfd9 af3d c68e ee3c
00000320: 9839 42bd 945a fabc 6582 cfbd e5aa c6bc
00000330: 5f31 e83c 6f9d 443d bdd2 a13d 6436 25be
00000340: 4347 023e b8a7 d5bb 0496 92bd 1274 f23d
00000350: 9b2f 3cbc 6150 013d 267c 043e 0685 3dbe
00000360: 35f9 563d 80db 9f3d 2c3e bdbd d569 f83c
00000370: e31e b53d 645c 7c3c 94a3 753d f14e 29be
00000380: 277d 6e3c 1fff 5d3b 65d5 5a3c b2b8 6d3c
00000390: 6365 623c fff5 00be fb65 9e3d 107b 00be
000003a0: b514 e0bd 5c05 dd3d 75b5 233d 3ac0 443d
000003b0: 48e9 833c f58d 65bd a2fe 7a3b eef2 b6bd
000003c0: 069a c1bd 2b7f ffbd 236d 063e ad8b c9bc
000003d0: 600a a5bc 8ea8 27be 7782 0ebe d9ac f3bd
000003e0: 09f6 9a3c 6140 de3c 1df2 1e3d 2a45 333c
000003f0: b24f 1c3c 3b2b c2bc ecd1 8c3d 5779 06be
-0.0099151675 -0.073144116 -0.05482938 0.08523294 -0.018298084 -0.013136584 -0.06156421 -0.02706984
0.10132032 0.0469819 -0.03185467 0.11613725 0.011680653 0.056808963 -0.026207685 -0.07215386
0.01879828 -0.06576755 -0.060931806 0.14683928 0.09178263 -0.16367163 -0.10747708 0.024581797
0.18127766 -0.07549838 -0.042937506 0.053224854 0.11112026 -0.004132709 0.013061897 -0.06227282
0.036302503 0.14710015 0.008880876 0.04987792 0.091320075 0.08727831 -0.07429031 -0.022977691
-0.09909726 0.011260626 0.07953112 -0.028225953 -0.010142588 0.028451214 -0.08223215 0.021569641
0.03532651 0.044708513 0.10687688 -0.04577429 -0.026067177 -0.115953155 -0.004742589 -0.14931436
0.08373186 -0.10992711 0.054142766 -0.02497826 0.0148754995 -0.0028765383 -0.047300957 -0.10437478
-0.16427164 0.05582425 0.005341868 -0.1302143 0.019520428 -0.0062313224 0.0071712094 0.015516253
0.112567306 -0.008274854 -0.030807592 0.12150092 0.12187044 -0.12616642 0.065884195 0.044115026
0.028820995 -0.063482225 -0.036444243 0.004219146 0.11759091 0.00018520665 -0.015677324 -0.07353486
-0.092384934 -0.1721712 0.06082452 -0.10511562 0.10426521 0.052666474 0.06854481 -0.014026426
-0.014833894 -0.089294754 -0.059043746 -0.032586053 0.096811645 0.01409353 -0.039048254 -0.04820979
0.09132317 0.00054935156 -0.11086587 0.18097879 -0.035186164 -0.038318187 -0.13311267 0.022506258
-0.14897998 0.010592974 0.05199775 0.10354925 0.060302302 0.09668014 0.0074846027 -0.070003
0.06252764 0.0044397926 -0.19289362 0.05580866 -0.06359862 0.017007573 0.0825426 -0.030905847
-0.009300154 0.011670773 0.054641508 -0.10696374 -0.17415099 -0.023328103 0.04000467 -0.05482643
-0.0740575 -0.001304406 0.008107412 0.03684159 0.00040435707 0.023855453 -0.043743536 0.16857539
0.12910184 -0.05107143 0.0543116 -0.12967026 0.0126027 -0.060024954 -0.06939549 0.08997464
-0.05416385 -0.017226087 0.013825919 0.036571153 0.10884423 -0.023983788 -0.1767016 -0.09714629
-0.1056404 -0.00016917946 0.0058529135 0.00960817 0.06921858 -0.2526171 -0.029094402 0.012798134
-0.12747727 -0.06979302 -0.0490928 -0.062004827 -0.06397485 0.0753924 0.0766744 0.061777305
-0.012605197 0.039382555 -0.06297183 -0.03234321 -0.08972084 0.052442595 0.03196152 -0.07129502
0.05432915 0.01181309 0.023827406 -0.20171936 0.044891007 -0.0016603831 -0.015726332 0.027434329
-0.25906858 -0.17528313 -0.01877531 -0.0758746 0.015076733 0.12580425 0.085864656 0.029120814
-0.047418207 -0.03056077 -0.10132293 -0.02425141 0.028343854 0.048001703 0.07901523 -0.1613403
0.12722497 -0.006520238 -0.071575195 0.11838545 -0.011485959 0.031570796 0.12937984 -0.18507776
0.052483756 0.07805538 -0.09240374 0.030323902 0.08843782 0.015402887 0.059970453 -0.1653402
0.014556206 0.0033873988 0.013356541 0.014509367 0.013818118 -0.1259384 0.07734295 -0.12546945
-0.109414496 0.10792038 0.039967973 0.048034884 0.016102448 -0.056043584 0.0038298746 -0.08933054
-0.09453206 -0.12475427 0.1312757 -0.024602735 -0.020146549 -0.16372892 -0.13916956 -0.118982024
0.018916147 0.027130308 0.038805116 0.010941783 0.009540485 -0.023702255 0.06875977 -0.13132225

clf.0.bias f4 [5]
00000000: 74df 9ebd fb78 92bd b040 acbd ca6c a03d
00000010: 6128 1dbd
-0.07757464 -0.071519814 -0.08410776 0.0783325 -0.038368586
