BRCA/models/2/C3.pth (torch, 5110 bytes, 2 tensors)

clf.0.weight f4 [5, 200]
0	0xbe47bc8d	-0.1950552
1	0x3e436746	0.19082364
2	0x3dfcddfe	0.12347029
3	0xbec39c24	-0.38205063
4	0x3cd8352a	0.026392538
5	0x3e09f376	0.13471779
6	0xbdb4c406	-0.08826451
7	0x3d6e7e63	0.058226
8	0x3e5045a3	0.20339064
9	0x3e07554a	0.13216129
10	0xbc6c43c5	-0.014420454
11	0x3d092c0d	0.033489276
12	0xbe1bf8fa	-0.15231696
13	0xbe531f42	-0.20617393
14	0x3e115d20	0.1419568
15	0x3e48fc08	0.19627392
16	0xbe8d9da7	-0.27659342
17	0xbb8ab080	-0.004232466
18	0xbded39dd	-0.11583302
19	0x3e92fcd6	0.28708524
20	0x3e5a4a0b	0.21317308
21	0xbdec009e	-0.11523555
22	0xbbb77901	-0.0055991416
23	0x3dc479f2	0.09593572
24	0x3e035cb0	0.12828326
25	0x3e23697a	0.15958205
26	0xbd6c780a	-0.057731666
27	0xbdaa71e7	-0.083225064
28	0x3d652541	0.05594373
29	0x3dc5f366	0.09665565
30	0x3ddb4801	0.10707093
31	0x3e4e9146	0.20172605
32	0xbd8444a9	-0.064584084
33	0xbd4d198b	-0.050073188
34	0x3def572b	0.11686548
35	0xbd668b16	-0.056284986
36	0x3e2b5376	0.16731057
37	0xbd58a192	-0.05288846
38	0x3bbe2f7c	0.0058040004
39	0xbd13a2a0	-0.036043763
40	0xbc68dcac	-0.0142127685
41	0x3da3ad42	0.07992031
42	0xbd818b34	-0.06325379
43	0x3e8c48f1	0.273994
44	0x3e2f4627	0.17116605
45	0xbd309512	-0.043110915
46	0xbd00e63a	-0.03146956
47	0xbe3f61ec	-0.18689698
48	0x3d9485ed	0.07252107
49	0x3d27ded0	0.040983975
50	0xbea53b5c	-0.3227185
51	0x3e2504be	0.1611509
52	0xbe818f8e	-0.25304836
53	0xbec63769	-0.3871415
54	0xbcd9e66f	-0.026599137
55	0xbe53ffa9	-0.20702995
56	0xbc253d15	-0.010085364
57	0xbd5189a2	-0.051156648
58	0xbe61bb82	-0.22044185
59	0x3e31452d	0.17311545
60	0x3d91f6d7	0.07127159
61	0xbdcaa983	-0.09895613
62	0x3b582896	0.0032983175
63	0x3e5a2ebd	0.21306892
64	0xbe6c1032	-0.23053053
65	0x3e3129d4	0.17301112
66	0xbc829f34	-0.015945055
67	0x3d49f33d	0.049304236
68	0xbd2104c5	-0.03931119
69	0x3e80dfc7	0.2517073
70	0x3ab6c62b	0.0013944557
71	0x3e45b430	0.19307017
72	0xbebf41fc	-0.3735503
73	0xbde58536	-0.112070486
74	0x3d218ee3	0.039442908
75	0xbd65ca72	-0.05610127
76	0xbcfea7ff	-0.031085966
77	0x3e3010a4	0.17193848
78	0x3b89327d	0.004186927
79	0xbdebd8dd	-0.11515973
80	0xbdaa5de6	-0.08318691
81	0x3b00d1be	0.0019656266
82	0xbdc275e9	-0.09495146
83	0x3e58d149	0.21173586
84	0xbc9607b1	-0.018314214
85	0xbe9d45ab	-0.30717215
86	0x3d21e73b	0.03952716
87	0x3e504272	0.20337847
88	0x3da3c310	0.079961896
89	0xbe9dd0cc	-0.30823362
90	0xbd8b3573	-0.06797304
91	0xbe2e902d	-0.17047186
92	0x3e5ac555	0.21364339
93	0x3c0a1a09	0.008429059
94	0x3dda0141	0.106447704
95	0xbcb6176e	-0.022227969
96	0x3dc0c496	0.09412496
97	0x3dacfca7	0.08446627
98	0x3d1bf1f8	0.038072556
99	0x3c76bf0e	0.015060199
100	0x3e0d3869	0.1379105
101	0xbde7dcfe	-0.11321448
102	0x3e3ee96f	0.18643735
103	0x3e2bc8c3	0.16775803
104	0x3d2ad49a	0.04170666
105	0xbb9fe00a	-0.0048790025
106	0x3ba06c95	0.0048957565
107	0x3e72e92e	0.23721763
108	0xbcd77f09	-0.026305692
109	0xbd578dea	-0.052625574
110	0x3e6871a9	0.22699608
111	0x3db688a4	0.08912781
112	0x3cd573c2	0.026056174
113	0x3e119e08	0.1422044
114	0xbd086d24	-0.03330721
115	0xbe3c4466	-0.18385467
116	0x3abb8d35	0.0014309051
117	0xbd16b5d4	-0.0367945
118	0xbeb435e6	-0.3519737
119	0x3e28bc8a	0.16478172
120	0xbe7734bf	-0.24141215
121	0x3e1d175b	0.1534094
122	0xbe1f9a8b	-0.15586297
123	0xbec78c9d	-0.38974467
124	0xbc83e140	-0.016098619
125	0xbee23c46	-0.4418661
126	0x3d31cea7	0.04340997
127	0x3e5706a9	0.20998634
128	0x3d7715ec	0.06032364
129	0x3d9b31be	0.07577847
130	0xbed4734a	-0.4149421
131	0xbe6248f1	-0.22098137
132	0xbe947b76	-0.29000443
133	0xbd5756b1	-0.05257291
134	0xbe5a7ad1	-0.21335913
135	0xbda3032f	-0.079595916
136	0xbe0ae984	-0.13565642
137	0xbdc9253e	-0.098215565
138	0xbeab590c	-0.33466375
139	0x3dedb6b1	0.11607111
140	0x3d41ab88	0.047282726
141	0xbd5f49bd	-0.05451368
142	0x3daaf754	0.08347955
143	0xbe51e8de	-0.20498988
144	0xbe5d8be8	-0.21635401
145	0x3c705580	0.014668822
146	0xbd984bc6	-0.07436328
147	0x3da1bd8a	0.0789748
148	0x3e518914	0.20462447
149	0x3dfd5263	0.1236923
150	0x3debff2a	0.11523278
151	0x3c7b2fdc	0.015331235
152	0xbe7c5f67	-0.24645768
153	0x3cd8889c	0.026432328
154	0x3d09a322	0.03360284
155	0xbe657221	-0.22406818
156	0xbd247f92	-0.040160723
157	0x3c04c940	0.008104622
158	0x3da3ea81	0.080037124
159	0x3dc460c8	0.09588772
160	0xbe462178	-0.19348705
161	0x3d7259c7	0.05916765
162	0x39c5152d	0.00037590545
163	0xbe59415d	-0.2121634
164	0xbe196ee8	-0.14983714
165	0xbe17a773	-0.1480997
166	0xbda8a610	-0.08234799
167	0xbdf220be	-0.11822651
168	0xbd3176d2	-0.043326207
169	0xbd5384cc	-0.051640317
170	0x3d2edb9f	0.042689916
171	0x3d3a160c	0.04543118
172	0xbe034410	-0.12818933
173	0x3d57ec11	0.052715365
174	0x3e2abdc7	0.16673957
175	0x3e1779e8	0.14792597
176	0xbe2167f8	-0.15762317
177	0x3ec7c731	0.39019158
178	0x3e64daa3	0.22349028
179	0xbdd4d349	-0.10391862
180	0x3d4d5f5b	0.050139766
181	0xbe0bf222	-0.13666585
182	0x3d280590	0.04102093
183	0xbd142a4b	-0.036173146
184	0x3d4b4ea7	0.049635556
185	0xbd8b58c5	-0.06804041
186	0xbc792c58	-0.015208326
187	0x3e15b7f1	0.1462095
188	0x3d8dcee9	0.069242306
189	0x3e277bca	0.16355816
190	0x3d63a977	0.055581536
191	0xbdfab5d9	-0.12241716
192	0x3c375fde	0.01119229
193	0xbe7d304b	-0.24725454
194	0x3d8b98ae	0.06816231
195	0x3df40b39	0.11916203
196	0x3d8f737e	0.0700445
197	0xbd79e89c	-0.06101285
198	0x3e845ad2	0.2585054
199	0x3d9c619c	0.07635805
200	0xbd7e57c7	-0.06209543
201	0x3dae9b68	0.08525735
202	0xba51c4b4	-0.00080020283
203	0x3cb26a1f	0.021779118
204	0x3d30fe6a	0.04321138
205	0xbe2968f7	-0.16543947
206	0x3da88eec	0.08230385
207	0x3cd8fc4b	0.02648749
208	0x3e086841	0.1332102
209	0xbf2203bf	-0.63286966
210	0x3d6ceac4	0.057841077
211	0xbd6fa300	-0.05850506
212	0x3e0b61fc	0.13611597
213	0x3e044ba4	0.1291948
214	0x3cb1982f	0.021679012
215	0x3dfb9663	0.12284543
216	0xbf022c08	-0.50848436
217	0x3deb69b7	0.11494773
218	0xbdfeead3	-0.12447133
219	0xbb822416	-0.003971587
220	0xbd8a2bb0	-0.06746614
221	0x3e32577c	0.17416185
222	0x3d584fb4	0.052810386
223	0xbe1e2572	-0.15443972
224	0xbda9ffcd	-0.08300743
225	0x3ea8f495	0.329991
226	0x3def882c	0.116958946
227	0xbd8bc060	-0.06823802
228	0x3cf1e238	0.029526815
229	0xbdb54c31	-0.08852423
230	0x3e1f3fc8	0.15551674
231	0x3dfc64ca	0.123239115
232	0xbe43e083	-0.19128613
233	0x3d7484b0	0.059696853
234	0x3d9a16e8	0.075239
235	0x3d16f8ea	0.036858477
236	0x3e0aad5d	0.13542695
237	0xbc0f1d1c	-0.008734968
238	0xbcad4b1c	-0.021153979
239	0xbeb87734	-0.36028445
240	0xbe424b26	-0.1897398
241	0xbe34d327	-0.17658673
242	0xbdf9abcb	-0.1219097
243	0x3d862b10	0.06551182
244	0xbd28f1ce	-0.041246228
245	0x3d5b09c2	0.053476103
246	0x3e239096	0.15973124
247	0xbd270f5e	-0.04078614
248	0x3b313c6e	0.0027044076
249	0xbcaac3ad	-0.020845259
250	0xbdffefb7	-0.12496894
251	0xbd046e02	-0.032331474
252	0x3e19ebd5	0.15031369
253	0xbe01ce63	-0.12676387
254	0xbd599239	-0.053117964
255	0xbe3f65ea	-0.18691221

clf.0.bias f4 [5]
0	0xbd87eac2	-0.066365734
1	0xbd97e3e0	-0.074165106
2	0xbd32672b	-0.04355542
3	0x3d60ab0c	0.054850623
4	0xbc2de667	-0.010614014
