ROSMAP/models/5/C1.pth (torch, 1911 bytes, 2 tensors)

clf.0.weight f4 [2, 100]
000000 8e 9b f1 3c aa e9 ca 3d 37 c9 5b 3e 5a a7 8f bd
       0.02949312 0.09907849 0.21463476 -0.07014342
000010 90 73 72 3e ba 92 84 bc fd 06 3b be 7b 03 c9 bd
       0.23676896 -0.016183246 -0.18264385 -0.09815117
000020 72 99 3b 3e 46 bb b2 3d ed bd 72 3e 68 96 ac 3d
       0.18320253 0.08727126 0.23705263 0.08427125
000030 c8 34 78 bd 21 c2 0e be 2d f4 3b 3e f6 9a 87 3e
       -0.06059721 -0.13941242 0.18354864 0.26485413
000040 22 32 21 3e b4 98 04 3d b9 91 5f be 92 f8 a6 be
       0.1574178 0.03237219 -0.21832933 -0.3261152
000050 07 2c 95 3e 46 86 23 be 39 11 32 3e d2 f4 8d be
       0.29135153 -0.1596919 0.17389382 -0.27725846
000060 fb 2e 12 be 59 e6 8a 3e b4 d3 8d 3e 8f 6a 9c 3e
       -0.14275734 0.27128866 0.2770058 0.30550048
000070 12 b3 34 be 32 15 ce 3c 4e 3e dc bd dd 86 6d 3e
       -0.17646435 0.025156591 -0.10754071 0.23195978
000080 8f e4 4c be e8 7a 89 3d 5f 36 4f be a4 15 b8 bd
       -0.20009063 0.06712896 -0.20235585 -0.089885026
000090 ac 2c e4 3d 73 60 9e be 8d 0a c2 3e ca c9 7b 3e
       0.11141333 -0.3093296 0.37898675 0.24588695
0000a0 b7 b5 62 3e 63 bc 56 bd 29 e0 64 be 78 dc d9 3e
       0.22139631 -0.052425753 -0.22351135 0.42551017
0000b0 8d 69 8c 3d 90 fc ed 3d 22 f2 c1 3e e6 d1 95 3e
       0.0685607 0.11620438 0.37880045 0.29261702
0000c0 f6 a7 04 3c 97 59 ef bd b5 dd d4 3b 08 c0 b2 be
       0.008096686 -0.1168701 0.006496156 -0.34912133
0000d0 a7 b0 c1 3e 12 4a ed 3d 37 d7 08 bf 31 9f 9d be
       0.37830088 0.115863934 -0.5345339 -0.30785516
0000e0 4e 1d e8 bd 03 07 3c be fc 4f f6 3c 13 f7 be bc
       -0.113337144 -0.1836205 0.030067436 -0.023311174
0000f0 7f e8 e0 be 5c f4 e2 3d 3e 33 82 be 00 f2 5e 3e
       -0.4392738 0.11081764 -0.2542972 0.21772003
000100 a0 41 4b 3e ac d7 db be 10 52 05 be 56 c6 7c bc
       0.19849253 -0.42937982 -0.13019586 -0.015428146
000110 62 58 62 3e 6d 70 c3 be 37 5d fe 3d 78 79 58 be
       0.22104028 -0.38171712 0.12420123 -0.21140087
000120 6d fc cd be 89 e4 1e be 33 61 5a 3e e9 71 f9 3b
       -0.40231648 -0.15516867 0.21326141 0.007612456
000130 75 69 9f 3b 19 c9 5f 3e 42 ca 30 3e 7f 4f 96 bd
       0.0048648664 0.21854056 0.17264655 -0.073393814
000140 f1 78 af 3e e1 16 28 bc 10 24 cf 3d 0c a5 fe bd
       0.34271958 -0.010259361 0.101143 -0.12433824
000150 7a fe 9d 3e 5e 24 30 3e 27 50 ad 3e 21 91 65 3e
       0.30858213 0.17201373 0.33850214 0.22418644
000160 df 75 72 be f0 c0 37 3d 08 4d 47 be df 9e ad 3e
       -0.23677777 0.044861734 -0.19462979 0.33910272
000170 bd a0 c3 3d 12 ad 53 3e bf 8a 1f 3c 1b 12 98 3c
       0.09552143 0.2067149 0.0097376695 0.01856332
000180 66 49 18 3e 97 69 9e 3d cf 22 b2 bc 03 7d 55 be
       0.1487175 0.077349834 -0.021745114 -0.2084847
000190 22 37 e2 be c6 6e 08 be 26 7b b8 bd b9 b4 81 3e
       -0.44182688 -0.13323507 -0.09007864 0.25333193
0001a0 8b 6f 35 bd 83 06 a4 3e 49 e9 67 3d 64 8c d1 3d
       -0.04429583 0.32036218 0.056618962 0.102318555
0001b0 75 19 a7 be 5a a2 02 be 8a 67 ea bd 0d 0a 12 be
       -0.3263661 -0.12757245 -0.1144553 -0.14261647
0001c0 5b ec d8 3e d6 38 d3 3d ee 21 74 be 38 c5 fa bd
       0.42367825 0.10313575 -0.23841068 -0.12244648
0001d0 c7 17 a7 be ec ef 49 be f9 00 41 3e ff dc a3 3e
       -0.32635328 -0.19720429 0.18848027 0.32004544
0001e0 09 a7 e1 b9 49 b4 b1 3e b8 bf 5e be e1 25 dc 3d
       -0.00043039795 0.3470786 -0.21752822 0.10749412
0001f0 ee 7a 4f 3e cf d7 85 be d1 15 c9 bd 60 47 f1 bd
       0.20261738 -0.2614121 -0.09818614 -0.11781192
000200 25 13 ba 3d 5b 18 8c 3e 1e 8d 60 3e 83 c6 8d be
       0.09085683 0.27362332 0.21928832 -0.27690515
000210 e8 d7 42 3e 6d 98 86 be db 16 9c 3e 6c f7 a9 be
       0.19027674 -0.26288167 0.30486187 -0.3319658
000220 07 48 3f be 9e 79 4e 3c a3 ca 2d be 4e 4f ce be
       -0.1867982 0.012602238 -0.16971831 -0.4029488
000230 9d 2f c7 bd 21 85 c3 3e 4a c2 08 3e 1a 0a 35 bd
       -0.097258784 0.38187507 0.13355365 -0.044199087
000240 03 ca b2 bd 7d 32 3e be 85 42 25 be 1c dd 1b 3d
       -0.08729937 -0.18573947 -0.16138656 0.038052663
000250 55 c6 b5 be ab 16 1f 3e 5d d0 24 be 78 4b 68 3d
       -0.35502878 0.15535991 -0.1609511 0.056712598
000260 ed e3 99 bc 81 9e 6f be b0 0e 95 3c 08 18 05 3b
       -0.018785441 -0.23400308 0.01819548 0.0020308513
000270 36 19 e9 3d fb 72 c4 3d 75 e6 83 3e 58 14 6e be
       0.11381762 0.09592243 0.25761762 -0.23249948
000280 4f 1c 22 be d7 b4 9f be 5c 16 8e 3e 35 c8 2e be
       -0.15831111 -0.31192657 0.27751434 -0.1706856
000290 9b f1 06 bd d5 a5 03 3e 05 58 d9 be 51 61 03 be
       -0.032945257 0.12856229 -0.42449966 -0.12830092
0002a0 68 9f b6 bd 09 5d c2 3e f0 8e dd bd 70 dc aa 3e
       -0.08917123 0.37961605 -0.10818279 0.33371305
0002b0 77 9b 95 bd 03 b1 1e 3e 25 b0 58 be bf 55 8a 3e
       -0.07305043 0.15497212 -0.21160944 0.27018544
0002c0 57 41 8e be 71 19 9b be e7 b4 7e be e1 bc b5 3e
       -0.27784225 -0.30292848 -0.24873696 0.35495666
0002d0 85 54 bd bd 28 77 9b be 1e 30 72 be e9 bd c0 3d
       -0.092446364 -0.30364347 -0.23651168 0.094112225
0002e0 59 d1 30 be 74 52 98 be 00 4b 17 be f8 39 95 bd
       -0.1726736 -0.29750407 -0.14774704 -0.07286447
0002f0 36 c4 05 3e e1 79 14 be d9 5a 80 3d 6b 37 86 be
       0.1306313 -0.14499618 0.06267328 -0.26214156
000300 1e 04 a6 be f0 8c a2 bd de 1d 94 3e 71 72 67 be
       -0.32425016 -0.07937038 0.28929037 -0.2260225
000310 86 b4 1c be cb 23 e8 bd 0d 39 b8 3e c8 6a 83 3e
       -0.15303239 -0.11334952 0.35981026 0.25667405

clf.0.bias f4 [2]
000000 c3 77 f0 bc f8 78 f0 3c
       -0.029353982 0.029354557
