ROSMAP/models/5/C2.pth (torch, 1911 bytes, 2 tensors)

clf.0.weight f4 [2, 100]
0	0x3e52e0f5	0.20593627
1	0x3e5d6e83	0.21624188
2	0xbd62ce3a	-0.055372454
3	0xbd6da4fd	-0.058018673
4	0x3e811b8b	0.25216326
5	0xbe0d4c9b	-0.13798754
6	0xbe56eab7	-0.20987974
7	0xbe96245d	-0.29324618
8	0x3e11ce72	0.14238909
9	0xbd87c8c1	-0.06630088
10	0x3e4a41c4	0.1975165
11	0x3e5d4cf9	0.21611394
12	0x3e12ce2c	0.14336461
13	0x3e8697ed	0.26287785
14	0x3bd187b5	0.0063943514
15	0x3de78d00	0.113061905
16	0xbd3553ec	-0.044269487
17	0x3d33ce47	0.043897893
18	0x3e85f6fd	0.26165
19	0x3e8e5d30	0.2780547
20	0x3eaa1877	0.3322179
21	0xbdf55c54	-0.11980501
22	0xbddd8f9a	-0.108184054
23	0xbda11926	-0.07866125
24	0x3de0c297	0.10974615
25	0x3dcadedb	0.099057876
26	0xbc40c289	-0.011765131
27	0xbe1f5bd6	-0.15562376
28	0x3dada7bb	0.08479258
29	0xbeae7000	-0.34069824
30	0x3de3d7b2	0.11125125
31	0x3d244a63	0.040110003
32	0xbd1151b1	-0.035478298
33	0x3e25cfdb	0.16192572
34	0x3e27a1ff	0.1637039
35	0xbe129738	-0.14315498
36	0xbd4f6110	-0.050629675
37	0x3e5d3add	0.21604486
38	0xbea3a54a	-0.31962043
39	0xbd28bae7	-0.04119387
40	0x3abf273b	0.0014583835
41	0xbe44991a	-0.19199029
42	0xbdd63af5	-0.10460464
43	0x3e541ce3	0.20714144
44	0xbdf0b88a	-0.11753948
45	0xbca4a8a9	-0.020099955
46	0xbd8f2476	-0.06989376
47	0xbdcd6819	-0.10029621
48	0x3eb64a3d	0.35603514
49	0xbe4fa7c6	-0.20278844
50	0x3d851b9b	0.06499406
51	0xbdd86e19	-0.105678745
52	0x3e4a25a6	0.19740924
53	0xbdc87ced	-0.09789453
54	0x3d4d6afe	0.050150864
55	0x3e430784	0.19045836
56	0x3dd62356	0.104559585
57	0x3ea75ff5	0.32690397
58	0x3e10776d	0.14108057
59	0xbe041fcb	-0.12902753
60	0x3e7a84d3	0.24464731
61	0x3dbe2975	0.09285251
62	0x3e39b612	0.1813586
63	0xbd863a97	-0.06554144
64	0x3e9a69e9	0.30158928
65	0xbc830012	-0.015991244
66	0x3e40d5b6	0.18831524
67	0x3e31e3f1	0.17372109
68	0x3d6d8f33	0.057997894
69	0x3cf48eab	0.029853186
70	0x3d8185eb	0.06324371
71	0xbcda362f	-0.026637165
72	0x3db22ba1	0.08699728
73	0x3e9fb1cd	0.3119034
74	0x3e6d603e	0.23181245
75	0xbdc2c74a	-0.095106676
76	0xbe3333b4	-0.17500192
77	0xbe587321	-0.21137668
78	0xbd8e41e3	-0.06946161
79	0xbdb2653d	-0.08710716
80	0x3c3914a8	0.011296429
81	0xbd4a5ae5	-0.04940309
82	0xbe009dd0	-0.125602
83	0xbe827329	-0.25478485
84	0x3d5e1a9b	0.05422459
85	0x3e677af2	0.22605494
86	0xbe1e3542	-0.15450004
87	0x3e0b0dc8	0.13579476
88	0x3dc85a6d	0.09782872
89	0xbd9acbc6	-0.07558398
90	0xbebd5e6b	-0.36986098
91	0x3e680382	0.22657588
92	0xbe1c288d	-0.15249844
93	0xbe713381	-0.23554803
94	0xbe35e319	-0.17762412
95	0x3c98c2c3	0.018647557
96	0x3dc0a1f2	0.094058886
97	0x3e9528ff	0.2913284
98	0x3e3f0133	0.18652801
99	0x3e9e1e1c	0.30882347
100	0xbe820203	-0.2539216
101	0xbe819b67	-0.25313875
102	0x3e16e7c3	0.14736848
103	0x3db952b6	0.09048979
104	0xbd6dfc1f	-0.05810177
105	0x3cbf3947	0.023342742
106	0x3e56a884	0.20962721
107	0x3cb57d33	0.022154426
108	0x3ebaac9d	0.36459818
109	0x3e180043	0.1484385
110	0xbdf50127	-0.119631104
111	0xbd862fc4	-0.06552079
112	0xbde87896	-0.11351125
113	0xbdafcb07	-0.08583646
114	0x3e248b19	0.16068687
115	0xbd5e4ca4	-0.05427231
116	0x3e285e7c	0.16442293
117	0xbea0fbfd	-0.31442252
118	0x3b7e7b5b	0.003883085
119	0xbd4798d8	-0.048729748
120	0xbc81edeb	-0.015860518
121	0xbdb50ed5	-0.088407196
122	0x3e06a5b8	0.13149154
123	0x3e9d8ae8	0.3077004
124	0xbd950c2c	-0.07277712
125	0xbe811917	-0.25214455
126	0xbe54f2f9	-0.20795812
127	0x3e32fbca	0.17478862
128	0xbe0385e3	-0.12844042
129	0xbdd057d4	-0.10173002
130	0xbdab27c6	-0.083571956
131	0xbe18d498	-0.14924848
132	0x3e01e525	0.12685068
133	0xbd75140a	-0.059833564
134	0xbe46bc5b	-0.1940779
135	0x3e106970	0.14102721
136	0x3e02bae2	0.12766603
137	0xbd02beae	-0.031920128
138	0x3da7e5a6	0.08198099
139	0x3e585da4	0.21129471
140	0xbe3095e7	-0.17244683
141	0x3ddaf04a	0.10690363
142	0xbd01f27d	-0.031725395
143	0xbe5a51b6	-0.21320233
144	0x3db064eb	0.086129986
145	0x3d98fd5e	0.07470201
146	0x3e009fd2	0.12560967
147	0x3e1d579b	0.1536545
148	0xbde90b57	-0.11379116
149	0x3b48ef88	0.003066035
150	0xbe28a616	-0.16469607
151	0x3e178b94	0.14799339
152	0xbb02e7f4	-0.001997468
153	0x3dbd6010	0.09246838
154	0x3ddf33e8	0.10898572
155	0xbe26c101	-0.16284563
156	0xbe71c00a	-0.23608413
157	0xbd754c1c	-0.059887037
158	0xbe800840	-0.25006294
159	0xbeab6a18	-0.3347938
160	0xbd4693f1	-0.04848093
161	0xbeb690f7	-0.35657474
162	0xbdb8e73c	-0.090284795
163	0x3e1c69d6	0.15274748
164	0xbcc966ab	-0.024585089
165	0x3dfdbaef	0.123891704
166	0xbe73e485	-0.23817642
167	0x3cc49b15	0.02399973
168	0xbe28e756	-0.16494498
169	0xbe90665d	-0.28203097
170	0xbd663f7d	-0.05621289
171	0x3d47bed1	0.04876596
172	0xbe846106	-0.25855273
173	0x3ed001ba	0.40626317
174	0xbe0e97df	-0.13925122
175	0x3d5a8c38	0.05335638
176	0x3da201b0	0.07910478
177	0x3e258ec3	0.1616774
178	0x3da9635c	0.082709044
179	0x3e01f7be	0.12692162
180	0x3e530d60	0.20610571
181	0x39eb7f0d	0.00044917353
182	0xbcb0194a	-0.021496434
183	0x3d98857b	0.074473344
184	0xbe45f02e	-0.19329903
185	0xbe1f2b91	-0.15543963
186	0x3dda296a	0.1065243
187	0x3eab3a4d	0.33442917
188	0xbe823f45	-0.25438896
189	0x3e1ad379	0.15119733
190	0xbe8725a5	-0.26395908
191	0xbe32907e	-0.17437932
192	0xbe026aa6	-0.12735996
193	0xbd558906	-0.05213263
194	0x3d295170	0.04133743
195	0xbe7db96a	-0.24777761
196	0xbdf6db78	-0.12053579
197	0x3d75487d	0.059883583
198	0xbe4a0dc3	-0.19731812
199	0x3d50a50d	0.050938655

clf.0.bias f4 [2]
0	0xbc7399a3	-0.014868173
1	0x3c739be1	0.014868707
