ROSMAP/models/5/C3.pth (torch, 1909 bytes, 2 tensors)

clf.0.weight f4 [2, 100]
000000 31 7f 54 bd c8 00 2a 3e 35 81 83 be f5 12 ca 3d
       -0.05187911 0.1660186 -0.25684515 0.09866897
000010 59 a4 49 be 3f 4b 1d 3e 4d c2 15 3e e5 9d 59 bc
       -0.196916 0.15360735 0.14624901 -0.013282274
000020 59 44 84 3d d3 86 8c 3e 45 02 25 3d 43 da 47 bd
       0.06458349 0.27446613 0.040285368 -0.048792135
000030 26 bf a2 3d fe 6c 87 bd e3 43 a6 3e bb 0a 7e bd
       0.07946615 -0.066125855 0.32473668 -0.062021952
000040 36 97 fa 3d 4e c7 04 be 22 fe 7d bd 60 d9 82 bd
       0.122358724 -0.12966654 -0.062009938 -0.06389117
000050 b3 7c 4a be 52 fe 2e 3e 84 47 04 bd d2 4d a4 bd
       -0.19774131 0.17089203 -0.032294765 -0.080226555
000060 8b c1 c9 3d cf d7 0e be ce 08 fd 3d b4 92 6a 3c
       0.098513685 -0.13949512 0.12355195 0.014317203
000070 48 cd dd 3b 1d 7a 8b be 1d 6a 8e 3e 5d 70 34 3e
       0.006768856 -0.27241603 0.27815333 0.17620988
000080 cb f6 f8 bd 99 1f 76 3d e1 b6 09 3d df 6d cd 3e
       -0.12156447 0.060088728 0.033621673 0.40122887
000090 d2 81 8f 3e 47 71 b3 bd d9 a8 b0 be fe fe 8d bd
       0.28028733 -0.0876184 -0.3450382 -0.069334015
0000a0 0a 64 b1 bd e7 9d 39 bd cd 93 2d be 84 3f 0f be
       -0.08661659 -0.045316603 -0.16950913 -0.13989073
0000b0 07 e9 f6 bc e4 b5 c1 bc 47 61 ee bd 28 67 8c be
       -0.030140413 -0.023646303 -0.11639648 -0.27422452
0000c0 2c 30 b2 3e 83 71 b3 3b 9e 82 03 be 3e 59 85 3c
       0.34802377 0.005476178 -0.12842795 0.016277906
0000d0 2f 7f 22 be e0 15 00 be 00 15 72 be d1 02 72 be
       -0.15868829 -0.12508345 -0.23640823 -0.23633887
0000e0 f5 37 5f 3d 09 f4 21 be 9a 40 33 3e 0c 49 1c bd
       0.054496724 -0.15815748 0.17505112 -0.0381556
0000f0 35 6e 44 be 01 df 3d be ca f0 a2 3d 2d 60 43 be
       -0.19182666 -0.185421 0.07956083 -0.19079657
000100 58 47 80 be b8 9b 71 3d 54 cb 60 3b 12 a4 8e 3d
       -0.2505443 0.058986396 0.003430088 0.06964888
000110 fc 8f a4 bd 8c 38 d8 3e e8 72 0b be 55 03 11 3e
       -0.08035275 0.42230642 -0.13618052 0.14161427
000120 90 25 8b 3e 95 9a 47 3e 12 76 28 be 81 f6 a7 3e
       0.27177095 0.19492562 -0.1645129 0.32805255
000130 f0 5b 1f 3d 68 a1 0f 3e ad 56 7e 3e 66 44 5c be
       0.038906038 0.14026415 0.24837752 -0.21510467
000140 a5 88 64 be f3 f4 17 be 1e 45 00 be 94 3f 17 be
       -0.22317751 -0.14839534 -0.12526366 -0.14770347
000150 a0 e2 21 be e6 bb 8b bd 05 f3 5a bd 8a 39 17 be
       -0.15809107 -0.06822948 -0.053454418 -0.14768043
000160 1d a0 8f bd e6 61 ee 3d df 6b 11 3e 9e 11 a1 3d
       -0.07012961 0.116397664 0.14201306 0.07864688
000170 bc ca cb bd 4a c7 f1 bd da ec 4b 3e 46 19 4f be
       -0.09950778 -0.118055895 0.1991457 -0.20224485
000180 3a 29 3f 3e 28 4d 82 bd 8b cb 97 bd 76 45 17 be
       0.1866807 -0.06362373 -0.074118696 -0.14772591
000190 e9 9e 3b 3e 20 25 70 ba 9a ea d6 3d 79 d6 59 bc
       0.18322338 -0.00091608055 0.104939654 -0.013295763
0001a0 da 0f cc 3d a9 ba 68 3e b6 10 bd bc b2 16 5c bd
       0.09963961 0.22727455 -0.023079257 -0.05373258
0001b0 fe 73 8d be f0 d8 05 be 18 db 38 be aa 8d b8 3d
       -0.27627558 -0.13071036 -0.18052328 0.09011395
0001c0 1a c4 5e 3e b9 0a f1 3d 17 ad 8c be 79 9d b1 be
       0.21754494 0.11769623 -0.27475807 -0.34690455
0001d0 8d 9d bf bd 5a 8d 89 3e 1e a5 83 3e 0f b0 d8 3d
       -0.09356222 0.26865655 0.25711912 0.105804555
0001e0 dc 41 58 3e c4 5a 31 3e b9 70 f1 3b ca 3f 7d be
       0.21118873 0.1731978 0.007368174 -0.24731365
0001f0 dd e1 b5 bd de 71 3e 3e 77 1e 7b bd 59 5f d2 bd
       -0.088809706 0.18598124 -0.06130835 -0.10272092
000200 73 65 5d 3e 8d 62 4e bc 31 ab 0c bd 25 6b 1c bd
       0.21620731 -0.0125967385 -0.03434295 -0.03818812
000210 c4 63 95 be f0 07 84 be 20 6b 8c 3e 0d 61 ea 3d
       -0.29177678 -0.25787306 0.2742548 0.11444292
000220 11 2e d8 bd c2 1b ab 3d ad 72 a4 bc 36 39 d2 bd
       -0.105556615 0.08354904 -0.020074213 -0.10264818
000230 75 34 46 3e b3 11 88 3d b3 b4 e9 bc bb dc 17 3d
       0.19355948 0.06644001 -0.028528547 0.03707574
000240 56 06 93 bd 9f ac 8b bc d1 45 c9 3c b7 23 e8 3b
       -0.07178943 -0.017050086 0.024569424 0.0070843357
000250 48 eb 3e 3d a3 6f f7 3d 63 8a 2f 3c de 4d e4 bd
       0.0466111 0.1208184 0.010714146 -0.111476645
000260 49 db e8 3d 97 71 dd 3d 17 0b a5 bd ed ec 09 bd
       0.1136995 0.10812681 -0.08058756 -0.033673216
000270 3e 7f bc bd 53 08 f3 3c 7c b9 3f be 06 6d 8e bd
       -0.09203957 0.029667055 -0.187231 -0.06954388
000280 9c c2 6f 3d c3 e5 85 3e 38 93 38 bc 4d 62 64 3e
       0.058535203 0.26151857 -0.011265568 0.22303124
000290 27 e9 33 3e 56 ff 7d be 69 45 2e be ac 36 d0 bd
       0.1756941 -0.24804434 -0.17018665 -0.10166678
0002a0 55 d1 bd 3d 8f 8a ef 3d 54 23 a3 3d c6 09 12 3e
       0.092684425 0.1169635 0.07965723 0.14261541
0002b0 92 04 47 bd 62 bb d4 3d 6a 4d f2 3d 22 b3 81 3c
       -0.048588343 0.10387303 0.11831172 0.015832487
0002c0 58 b3 9d bd 8a b5 d7 bc 8d e5 81 bd 03 05 7b 3e
       -0.07700223 -0.026331682 -0.063426115 0.2451363
0002d0 53 cf 94 3d 44 93 4f 3d 13 e4 15 3e 53 43 45 3e
       0.072661065 0.050677553 0.14637785 0.19263963
0002e0 93 51 b3 bc 4b 6d b5 3c a0 0d 87 3d b4 d4 99 bc
       -0.021889484 0.022146842 0.06594396 -0.018778183
0002f0 4b 83 3c 3e 9f 38 9f 3c 31 5a e6 bd 7d b7 15 be
       0.1840946 0.019436179 -0.112476714 -0.14620776
000300 fe 4d 92 bd 0e 3f c8 3c a0 45 22 bd 52 65 18 3e
       -0.07143782 0.02444413 -0.03961718 0.148824
000310 b5 91 00 be 8c 23 e6 3d 3a 2e 9c 3e b1 31 c1 3e
       -0.12555583 0.11237249 0.30504018 0.37733224

clf.0.bias f4 [2]
000000 38 f8 b4 3b 74 f3 b4 bb
       0.005522754 -0.005522186
