ROSMAP/models/5/E1.pth (torch, 404228 bytes, 6 tensors)

gc1.weight f4 [200, 200]
0.13695793 0.04799851 -0.12646928 -0.11760927 -0.08731742 -0.097078696 0.13401678 0.26160502
-0.07352696 -0.08106166 0.06414223 -0.105729796 0.123409815 -0.03993438 0.07716242 -0.033773463
-0.015148601 0.07723858 -0.07158642 -0.05442864 -0.027444806 -0.108764924 0.20001087 -0.08581411
-0.16275088 0.07688422 0.037919745 -0.12069379 -0.046435867 0.14496192 0.007462878 0.014449212
-0.09151023 0.07731027 -0.14305682 -0.08446115 -0.0754617 -0.0040308847 -0.1618296 0.022323005
0.043410245 -0.06327179 0.21908194 0.12516959 -0.0897871 -0.015391593 -0.11091351 -0.14992289
0.10624514 -0.0146536175 -0.21456246 0.13763462 -0.07242729 -0.0060713533 0.0845403 -0.0033439507
-0.10956484 -0.15693145 0.034475274 0.06620411 0.033008356 -0.21746224 0.07081012 0.03638254
0.118942924 0.18295835 0.045448992 -0.10308547 0.004703234 -0.1841663 -0.007859549 -0.00043993493
-0.08302841 -0.1211821 0.15990537 0.1391355 -0.17492971 -0.051335882 0.059593845 0.11496592
-0.14787917 0.12532276 -0.20772369 0.1801919 0.11659216 -0.040719602 0.042031344 -0.036532275
-0.19583009 -0.10095078 0.01705184 0.1872188 -0.15475416 0.059951812 0.00977999 -0.041442327
-0.14370054 0.09702325 -0.019863838 0.054480255 -0.035421077 -0.044018812 0.05993424 0.033990458
-0.01424804 0.08344354 -0.072726086 0.04420747 0.01951849 0.14087166 -0.09968609 0.08780861
0.1764835 -0.13137846 -0.040843535 0.03437657 0.017405067 -0.050577853 -0.07601095 0.07053743
-0.1807243 0.17431706 0.033236317 0.13705114 0.00943392 -0.09429158 -0.19406493 -0.0016331581
0.17734155 -0.26097012 -0.0408469 0.044496942 0.0092491675 0.03303465 0.0796598 -0.18389513
-0.22740805 0.10997453 -0.16616796 0.04817853 0.04365741 -0.13103414 0.12337325 0.14686464
0.08923599 -0.136776 -0.074801944 -0.13081992 -0.050878376 0.30335566 -0.032753337 -0.031401683
-0.10731801 0.13679747 -0.16066413 0.014002357 -0.21953587 -0.0052705966 0.12301993 -0.20454496
0.07716278 0.023323804 -0.10616444 0.15610257 0.0034684364 0.01473792 0.06936439 0.14263888
-0.084093355 -0.069453806 0.24099842 -0.049793098 0.0020162181 0.0008340291 -0.06116162 -0.18880919
-0.0277161 -0.051340543 -0.15764025 -0.17042226 0.052988335 -0.09736246 0.10446436 0.24397327
0.16689585 0.1799658 -0.0532229 0.004008577 -0.031730045 -0.14209731 -0.08089608 -0.21696235
-0.06937028 -0.13771111 -0.06623269 0.106512114 0.07686206 -0.10864581 0.19690867 -0.002972284
0.27103394 -0.03928698 0.06410472 0.0055945474 -0.009920807 -0.09635226 0.2289254 0.1081302
0.03892038 0.0037514332 0.06374217 -0.22103976 0.042072933 0.009553179 0.071747944 -0.07213443
0.0363486 0.048169095 -0.13516901 0.048173938 -0.085674174 -0.23645678 0.05924452 0.08216499
-0.17701717 0.17006168 -0.02435643 -0.012254996 -0.019009007 0.11224134 -0.09705251 0.2177203
-0.14011376 -0.0037896263 -0.17215772 0.11169739 -0.07109144 -0.073970854 -0.09520282 0.0812289
0.09365764 -0.09063706 0.083357185 -0.037743554 0.055116493 -0.17195827 0.09392595 0.06342827
-0.08777725 -0.0038013319 -0.19393678 0.058171235 0.09672575 -0.11033619 0.10047998 -0.10708933
00000000: b33e 0c3e 169a 443d 2a81 01be 21dd f0bd
00000010: 7ad3 b2bd 32d1 c6bd b23b 093e 18f1 853e
00000020: 4e95 96bd a803 a6bd 005d 833d dd88 d8bd
00000030: 49be fc3d 3c92 23bd 5507 9e3d 0b56 0abd
00000040: d631 78bc 432f 9e3d e79b 92bd 91f0 5ebd
00000050: eed3 e0bc 25c0 debd a6cf 4c3e 4fbf afbd
00000060: 2ba8 26be 7975 9d3d bc51 1b3d 4e2e f7bd
00000070: 8933 3ebd e670 143e 288b f43b 63bc 6c3c
00000080: b769 bbbd d954 9e3d 7d7d 12be f8f9 acbd
00000090: aa8b 9abd 8315 84bb a9b6 25be bcde b63c
000000a0: f1ce 313d a494 81bd 0457 603e 752c 003e
000000b0: 4de2 b7bd 052d 7cbc 9f26 e3bd 6385 19be
000000c0: 0d97 d93d ba15 70bc 43b6 5bbe 17f0 0c3e
000000d0: c254 94bd 34f2 c6bb 7723 ad3d 2f26 5bbb
000000e0: 8863 e0bd a3b2 20be f235 0d3d 0596 873d
000000f0: c533 073d 6cae 5ebe e504 913d dc05 153d
00000100: 5998 f33d 6f59 3b3e b928 3a3d 7a1e d3bd
00000110: 961d 9a3b 1796 3cbe 56c5 00bc 11a7 e6b9
00000120: cd0a aabd 522e f8bd 3cbe 233e 8979 0e3e
00000130: c620 33be 9345 52bd ad18 743d 4173 eb3d
00000140: a36d 17be 9c54 003e 85b5 54be 3a84 383e
00000150: dfc7 ee3d 99c9 26bd 0f29 2c3d dea2 15bd
00000160: af87 48be 48bf cebd 4db0 8b3c 49b6 3f3e
00000170: e077 1ebe 0890 753d 403c 203c 6ebf 29bd
00000180: 3c26 13be 20b4 c63d 7db9 a2bc b026 5f3d
00000190: b115 11bd 124d 34bd 9b7d 753d 9439 0b3d
000001a0: 9c70 69bc 72e4 aa3d 6af1 94bd e412 353d
000001b0: 3ee5 9f3c a940 103e 3928 ccbd 00d5 b33d
000001c0: 17b8 343e 1388 06be 8d4b 27bd 72ce 0c3d
000001d0: 1295 8e3c b92a 4fbd a1ab 9bbd ee75 903d
000001e0: ca0f 39be 2c80 323e ce22 083d 2257 0c3e
000001f0: ba90 1a3c f21b c1bd f5b8 46be b10f d6ba
00000200: 0699 353e e09d 85be 144f 27bd 6d42 363d
00000210: d289 173c 574f 073d ad24 a33d 014f 3cbe
00000220: a8dd 68be 543a e13d ef27 2abe da56 453d
00000230: 1dd2 323d d02d 06be 1dab fc3d af63 163e
00000240: 5cc1 b63d 020f 0cbe c331 99bd a8f5 05be
00000250: d865 50bd 6f51 9b3e 5d28 06bd 0d9f 00bd
00000260: 8bc9 dbbd a314 0c3e 2385 24be 246a 653c
00000270: 03ce 60be f8b4 acbb e0f1 fb3d 3c74 51be
00000280: 8507 9e3d 9011 bf3c be6c d9bd 5ad9 1f3e
00000290: b54e 633b 5177 713c eb0e 8e3d ed0f 123e
000002a0: 2339 acbd cc3d 8ebd 4ac8 763e d9f3 4bbd
000002b0: 8722 043b bfa2 5a3a 9b84 7abd 3257 41be
000002c0: e00c e3bc 764a 52bd 726c 21be 2c83 2ebe
000002d0: 4c0a 593d f865 c7bd 69f1 d53d 21d4 793e
000002e0: bfe6 2a3e f448 383e 4100 5abd 625a 833b
000002f0: 5df7 01bd f581 11be d8ac a5bd 612b 5ebe
00000300: 0112 8ebd 2404 0dbe 01a5 87bd 0623 da3d
00000310: db69 9d3d b281 debd 6da2 493e a7ca 42bb
00000320: f6c4 8a3e 62eb 20bd 5649 833d 7752 b73b
00000330: e18a 22bc 5554 c5bd 6c6b 6a3e 5e73 dd3d
00000340: fa6a 1f3d 9bda 753b 418b 823d 3f58 62be
00000350: ab54 2c3d f084 1c3c 96f0 923d 37bb 93bd
00000360: 45e2 143d f54c 453d bf69 0abe 0952 453d
00000370: f175 afbd ba21 72be 62aa 723d 1e46 a83d
00000380: fd43 35be a624 2e3e 2387 c7bc 2ec9 48bc
00000390: c7b8 9bbc cade e53d 77c3 c6bd 12f2 5e3e
000003a0: fb79 0fbe 615b 78bb 1d4a 30be 9ac1 e43d
000003b0: 6498 91bd 087e 97bd b2f9 c2bd 565b a63d
000003c0: 94cf bf3d ec9f b9bd 2cb7 aa3d fc98 1abd
000003d0: d5c1 613d d415 30be 405c c03d aee6 813d
000003e0: 8fc4 b3bd c41f 79bb 5d97 46be f644 6e3d
000003f0: 2618 c63d f1f7 e1bd 73c8 cd3d a751 dbbd

gc1.bias f4 [200]
0.0005758238 -0.0042011035 0.003572868 -0.0050105858 -0.007444276 -0.003673648 0.0046648593 0.0020521774
-0.00011213857 0.0049896417 0.008685012 -0.007746812 0.003653735 0.010321652 -0.007009974 0.0016328329
0.005612897 -0.011436951 0.0128945755 -0.016632115 0.0013819502 0.012641407 0.013785297 -0.020205403
-0.0071039754 -0.00090156816 0.008918666 0.020663422 0.007137866 -0.0012843835 0.007878582 -0.024796417
-0.009377738 0.015354805 0.01810497 -0.020214103 0.019249663 0.017158061 0.012847059 0.007850511
-0.015014903 0.010369211 -0.005263435 -0.0061710207 -0.012337324 0.013378552 -0.015478776 0.020597717
0.007815241 -0.012214347 0.020936713 -0.0030973095 0.019696124 -0.011835847 0.00032998438 -0.011183703
-0.0011413613 -0.0027043372 0.0015975737 0.013854963 -0.003391849 0.012419667 0.0045837336 0.001381542
0.009750383 0.00022863262 0.015037483 0.008496689 0.006671541 0.01126641 -0.010899472 -0.015144681
0.0077678384 -0.007480973 -0.021028118 0.003947785 0.017063241 -0.014814025 -0.014619492 -0.0002867326
0.029565454 0.010171466 0.017693408 -0.007889009 -0.010483244 -0.011245069 -0.016031507 -0.016489014
-0.0075418563 0.01493402 0.009146817 -0.009119299 0.019655967 -0.027423726 0.0010086106 0.015487553
-0.016310327 0.019946244 0.008299117 -0.014057475 -0.0052587693 -0.007320782 -0.026388103 0.0125304675
0.01095655 0.019754468 0.0059923674 -0.0058447514 -0.020534938 0.013582085 0.013199799 0.013320547
0.014725017 -0.0068869023 -0.0007785813 -0.005458413 -0.0019851944 -0.036296427 0.009777714 -0.01139324
0.0049366215 -0.01352287 0.010951889 0.009330396 0.0072949277 0.013463445 -0.011883427 -0.0037215357
0.009860334 0.020633336 0.0019983852 -0.0063556307 0.0025689162 0.006590634 0.005929827 -0.0068526515
0.0077161286 0.029041328 0.024252841 0.010981426 0.008313329 0.011995111 0.0052339192 -0.00502104
-0.014061917 0.015705572 -0.008016949 0.010850764 0.0078214295 0.004323635 -0.010900101 0.013630602
-0.013877845 0.0073490595 0.0045434693 -0.014659029 0.010567212 0.0049992134 -0.004423039 0.034308802
-0.0055677397 -0.008966386 -0.002341827 0.014967863 0.026148397 0.020930188 -0.016573306 0.0028719457
0.020937152 -0.0037056212 0.019416628 -0.0062364046 0.01843741 0.008677177 0.011328291 0.03089934
-0.0001128026 -0.00239453 0.010782711 0.018647023 -0.0070384247 0.0132247275 0.016566489 -0.0005359579
-0.008040275 -0.0015163994 -0.0023148556 -0.0040481887 0.0009095007 0.013694042 0.0055967825 0.01680162
-0.0018524926 0.008119002 0.016112823 0.00074353046 -0.012284839 0.017334571 0.0001997716 -0.0076186457
00000000: e2f2 163a 69a9 89bb c726 6a3b d72f a4bb
00000010: 1def f3bb 96c1 70bb addb 983b d37d 063b
00000020: f02b ebb8 2680 a33b 954b 0e3c f8d8 fdbb
00000030: 8073 6f3b 251c 293c edb3 e5bb c804 d63a
00000040: 65ec b73b 0d62 3bbc c543 533c 1340 88bc
00000050: 8e22 b53a e71d 4f3c badb 613c cd85 a5bc
00000060: 77c8 e8bb 3757 6cba 991f 123c 5646 a93c
00000070: c3e4 e93b c258 a8ba 2b15 013c db21 cbbc
00000080: 16a5 19bc b892 7b3c e050 943c 0c98 a5bc
00000090: 78b1 9d3c 108f 8c3c 797c 523c 6e9f 003c
000000a0: 1101 76bc a0e3 293c e578 acbb 4636 cabb
000000b0: 7d22 4abc b731 5b3c b19a 7dbc 8bbc a83c
000000c0: 7f0b 003c af1e 48bc 7883 ab3c 3bfc 4abb
000000d0: c459 a13c 24eb 41bc c101 ad39 da3b 37bc
000000e0: bb99 95ba 403b 31bb ae65 d13a edff 623c
000000f0: c949 5ebb dc7b 4b3c 2533 963b db14 b53a
00000100: 12c0 1f3c 1abd 6f39 c65f 763c b235 0b3c
00000110: f19c da3b c096 383c b393 32bc 6521 78bc
00000120: 5a89 fe3b f322 f5bb 2943 acbc 6c5c 813b
00000130: 36c8 8b3c 86b6 72bc 9886 6fbc 9954 96b9
00000140: 4033 f23c 38a6 263c c4f1 903c e740 01bc
00000150: eac1 2bbc 3d3d 38bc 8254 83bc f813 87bc
00000160: ad21 f7bb d2ad 743c 88dc 153c 1d69 15bc
00000170: 8d05 a13c b9a7 e0bc 5b33 843a 81bf 7d3c
00000180: 3c9d 85bc 4e66 a33c 05f9 073c 5351 66bc
00000190: c151 acbb 2ce3 efbb dd2b d8bc 974c 4d3c
000001a0: 1a83 333c 1fd4 a13c 9f5b c43b 5485 bfbb
000001b0: e338 a8bc 6587 5e3c f843 583c 6c3e 5a3c
000001c0: 3341 713c 86ab e1bb b519 4cba 7ddc b2bb
000001d0: 091a 02bb 90ab 14bd b432 203c b6aa 3abc
000001e0: 62c3 a13b 078f 5dbc 8d6f 333c 84de 183c
000001f0: 4a0a ef3b c895 5c3c b5b2 42bc 02e5 73bb
00000200: 3d8d 213c 3e07 a93c 57f7 023b e542 d0bb
00000210: 435b 283b 3ff6 d73b ff4e c23b 358c e0bb
00000220: 94d7 fc3b 14e8 ed3c e5ad c63c 70eb 333c
00000230: a134 083c 2487 443c 4c81 ab3b 8987 a4bb
00000240: f463 66bc f9a8 803c 8559 03bc 67c7 313c
00000250: 7425 003c 47ad 8d3b 5696 32bc e352 5f3c
00000260: e75f 63bc 61d0 f03b 62e1 943b 6d2c 70bc
00000270: 1922 2d3c 71d0 a33b 24ef 90bb 6387 0c3d
00000280: 9671 b6bb c0e7 12bc 5679 19bb c53b 753c
00000290: 2a35 d63c c975 ab3c bec4 87bc 4137 3c3b
000002a0: 6484 ab3c 02da 72bb 9f0f 9f3c c15a ccbb
000002b0: 0d0a 973c b82a 0e3c 4c9a 393c 9d20 fd3c
000002c0: 6f90 ecb8 8ced 1cbb f8a9 303c a4c1 983c
000002d0: 96a2 e6bb 87ac 583c 72b6 873c 877f 0cba
000002e0: 5cbb 03bc ecc1 c6ba d5b4 17bb aba6 84bb
000002f0: 8f6b 6e3a fa5c 603c 3765 b73b 8da3 893c
00000300: 56cf f2ba 9005 053c 0aff 833c 7ce9 423a
00000310: 5946 49bc 3b01 8e3c c879 5139 d5a5 f9bb

gc2.weight f4 [200, 200]
0.008407465 -0.00855514 0.10010758 -0.08499859 0.1812271 0.17770807 0.09307586 -0.11573936
0.16120327 -0.027653389 0.0047430345 -0.028680138 0.02390463 -0.07192549 -0.0111370925 0.023550196
-0.011310826 0.3515063 -0.0046906183 -0.14428313 -0.117510274 0.14631191 -0.13304107 0.03939792
-0.08863432 -0.106069684 0.28273553 0.045971673 0.068103984 -0.054977186 -0.17927432 -0.062205475
-0.12472881 0.03166689 0.00609841 0.24962835 0.11082805 -0.093056284 -0.113194294 -0.14191082
-0.07157809 -0.0808223 0.13597865 -0.1328793 -0.12624717 0.16488247 0.27630034 -0.11391555
-0.10371163 0.0016866347 0.10718901 0.1363392 -0.057943583 0.1741304 -0.111962825 -0.18120101
-0.007812935 -0.11411059 0.20114549 0.0447349 0.08891198 0.13059488 -0.10001853 0.058383238
0.22633447 0.040666677 -0.08744483 0.20025915 -0.026564667 0.22103024 0.029937133 -0.067360185
-0.13393132 -0.031553604 -0.022514261 0.1476827 0.052159484 0.011338216 0.024615789 0.46227652
0.031449202 0.1076412 -0.021486107 -0.12275048 -0.020498117 -0.09059488 -0.064863265 0.066142574
0.09290064 -0.0024428465 0.080090255 -0.0011595512 0.15437938 0.17944017 0.09208546 0.11584673
0.19933197 -0.021967398 0.19011882 -0.120592825 0.1876465 -0.06595327 -0.14437667 -0.11377489
-0.12969501 -0.026263902 -0.14718297 0.12538967 0.029690148 -0.09286788 -0.042451832 0.014640746
-0.09171641 -0.05347908 0.06824091 -0.12209748 -0.13933073 0.28782558 -0.03196021 -0.08424369
0.168624 0.36829692 -0.06118137 -0.05721321 -0.20815542 0.2853067 -0.028902085 -0.11405703
0.21380737 -0.08380972 0.04471639 0.0870875 -0.13943739 0.34992296 -0.08072354 -0.11876943
0.3128016 0.15791148 -0.019561082 -0.052085184 0.024476657 0.12737568 -0.106671974 -0.05223805
0.20610276 0.04689924 0.1297204 0.042423487 0.021844927 0.018472848 -0.019824324 -0.11868675
-0.15235642 -0.068755984 0.02418646 -0.11862098 -0.02086631 6.580702e-06 -0.12297767 -0.15173943
0.114544176 -0.079977535 0.005349757 0.0085316505 -0.14807202 -0.13893552 -0.081883624 0.13888617
0.02732244 0.12085993 0.07292102 -0.15159155 -0.032916617 -0.08767091 -0.0807952 -0.07665143
-0.04074558 -0.08496285 0.044966947 -0.08021144 0.002242371 -0.102808736 -0.038254943 0.20816179
-0.065662704 -0.17472476 -0.10791815 0.11418279 -0.14784347 -0.03603557 0.10970681 0.18908606
0.27166668 0.13872553 -0.17509885 0.06643388 -0.05006 0.21872483 -0.13049644 -0.09689611
0.33043653 -0.1815137 -0.15339567 0.36434597 -0.0033011343 -0.022550197 -0.11963069 -0.21514168
0.19836596 0.021999706 0.03782141 0.025411284 0.0828398 0.09690956 -0.07818296 0.25045487
0.26965225 0.0061759357 -0.014961481 -0.2644216 -0.09640881 0.092291996 -0.11774306 -0.032155663
0.034168087 -0.14756642 0.3100349 -0.19029619 -0.32597646 -0.1475016 -0.08496226 -0.15577428
-0.047451925 0.026037313 0.08676368 -0.102284074 -0.120602205 -0.16368018 -0.075593285 -0.1514007
-0.1710204 -0.12631676 -0.16712502 -0.09191236 -0.13941446 0.048166618 0.044189155 -0.07208424
-0.17372298 0.16343145 0.30222943 0.31752324 -0.11935984 -0.069188036 -0.07446448 -0.12749958
00000000: 77bf 093c dc2a 0cbc 3405 cd3d be13 aebd
00000010: 9993 393e 1bf9 353e 8e9e be3d c208 edbd
00000020: 7812 253e 5c89 e2bc 756b 9b3b 9cf2 eabc
00000030: a5d3 c33c ac4d 93bd 5a78 36bc 57ec c03c
00000040: 0b51 39bc a2f8 b33e c2b3 99bb f5be 13be
00000050: 3aa9 f0bd cad2 153e eb3b 08be b75f 213d
00000060: e985 b5bd 103b d9bd b6c2 903e cb4c 3c3d
00000070: 1a7a 8b3d c22f 61bd b093 37be 2bcb 7ebd
00000080: d171 ffbd 24b5 013d 2cd5 c73b 939e 7f3e
00000090: d1f9 e23d 4b94 bebd 69d2 e7bd 1251 11be
000000a0: 8997 92bd 2986 a5bd fd3d 0b3e 8311 08be
000000b0: f046 01be f3d6 283e 3d77 8d3e 8e4c e9bd
000000c0: c366 d4bd 1212 dd3a e985 db3d 819c 0b3e
000000d0: 4056 6dbd 3d4f 323e c44c e5bd c28c 39be
000000e0: d301 00bc d0b2 e9bd 15f9 4d3e f13b 373d
000000f0: 7c17 b63d aaba 053e 84d6 ccbd 4323 6f3d
00000100: 39c4 673e 1a92 263d 4616 b3bd bc10 4d3e
00000110: 259e d9bc c055 623e b83e f53c 23f4 89bd
00000120: 4b25 09be 5a3e 01bd d46f b8bc 223a 173e
00000130: 2fa5 553d edc3 393c 0da7 c93c 82af ec3e
00000140: e1d0 003d fd72 dc3d a203 b0bc 9b64 fbbd
00000150: abeb a7bc cf89 b9bd 08d7 84bd c275 873d
00000160: b142 be3d 2a18 20bb 5c06 a43d 15fc 97ba
00000170: a115 1e3e 2abf 373e 4d97 bc3d 0d41 ed3d
00000180: ae1d 4c3e f9f4 b3bc 82ae 423e 5ff9 f6bd
00000190: 6726 403e 8212 87bd 7ad7 13be cf02 e9bd
000001a0: c5ce 04be 6527 d7bc 22b7 16be 2666 003e
000001b0: c138 f33c 8431 bebd f9e1 2dbd bddf 6f3c
000001c0: d0d5 bbbd e10c 5bbd e4c1 8b3d 3e0e fabd
000001d0: b7ac 0ebe e05d 933e b6e8 02bd f587 acbd
000001e0: c5ab 2c3e 6a91 bc3e 5199 7abd 6658 6abd
000001f0: b226 55be b813 923e 11c4 ecbc bb96 e9bd
00000200: 52f0 5a3e 6ea4 abbd 8928 373d ee5a b23d
00000210: adc8 0ebe 1a29 b33e 6252 a5bd 633d f3bd
00000220: 8827 a03e 8cb3 213e 903e a0bc 4657 55bd
00000230: 4583 c83c c56e 023e d676 dabd 91f7 55bd
00000240: 9a0c 533e 6b19 403d 6dd5 043e 40c4 2d3d
00000250: 22f4 b23c 5f54 973c 9f66 a2bc 0a12 f3bd
00000260: 5203 1cbe f0cf 8cbd af22 c63c 8eef f2bd
00000270: d3ef aabc cdcf dc36 b7db fbbd 9561 1bbe
00000280: 2396 ea3d 43cb a3bd 044d af3b 56c8 0b3c
00000290: 31a0 17be 1d45 0ebe 9ab2 a7bd 2d38 0e3e
000002a0: 4fd3 df3c 6985 f73d 9e57 953d d13a 1bbe
000002b0: 93d3 06bd ce8c b3bd f477 a5bd 6dfb 9cbd
000002c0: d6e4 26bd 0101 aebd 432f 383d e545 a4bd
000002d0: bef4 123b 638d d2bd 37b1 1cbd 5d28 553e
000002e0: 2b7a 86bd 0ceb 32be 3104 ddbd abd8 e93d
000002f0: 4764 17be 099a 13bd f7ad e03d c79f 413e
00000300: e517 8b3e 110e 0e3e 1d4d 33be 7c0e 883d
00000310: b70b 4dbd 67f9 5f3e dca0 05be 7871 c6bd
00000320: fa2e a93e bade 39be c113 1dbe 8e8b ba3e
00000330: d857 58bb 31bb b8bc ef00 f5bd 1a4e 5cbe
00000340: 7220 4b3e ba38 b43c 9fea 1a3d 532b d03c
00000350: eaa7 a93d 8578 c63d 631e a0bd 9f3b 803e
00000360: dc0f 8a3e 815f ca3b 0021 75bc 4562 87be
00000370: fb71 c5bd 9603 bd3d 4623 f1bd a8b5 03bd
00000380: d6f3 0b3d a71b 17be e5bc 9e3e 01dd 42be
00000390: 63e6 a6be a90a 17be b200 aebd 4b83 1fbe
000003a0: f35c 42bd 344c d53c 28b1 b13d 507a d1bd
000003b0: 4afe f6bd c79b 27be a7d0 9abd c908 1bbe
000003c0: f91f 2fbe 2e59 01be d222 2bbe 8c3c bcbd
000003d0: aac2 0ebe 5c4a 453d b0ff 343d e7a0 93bd
000003e0: 70e4 31be 935a 273e d1bd 9a3e 6892 a23e
000003f0: ef72 f4bd 75b2 8dbd d580 98bd 408f 02be

gc2.bias f4 [200]
-0.027152946 0.044494484 0.0011213372 0.021344708 -0.009138266 -0.037805457 -0.0196651 -0.009312305
-0.029224386 0.021664858 -0.015207853 -0.0072554275 -0.0028175523 0.011683823 0.008804435 -0.0075513385
-0.01586337 -0.020594284 -0.022904098 -0.009046666 -0.011047484 -0.03001841 -0.022614753 -0.023476822
0.005982301 -0.005305127 0.014952452 -3.115897e-05 -0.07469016 0.019946612 -0.040190976 -0.014498656
0.042172637 -0.0044464115 0.022445725 -0.03090587 -0.013296865 -0.018635452 -0.00604398 -0.006806561
0.027934425 0.0031102488 -0.0116848145 -0.03688787 -0.039362587 -0.032718576 -0.03862007 -0.04873756
-0.0015112673 0.0093915565 0.0007698089 -0.0285729 0.0009584389 -0.033666234 -0.024498597 -0.018507924
-0.03538303 -0.04532177 0.0010915946 -0.018045522 -0.03926575 0.029943576 -0.027037878 -0.017118031
-0.0033155272 0.0025424184 0.0011111464 -0.018645687 -0.0010469069 -0.006521825 0.043336738 -0.032283563
-0.004289936 0.02255461 -0.008521517 -0.044859316 -0.0070727756 -0.011019981 0.0052321013 -0.010665718
-0.041443836 0.0022782895 0.019640056 -0.016986141 -0.08858341 -0.00633018 -0.026933663 0.039547596
-0.006376707 -0.0020449813 -0.007634227 -0.02375214 -0.01703958 -0.0041831345 -0.0014952817 -0.0077127237
-0.010776602 0.019669877 -0.03686178 0.007381218 -0.020435747 -0.005547107 -0.049643207 -0.021121949
0.0038364283 -0.015893808 -0.019428946 0.007960286 0.009860198 -0.009252014 -0.016337153 -0.03020832
0.014144891 -0.008642281 -0.014034505 -0.009401509 -0.020388406 -0.004358761 -0.011651914 -0.01375826
-0.0026794544 0.006248208 0.015519613 -0.018250128 -0.0005922656 0.0011244614 0.0035258823 -0.006753396
-0.002212437 -0.0040770345 -0.0011050997 -0.033216853 -0.011385541 -0.014582962 -0.045157727 -0.018083137
-0.008479761 -0.002784271 0.0069584055 0.008348306 -0.011947759 -0.036034696 -0.011550459 -0.022903731
-0.018004484 -0.02138002 0.006004309 -0.024360701 -0.019959142 -0.002966414 -0.024429264 0.007939293
-0.038840923 0.012205822 -0.018295158 -0.017634483 -0.023837486 -0.0014437769 -0.020713821 -0.008768216
-0.02040936 -0.020857358 -0.016863067 0.0066389358 -0.003766106 -0.01744729 0.00551502 -0.010437928
0.009166743 0.079038456 -0.010485832 0.017152028 -0.024602866 -0.014999279 -0.026110882 -0.013078898
-0.05533354 0.031626385 -0.018417234 -0.0013122639 -0.013907443 0.020615237 -0.015641088 0.010784003
-0.016181372 -0.011456639 -0.03391462 -0.030111467 0.03297057 -0.0063572684 -0.0010256191 -0.017245345
0.0157765 0.012280834 -0.026494998 -0.022046858 -0.022066133 0.0060583204 -0.0040312405 0.018530702
00000000: db6f debc d93f 363d d5f9 923a 19db ae3c
00000010: aab8 15bc e5d9 1abd b418 a1bc a392 18bc
00000020: fb67 efbc 807a b13c 5c2a 79bc f0be edbb
00000030: afa6 38bb 816d 3f3c 7a40 103c 3871 f7bb
00000040: e6f3 81bc 58b5 a8bc 60a1 bbbc 7838 14bc
00000050: 8200 35bc 2be9 f5bc 9342 b9bc 7752 c0bc
00000060: 2e07 c43b a1d6 adbb 21fb 743c b0b0 02b8
00000070: 28f7 98bd 1467 a33c 4b9f 24bd c58b 6dbc
00000080: 37bd 2c3d 34b3 91bb 19e0 b73c 4f2e fdbc
00000090: 18db 59bc 60a9 98bc 940c c6bb 9209 dfbb
000000a0: bcd6 e43c 51d5 4b3b aa71 3fbc bc17 17bd
000000b0: aa3a 21bd ea03 06bd 1430 1ebd 09a1 47bd
000000c0: b715 c6ba 0bdf 193c 00cd 493a b711 eabc
000000d0: bf3f 7b3a 9be5 09bd 48b1 c8bc ee9d 97bc
000000e0: cced 10bd 52a3 39bd d613 8f3a 34d4 93bc
000000f0: 20d5 20bd 3b4c f53c 8a7e ddbc 1d3b 8cbc
00000100: 5149 59bb b49e 263b e3a3 913a d7be 98bc
00000110: 5e38 89ba 09b5 d5bb dd81 313d c53b 04bd
00000120: 9792 8cbb 72c4 b83c d59d 0bbc 67be 37bd
00000130: bec2 e7bb 268d 34bc 0c72 ab3b 43bf 2ebc
00000140: 03c1 29bd 5b4f 153b 2fe4 a03c 8526 8bbc
00000150: 386b b5bd 666d cfbb fca3 dcbc a9fc 213d
00000160: b2f3 d0bb 1805 06bb 8a28 fabb d993 c2bc
00000170: 9796 8bbc ad12 89bb 54fd c3ba 04bb fcbb
00000180: 5890 30bc b922 a13c 61fc 16bd 25de f13b
00000190: de68 a7bc 82c4 b5bb ad56 4bbd f007 adbc
000001a0: 966c 7b3b bb33 82bc 7429 9fbc dc6b 023c
000001b0: ab8c 213c c295 17bc 7ed5 85bc 7077 f7bc
000001c0: f9bf 673c 5b98 0dbc fbf0 65bc c908 1abc
000001d0: 9605 a7bc f0d3 8ebb abe7 3ebc 536a 61bc
000001e0: c999 2fbb c5bd cc3b fa45 7e3c 4b81 95bc
000001f0: 4642 1bba aa62 933a 7d12 673b 974b ddbb
00000200: 89fe 10bb a598 85bb fed8 90ba 650e 08bd
00000210: 6c8a 3abc 60ed 6ebc 4ff7 38bd 1623 94bc
00000220: b2ee 0abc 5178 36bb 5603 e43b 55c7 083c
00000230: 89c0 43bc 1e99 13bd 233e 3dbc 9ba0 bbbc
00000240: 247e 93bc 2725 afbc cbbf c43b 1890 c7bc
00000250: 5b81 a3bc 2b68 42bb e11f c8bc cf13 023c
00000260: a917 1fbd eefa 473c badf 95bc 3176 90bc
00000270: d546 c3bc 1d3d bdba 08b0 a9bc 90a8 0fbc
00000280: 8831 a7bc 0ddd aabc 6a24 8abc 6e8b d93b
00000290: c6d0 76bb 9eed 8ebc 57b7 b43b d803 2bbc
000002a0: 1b30 163c eade a13d c4cc 2bbc 6982 8c3c
000002b0: f38b c9bc 89bf 75bc 7de6 d5bc e048 56bc
000002c0: 6ca5 62bd ab8a 013d bddf 96bc 4500 acba
000002d0: 0bdc 63bc 49e1 a83c bd21 80bc 63af 303c
000002e0: cc8e 84bc a0b4 3bbc 0eea 0abd 53ac f6bc
000002f0: 260c 073d a250 d0bb 116e 86ba 1c46 8dbc
00000300: b83d 813c 8d35 493c 0a0c d9bc 9d9b b4bc
00000310: 09c4 b4bc e084 c63b 7f18 84bb b3cd 973c

gc3.weight f4 [200, 100]
-0.14238806 0.05878137 -0.0028420272 0.12893952 -0.06779927 0.0457488 0.043451607 0.06377746
-0.023116147 -0.027468845 -0.09520536 -0.17253728 0.108755656 0.066439524 0.15405022 0.050885364
-0.1505457 0.042924777 0.16234669 0.10307928 0.17433357 0.014561188 0.06112705 0.043790914
0.17445382 0.028428545 -0.03747729 -0.024755955 0.009876661 -0.0072970786 0.27217448 -0.079113
0.18798894 0.0020834508 -0.021298952 0.018870275 0.085718445 -0.023115175 -6.830496e-05 0.08667615
-0.036479115 -0.015584204 -0.12871449 -0.02041358 -0.10953224 0.07418266 -0.011938822 0.049538873
0.05345102 -0.13443981 -0.03912741 0.20136084 -0.15804014 0.0030416006 0.03044092 0.09783526
0.13340604 0.24487364 0.017800989 0.0646419 0.0039096926 0.035585597 0.106855005 -0.13140948
-0.120178774 -0.034707833 0.10287558 0.10822047 -0.11390117 0.110984996 0.054072253 -0.023223294
0.15360683 -0.022765812 0.0150047 0.059583493 -0.0050576073 0.1038485 -0.05851747 -0.11486793
-0.0955599 0.057157826 -0.120365284 0.09806761 0.120550066 -0.14477259 -0.005875371 0.00952482
-0.16001424 0.06040895 0.108474456 -0.10258075 0.03796326 -0.1168178 0.157531 -0.07896222
-0.03377035 -0.20913461 0.028557045 0.13167131 0.046338655 0.10901296 0.11980691 -0.14088285
-0.068632476 -0.034240477 -0.020708507 -0.10082876 0.13351941 0.1540235 0.08195929 -0.043047648
0.04922128 -0.12792376 0.06013182 -0.1094306 0.050700724 -0.08737656 -0.0056040226 -0.041011486
-0.06071332 0.007252083 0.0350552 -0.0038433243 -0.015476835 0.10926878 0.09448912 -0.007971945
-0.0020474659 0.012427927 -0.16042623 -0.08474409 -0.038658213 -0.18479006 -0.13150434 -0.267981
-0.20770855 0.016215453 0.014287979 0.03747998 0.037779413 0.023145713 -0.030312948 0.028968198
0.008623317 -0.064878374 -0.085664034 -0.29483947 0.11407654 0.050395265 0.04776314 -0.1784875
0.086218305 0.012337652 0.068595186 0.008027422 0.10387306 -0.05906293 0.06049433 0.1296997
0.010155597 0.08553659 -0.10376741 -0.13571173 -0.026095176 -0.107137285 0.05927574 0.084092714
0.02300831 -0.0022654834 -0.07068912 -0.12762171 0.010685324 0.08716204 0.065035544 0.2065465
-0.009061908 0.06327893 -0.009878055 -0.06291445 0.015085505 -0.06621263 -0.08366022 -0.106282234
0.004269863 -0.32447723 -0.2644332 0.042505268 -0.0020868662 -0.27153045 -0.03241949 -0.16902342
-0.0029661455 0.079859845 -0.12084016 -0.022341827 -0.08705165 -0.13673668 -0.010009126 -0.29310155
-0.009543321 -0.03722639 -0.066874474 0.011511352 -0.105056204 0.07294929 0.053338554 0.059618168
-0.20047368 0.014586667 0.013729578 -0.020966493 -0.09172846 0.117177665 0.11963107 -0.011094987
0.052197043 -0.023474073 -0.030177202 0.055136904 0.021495605 0.066875406 -0.058539346 0.0692355
-0.011374989 0.0952178 -0.009091084 0.044768482 0.08678288 -0.11642136 -0.08289356 -0.07622032
-0.12320286 0.010711355 0.0045558214 -0.070129305 -0.049915586 0.12552194 -0.1057043 0.02872088
-0.00454543 0.07343215 0.036772855 0.12860915 0.0057188664 0.006268918 0.012587642 -0.053050365
-0.101791166 0.28237325 -0.14018418 0.218168 -0.044709258 -0.03273839 -0.2986588 0.12725334
00000000: 2dce 11be bcc4 703d 4e41 3abb b908 043e
00000010: 58da 8abd 1863 3b3d 50fa 313d c29d 823d
00000020: 135e bdbc 5806 e1bc 07fb c2bd 9dad 30be
00000030: 49bb de3d 7211 883d 57bf 1d3e 2c6d 503d
00000040: a728 1abe e4d1 2f3d 363e 263e 3b1b d33d
00000050: 8084 323e 0d92 6e3c 5c60 7a3d 1a5e 333d
00000060: 06a4 323e fbe2 e83c c981 19bd 00cd cabc
00000070: b8d1 213c 551c efbb 745a 8b3e ff05 a2bd
00000080: 2c80 403e 818a 083b 247b aebc d695 9a3c
00000090: 278d af3d 095c bdbc f23e 8fb8 4483 b13d
000000a0: 206b 15bd e454 7fbc bbcd 03be 613a a7bc
000000b0: 7052 e0bd 14ed 973d 0d9b 43bc 46e9 4a3d
000000c0: 75ef 5a3d 97aa 09be 1044 20bd 8931 4e3e
000000d0: 46d5 21be 9755 473b 3c5f f93c da5d c83d
000000e0: 989b 083e 28c0 7a3e 61d3 913c f962 843d
000000f0: e11c 803b 34c2 113d ccd6 da3d 3590 06be
00000100: 4a20 f6bd cd29 0ebd 6fb0 d23d b2a2 dd3d
00000110: 0445 e9bd 1a4c e33d de7a 5d3d c73e bebc
00000120: 1c4b 1d3e 5e7f babc 46d6 753c d20d 743d
00000130: 49ba a5bb 86ae d43d 04b0 6fbd e13f ebbd
00000140: e9b4 c3bd 531e 6a3d 1382 f6bd acd7 c83d
00000150: f4e2 f63d 443f 14be 2f86 c0bb fe0d 1c3c
00000160: c6da 23be 606f 773d db27 de3d db15 d2bd
00000170: 5d7f 1b3d 2c3e efbd ce4f 213e f2b6 a1bd
00000180: c752 0abd 6227 56be 77f0 e93c d8d4 063e
00000190: 9acd 3d3d 3042 df3d 535d f53d 9843 10be
000001a0: 2f8f 8cbd be3f 0cbd e3a4 a9bc 4f7f cebd
000001b0: 50b9 083e 56b8 1d3e 46da a73d bb52 30bd
000001c0: 419c 493d 72fe 02be c94c 763d 271d e0bd
000001d0: 90ab 4f3d 7bf2 b2bd f3a1 b7bb a9fb 27bd
000001e0: 88ae 78bd e2a2 ed3b 0b96 0f3d 48e0 7bbb
000001f0: 8d92 7dbc 4fc8 df3d 8383 c13d c39c 02bc
00000200: c72e 06bb 819e 4b3c c646 24be 4f8e adbd
00000210: 1358 1ebd 9b39 3dbe 13a9 06be ce34 89be
00000220: 8db1 54be 45d6 843c 2118 6a3c 9c84 193d
00000230: 96be 1a3d 149c bd3c dc52 f8bc b74e ed3c
00000240: d048 0d3c f4de 84bd a070 afbd 33f5 96be
00000250: f6a0 e93d 446b 4e3d 48a3 433d 6dc5 36be
00000260: 3993 b03d dd23 4a3c a27b 8c3d 7385 033c
00000270: 66bb d43d f9eb 71bd e7c8 773d 00d0 043e
00000280: a963 263c cf2d af3d 0284 d4bd 04f8 0abe
00000290: 8dc5 d5bc cb6a dbbd 1ecb 723d cd38 ac3d
000002a0: ec7b bc3c 8178 14bb 75c5 90bd 44af 02be
000002b0: 7f11 2f3c 0382 b23d 5b31 853d ed80 533e
000002c0: 6678 14bc 6298 813d 91d7 21bc 4bd9 80bd
000002d0: 3229 773c 7d9a 87bd 0d56 abbd 80aa d9bd
000002e0: 35ea 8b3b e121 a6be ca63 87be 011a 2e3d
000002f0: cec3 08bb 0a06 8bbe 4dca 04bd 7a14 2dbe
00000300: aa63 42bb 8f8d a33d 0c7b f7bd 3506 b7bc
00000310: 2348 b2bd b304 0cbe 51fd 23bc 6811 96be
00000320: 975b 1cbc b37a 18bd 7cf5 88bd 1c9a 3c3c
00000330: b527 d7bd 7066 953d 8779 5a3d 2e32 743d
00000340: f948 4dbe eafc 6e3c 06f2 603c ecc1 abbc
00000350: 21dc bbbd d8fa ef3d 2201 f53d c0c7 35bc
00000360: 91cc 553d b34c c0bc 2e36 f7bc 3cd7 613d
00000370: 8d17 b03c f9f5 883d f4c6 6fbd 58cb 8d3d
00000380: 295e 3abc 8d01 c33d c5f2 14bc 285f 373d
00000390: 39bb b13d 526e eebd 19c4 a9bd 6619 9cbd
000003a0: c851 fcbd ae7e 2f3c 0049 953b f49f 8fbd
000003b0: 4974 4cbd d388 003e 7f7b d8bd 0d48 eb3c
000003c0: d5f1 94bb 9863 963d 229f 163d 1eb2 033e
000003d0: 5465 bb3b 7f6b cd3b 663c 4e3c 574b 59bd
000003e0: e377 d0bd 3a93 903e 718c 0fbe 6f67 5f3e
000003f0: 0e21 37bd b118 06bd cee9 98be b34e 023e

gc3.bias f4 [100]
-0.01934698 -0.023506403 -0.043764405 -0.004923434 -0.021136323 -0.007767709 0.00093561155 -0.0011642418
-0.01605486 -0.027370384 -0.01673437 -0.015033689 0.06446404 0.0053853802 -0.013418378 -0.025067274
-0.0020156568 -0.05184066 0.008879026 -0.027988391 0.0025587196 0.0023066208 -0.013061909 -0.010151654
0.008418206 0.0069497484 -0.031714737 -0.017560042 -0.032540187 -0.036895152 -0.01831636 -0.022743091
0.055744875 -0.0040467125 -0.009591263 -0.025171144 -0.018700283 -0.017667321 0.002983621 0.005948154
-0.017534304 -0.013950102 -0.02950361 -0.0025270982 -0.019015342 -0.03000015 -0.023118336 -0.025896534
-0.02670315 -0.04621502 -0.03845308 -0.0048258966 -0.021524021 -0.012434661 0.05596441 0.006651873
0.0377948 -0.012501972 -0.017790595 -0.0076597417 0.059151627 -0.02919795 -0.022936933 -0.003348867
-0.025170965 -0.009213799 -0.015103313 -0.0039032588 -0.005453037 -0.0010781394 0.01537174 0.0058391904
-0.0037250652 -0.0027634385 -0.01358642 -0.055068385 -0.01708116 -0.022650657 -0.012626492 -0.014040009
-0.035408985 0.0010676121 -0.00971771 0.011495584 -0.02498749 -0.0018816015 -0.014514011 -0.022372967
0.0016103431 -0.022144515 0.03215684 -0.017843632 -0.026689043 -0.063615315 -0.011872717 -0.0077789673
-0.027787326 -0.03170406 -0.011743127 -0.006574183
00000000: 8f7d 9ebc 8090 c0bc 4e42 33bd c254 a1bb
00000010: 1526 adbc 4488 febb d443 753a 7999 98ba
00000020: 7b85 83bc db37 e0bc 8416 89bc dd4f 76bc
00000030: b905 843d d877 b03b c2d8 5bbc e259 cdbc
00000040: 1c19 04bb df56 54bd 5679 113c e947 e5bc
00000050: 31b0 273b ad2a 173b 9e01 56bc 1f53 26bc
00000060: 84ec 093c b7ba e33b 50e7 01bd 14da 8fbc
00000070: dc48 05bd 5f1f 17bd 310c 96bc b84f babc
00000080: bd54 643d 499a 84bb ac24 1dbc b733 cebc
00000090: 5631 99bc 0fbb 90bc db88 433b bbe8 c23b
000000a0: 1aa4 8fbc f88e 64bc 8eb1 f1bc ac9d 25bb
000000b0: 10c6 9bbc e0c2 f5bc aa62 bdbc f824 d4bc
000000c0: 90c0 dabc f64b 3dbd fa80 1dbd 8e22 9ebb
000000d0: 2553 b0bc c0ba 4bbc f03a 653d f4f7 d93b
000000e0: b8ce 1a3d 12d5 4cbc 95bd 91bc 92fe fabb
000000f0: fa48 723d 8a30 efbc 3ce6 bbbc aa78 5bbb
00000100: 5733 cebc 79f5 16bc e373 77bc d1cd 7fbb
00000110: 64af b2bb 5b50 8dba c0d9 7b3c ae56 bf3b
00000120: 3920 74bb ce1a 35bb 9399 5ebc 638f 61bd
00000130: caed 8bbc df8d b9bc 59df 4ebc 1108 66bc
00000140: 0309 11bd 1eef 8b3a 0837 1fbc f957 3c3c
00000150: 91b2 ccbc 12a0 f6ba 2dcc 6dbc 8347 b7bc
00000160: 2612 d33a 6a68 b5bc e4b6 033d cf2c 92bc
00000170: fba2 dabc bf48 82bd c985 42bc b5e6 febb
00000180: 3fa2 e3bc 1edc 01bd 3f66 40bc 3e6c d7bb
