ROSMAP/models/5/E2.pth (torch, 404227 bytes, 6 tensors)

gc1.weight f4 [200, 200]
000000 89 be 02 3d 66 d9 69 be b0 95 b5 bc 71 7d bc 3d
       0.03191999 -0.22836837 -0.022166103 0.092036135
000010 f2 3f 54 bd 0a dc 5a 3d 38 45 75 bd fe d1 37 bd
       -0.051818796 0.0534325 -0.059880465 -0.044878
000020 89 16 21 bd a3 af 09 bd b1 82 89 3c 93 af 8b 3c
       -0.03932813 -0.033614766 0.016785951 0.017051494
000030 a3 b4 89 3d 83 10 80 3d a7 be 87 bc 29 51 61 bd
       0.06723907 0.06253149 -0.016570402 -0.05500904
000040 45 4d a4 bd 93 b6 d2 bc d2 b5 ee bd 0e e6 a3 3d
       -0.080225505 -0.025721824 -0.11655773 0.08002864
000050 70 79 21 3c 6a 49 fc 3c cd 43 aa bc 64 4b 98 bd
       0.009855613 0.030796725 -0.020784283 -0.074362546
000060 4b 90 84 3c cc cd 1b 3d 5c 52 6b 3d 38 b6 ad 3b
       0.016182085 0.03803806 0.05745159 0.005301263
000070 c5 f7 4a 3d 93 62 79 bd 0e b7 10 be cb ac 81 bd
       0.049552698 -0.060885023 -0.1413233 -0.06331786
000080 58 48 9c bd 95 05 9b bb b6 c3 76 3d 7a 27 46 bd
       -0.07630986 -0.00473089 0.06024524 -0.04837749
000090 1b 6e a4 bd 2a 26 e1 bc ff 7c 02 3e e0 7f b5 bd
       -0.080288135 -0.027484018 0.12742995 -0.08862281
0000a0 0d ce 23 be 73 7f cd 3c 6d b5 11 bd cc 53 2c be
       -0.15996571 0.025085187 -0.03557341 -0.16828841
0000b0 24 74 ff bd 8c e0 d9 bd 76 ac 8e bd c2 ca a8 3d
       -0.12473324 -0.10638532 -0.06966488 0.08241798
0000c0 7c 61 80 bc 09 c0 9f bd d4 78 34 3d a1 98 3f 3c
       -0.015671484 -0.078003 0.044060543 0.011694104
0000d0 d0 e0 e4 bc a4 c0 3f bb d9 ab b7 3c 0b b0 f1 3d
       -0.02793923 -0.002925911 0.02242081 0.11801156
0000e0 1c 2a 93 3c 4d 5f b5 bb 58 42 92 bd 3e 96 00 bd
       0.017964415 -0.0055350424 -0.0714156 -0.031393282
0000f0 e7 a2 a1 3d c6 d5 51 3d da 6d 82 bd 7a a4 39 bd
       0.07892399 0.05122926 -0.06368609 -0.045322873
000100 c3 90 3a 3e 85 50 ef bc ae e2 24 bd 1d fa 4e bd
       0.18219285 -0.0292132 -0.04025524 -0.050531495
000110 a4 17 0d be 4f af 1b 3d e9 f4 c7 3d 6c 70 b1 bb
       -0.1377855 0.038008984 0.0976351 -0.005415013
000120 dd d5 21 be 69 c9 57 bb 85 e8 01 bb 5d 81 f4 bc
       -0.15804239 -0.0032926446 -0.001982243 -0.029846841
000130 b0 73 d7 3d bd f0 02 3d f7 8b 41 bd 2b 9d 44 3c
       0.105201125 0.031967867 -0.04725262 0.012000362
000140 50 fa 9c ba 66 c7 85 3d 6f 78 30 be 10 f3 d4 3a
       -0.0011976454 0.06532173 -0.17233442 0.0016246755
000150 22 1d 26 be 1b 02 99 bc 0b 35 e0 bc 85 17 48 3b
       -0.16222051 -0.018677762 -0.027369043 0.0030531597
000160 e6 19 f9 bd 59 98 2b 3d f5 f1 60 bc 52 63 62 bd
       -0.12163143 0.041893337 -0.013729562 -0.0552705
000170 fb 16 7c 3c 3d a1 23 bd 28 1b 4e 3d c6 eb 5d 3d
       0.015386338 -0.03994869 0.050318867 0.05417993
000180 c5 9c 08 3e 84 66 eb bd bc f5 5f bc ba fd 21 3d
       0.13341053 -0.11494163 -0.0136694275 0.039548613
000190 3b 87 cb bc 16 5c 65 bd 8f 21 84 3c 1f c9 af bd
       -0.024844756 -0.055996023 0.016129283 -0.08583283
0001a0 14 52 bd bd 4d 4c 28 3d 18 23 48 3d 28 fd 27 ba
       -0.09244171 0.04108839 0.048861593 -0.00064082677
0001b0 1f 6f 56 3d 98 a7 0c bd e6 8d 1f bd aa 44 0f bc
       0.052352067 -0.034339517 -0.038953684 -0.008744398
0001c0 54 82 fe bd d6 5f f6 bc b2 21 6c 3c 8e 1a 6e bd
       -0.12427202 -0.030074995 0.01441233 -0.058130793
0001d0 53 5b 5f 3e 51 bf e9 3c 24 03 01 be 7d 96 a0 3d
       0.21812181 0.02853361 -0.12598854 0.07841203
0001e0 d0 41 04 be 49 7c a1 3c af 5f 13 3e 44 9c 55 3c
       -0.1291573 0.019712584 0.14391969 0.013037745
0001f0 75 93 04 3e 66 dc 04 3c 9f d4 a4 3d e1 17 c5 3d
       0.12946875 0.008109188 0.08048367 0.09623695
000200 81 55 87 bc 03 be 50 3d 40 f2 41 3d 1c 6f a2 bd
       -0.016520264 0.05096246 0.04735017 -0.07931349
000210 f5 4f e7 bd db 43 9b 3b d6 28 31 bd 95 29 9f 3c
       -0.112945475 0.0047383136 -0.043251835 0.019429008
000220 67 88 13 3c 3c fe a0 3c 52 65 90 3d 27 69 cf 3d
       0.009004689 0.019652478 0.07050575 0.10127478
000230 6e ac 3d 3c 89 98 92 3d bf b3 a5 3d 8f 24 20 bd
       0.011576755 0.07158 0.080909245 -0.039097365
000240 a7 22 07 bd fd 22 88 3d 72 b0 81 bc 16 15 68 3d
       -0.03299203 0.066472985 -0.015831206 0.056660734
000250 60 f1 35 bd 52 eb a6 bb aa 89 d4 bd e6 2e 27 3c
       -0.044419646 -0.0050939703 -0.1037782 0.010204053
000260 6c 2d 06 3d 0a 53 24 3c b2 b1 59 3d aa bd 33 3e
       0.03275816 0.010029564 0.05314798 0.1755282
000270 d0 d8 e6 bd e8 0c a9 bd 3f 3a ab 3d 76 7c f5 3d
       -0.112718225 -0.08254415 0.08360719 0.1198663
000280 89 a6 40 3c b0 7e a5 bc c1 a4 b8 3a 29 49 f5 bc
       0.011758455 -0.02020201 0.0014087186 -0.029942112
000290 94 14 34 bc 4a 4c 49 3d 95 26 52 bc 62 35 29 bd
       -0.010991234 0.04914502 -0.0128265815 -0.041310675
0002a0 73 3b cb bd 4d c7 97 3d 32 2b 1f be b0 f4 75 3d
       -0.099234484 0.074110605 -0.15543821 0.060047805
0002b0 d2 b3 97 bc 5f 6e a9 bd 16 53 be 3c 60 c7 27 3c
       -0.018518362 -0.08273005 0.023232978 0.010240406
0002c0 9f a8 26 be 6a d7 4a 3d 17 71 1c 3d 36 ac 2d 3b
       -0.16275261 0.04952184 0.03819379 0.002650035
0002d0 ba cd e5 3b 0f 89 14 3e 84 fb ab bd 30 14 40 3d
       0.00701305 0.14505409 -0.08397582 0.046894252
0002e0 26 b0 47 bc 9e aa d6 3c 51 15 50 bd 3d c2 95 3a
       -0.012187993 0.026204403 -0.05080158 0.0011425685
0002f0 0c 50 84 3d c8 52 26 3e 60 d3 ea 3d e8 25 1f 3d
       0.0646058 0.16242516 0.11466098 0.03885451
000300 ce 49 17 bd 49 9a dc bd 3c 2f 8d bc aa 92 5a 3e
       -0.03693562 -0.10771615 -0.017234437 0.2134501
000310 37 ca 8a bd 03 56 eb 3c 0e ff 17 3e 1f 03 94 3d
       -0.06776851 0.028727537 0.1484339 0.07227158
000320 53 95 cb 3d 20 7a 18 3d ff 63 6c bd 42 ba 86 bd
       0.09940591 0.037225842 -0.05771255 -0.065784946
000330 c7 74 3d bd d0 84 26 bb ad 1f a5 bd 96 74 96 bc
       -0.046253946 -0.0025408752 -0.08062682 -0.01836614
000340 a2 c3 0e bd 66 4c 39 3e 20 6f b1 3c 8f d7 3e bb
       -0.03485454 0.1809555 0.021659434 -0.0029120182
000350 84 d7 5c bd a6 6d a6 ba b9 33 1c 3e 11 35 04 be
       -0.05391647 -0.0012697473 0.15254106 -0.12910868
000360 c9 51 19 be 51 ce 83 bc b7 cb a8 bd 5a 4d 2a bb
       -0.14972605 -0.01608959 -0.082419805 -0.0025986047
000370 f0 d9 b2 bd 58 a5 45 3a 6f 62 1c be 00 73 0b 3d
       -0.087329745 0.0007539592 -0.15271924 0.03404522
000380 df c9 66 3b 6d 64 ab 3d 67 ee f2 bd 79 9b 1b bd
       0.003521554 0.08368764 -0.11861878 -0.037990067
000390 74 a3 2a 3c 1c 44 9f 3c 16 8d b5 3d 87 e8 84 bd
       0.010414947 0.019441657 0.08864801 -0.064896636
0003a0 6d a0 9e 3b 1b 2c fe bd 49 76 e9 3c 13 d7 00 3e
       0.0048409016 -0.12410756 0.028498786 0.12582044
0003b0 75 f1 be 3d fb 99 45 bc cd de 87 bc e4 58 14 be
       0.09323398 -0.012060638 -0.016585732 -0.14487034
0003c0 72 11 d4 bd 8a 53 8a bd f1 02 6a 3d 9f 14 04 be
       -0.1035489 -0.06754215 0.05713171 -0.12898491
0003d0 5a cf 20 3e f2 58 9a bd aa 21 91 3c 88 08 7d bd
       0.15704098 -0.07536496 0.017716248 -0.061775714
0003e0 50 63 2b be c7 93 e4 3d 06 d2 a2 3b 09 eb 26 be
       -0.16737103 0.11160999 0.0049688844 -0.16300596
0003f0 14 c1 09 bc b3 f6 db bd f3 74 a6 3d 14 02 62 bd
       -0.00840785 -0.107404135 0.08127775 -0.055177763

gc1.bias f4 [200]
000000 84 c2 ac bb de a0 bc 3c 8c 43 09 bc 83 b2 99 3c
       -0.0052722115 0.023025926 -0.008377921 0.018761879
000010 a2 ca 91 bc 08 95 3e 3c 29 63 f8 bb 0e 10 78 bc
       -0.017796818 0.0116322115 -0.00758018 -0.0151405465
000020 07 e8 0f 3c 63 47 40 bc 84 18 68 3c bd d8 40 bb
       0.008783347 -0.01173577 0.014166001 -0.002942606
000030 77 88 ac bc 4b 57 c3 bc d1 22 0c bc a5 a2 0d bc
       -0.021061165 -0.023845335 -0.008553223 -0.0086447345
000040 fa 49 6d 3b 08 c8 be 3c 69 3d 3c bb 97 c8 df 38
       0.0036207424 0.023288742 -0.0028723127 0.000106708314
000050 97 5f a4 3c 27 6a 33 bc e7 95 00 3d 6d 4d 5f bc
       0.020065112 -0.010950602 0.031392958 -0.0136293
000060 ee 53 b5 bc a0 b5 a6 bb a5 0d d5 3c f5 2c 92 bc
       -0.022134747 -0.0050875694 0.026007483 -0.017843703
000070 9d ca 67 3b 41 38 77 bc e5 57 89 3c fd 08 bf bc
       0.003536857 -0.015089096 0.016765544 -0.023319716
000080 97 18 0a 3c 08 4d 90 3c 86 c2 46 bc b0 e3 b6 3c
       0.008428714 0.017614856 -0.012131339 0.022325367
000090 b0 db f1 bb 69 7b 12 bb 69 1c 59 bc 1a 9a a5 bc
       -0.007380925 -0.002235139 -0.013251402 -0.020215083
0000a0 fb 54 67 3c a3 0f 2c bc c1 a1 9d bb a0 38 53 bc
       0.014119382 -0.010501775 -0.0048105423 -0.012891918
0000b0 2b 2f 92 bc 5c 5d 95 bc 3e ee 8d bc 72 47 8c 3c
       -0.017844757 -0.018232994 -0.017325517 0.017123912
0000c0 73 8c 95 3b 7c 94 1b bc 61 64 23 bc ec 24 a1 3c
       0.004563862 -0.009495851 -0.009972663 0.019670926
0000d0 08 2c d4 bc 0b 7f 70 3b af 46 77 3c 99 aa d8 3c
       -0.025899902 0.0036696817 0.015092536 0.026448535
0000e0 99 f2 be bb cf 58 02 bc a5 15 79 bb e7 14 ac 3b
       -0.0058272597 -0.007955744 -0.0038007286 0.005251515
0000f0 1b d1 c1 3c 16 b6 05 3c 17 be 50 bc 52 42 9a 3c
       0.02365928 0.008161088 -0.012740633 0.018830452
000100 2b 1d 8e bc fd d4 15 bc 5c f6 4c bc ef b5 6a bb
       -0.017347893 -0.009145019 -0.0125099085 -0.0035814007
000110 d5 f9 48 3c 30 e2 52 bc b3 2e c3 ba f1 c0 e6 b7
       0.012266596 -0.01287131 -0.0014891237 -2.7507982e-05
000120 ea e9 95 bb 8b ed a6 bc 01 dd e1 3c 87 cf 32 3c
       -0.004575004 -0.020376941 0.027571203 0.010913736
000130 58 bb dc bc d0 c0 3a 3b 91 b7 61 bc 8d 19 a8 bb
       -0.026944801 0.0028496273 -0.013776676 -0.005129999
000140 ae fd 06 bd 55 36 82 bc 34 a5 80 bb 8c a3 7d bc
       -0.03295677 -0.015895048 -0.0039259437 -0.015480887
000150 70 78 c4 3c aa 79 1b 3a b6 28 5c bc 31 36 17 bc
       0.02398321 0.000593091 -0.013437441 -0.009229229
000160 a5 0c d2 3b 2c 5d f1 bb 8c 25 8a bc 00 53 83 bc
       0.0064101988 -0.0073658433 -0.016863607 -0.016030788
000170 77 c9 8d 3c a5 22 60 3c d0 0f 0a 3c 04 82 ad bc
       0.01730798 0.013680135 0.008426622 -0.02118016
000180 f4 20 0b bb ab c7 2b bb 0c f8 c5 3c d9 90 e1 bb
       -0.0021229358 -0.002621154 0.02416613 -0.0068837223
000190 e6 b6 9d bc 73 63 da 3b 91 df 58 bc fe 2d 51 3b
       -0.019252252 0.0066646873 -0.013236896 0.0031918283
0001a0 b5 81 52 bb 6d 69 d5 bc 39 38 ac bc 95 a3 23 3c
       -0.0032120768 -0.026051247 -0.021022903 0.009987731
0001b0 52 a1 e6 3a b0 dc 0c bc f1 38 19 bc 13 7f 3a bc
       0.0017595685 -0.008597538 -0.009351955 -0.011382836
0001c0 9b 0c 1e 3c af b7 00 bc 11 a1 f2 3b 11 70 c0 3b
       0.00964656 -0.007856294 0.0074044545 0.0058727344
0001d0 28 29 a1 3c 6d 71 da b8 96 45 85 bc 48 02 33 bc
       0.019672945 -0.00010416177 -0.016268533 -0.010925837
0001e0 0c 7d 4e bc e0 9e 42 3c 09 37 8c 3a 5e c2 af bc
       -0.012603056 0.011878699 0.0010697554 -0.021454986
0001f0 fa 4c 43 bc 9f ca b9 bc bf 73 6c bb 9c a6 95 3c
       -0.011920208 -0.022679625 -0.0036079732 0.018267922
000200 43 5a 21 3c 0d 07 b4 bc be e2 32 bb c3 32 13 bb
       0.00984818 -0.021976018 -0.0027295793 -0.0022460676
000210 99 aa 9c bc ee 29 fd bb b3 48 ad bc a9 b0 0c ba
       -0.019124316 -0.0077259457 -0.02115283 -0.00053669006
000220 03 c5 92 bc 0c dd 85 bb 7f 3b e7 3b 9f 9b 9b bb
       -0.017916208 -0.0040851887 0.007056653 -0.004748776
000230 af 4f 08 39 80 be 21 bc 24 b6 a7 3c 1a 1b 1f 3c
       0.00012999655 -0.009872079 0.020472594 0.009711051
000240 b3 c9 59 bc d3 58 f3 bc e3 fa 05 3d 23 27 53 bc
       -0.013292718 -0.02970544 0.032709967 -0.012887749
000250 ff 95 bd bc 13 6a 9d bb 65 55 78 3c c3 15 93 3b
       -0.023142813 -0.004803905 0.015157078 0.004488678
000260 4e 34 ba bc 5f 43 67 bb 95 ba aa bb 53 b4 55 bc
       -0.022730019 -0.003528796 -0.0052102306 -0.013043481
000270 3f fd 67 bb d8 81 5d bc 1e 5e 84 bc 72 61 0f bc
       -0.003539875 -0.013519727 -0.01615816 -0.00875126
000280 09 01 bd bc 0b ed 5a bc 0f 27 3b bb d4 6c 4f bc
       -0.023071783 -0.0133621795 -0.0028557216 -0.012660224
000290 9e a2 21 bc 6e b0 8a 3b 1d 1d 09 3b be 2c 97 3c
       -0.009865431 0.004232458 0.0020921894 0.018453952
0002a0 e4 92 47 bc 74 16 fe 3a a1 84 5e 3c 8e 80 b6 bc
       -0.012181018 0.0019385354 0.013581426 -0.022278097
0002b0 9c 90 83 3c 0d ce 1d bc a9 56 cd bc 52 f6 ea bb
       0.016060166 -0.009631646 -0.025065737 -0.007170477
0002c0 50 a9 5e bb 80 24 28 bb 18 d4 8d bc 2d 76 83 bc
       -0.003397543 -0.0025656521 -0.017313048 -0.016047562
0002d0 4c 27 03 3d 7c 51 01 3a f7 b2 c6 bc 91 ef 15 bc
       0.0320199 0.00049331016 -0.024255259 -0.009151355
0002e0 1a f1 1c bb 94 cf 6a bc 1c 1d c0 3c 97 a5 cf 3c
       -0.0023947419 -0.014331717 0.02345138 0.025347514
0002f0 ed 45 94 3b 6f 9d f9 bc 06 e6 c5 39 0d 82 6f 3c
       0.0045249374 -0.030470578 0.0003774615 0.014618409
000300 99 d8 7f bc 75 55 70 bb af e5 90 ba 7b 07 ba 3b
       -0.015615606 -0.003667203 -0.0011054779 0.0056771613
000310 8e fc 4b 39 1c 4d cd 3c 1d ce 82 bc a4 83 09 bb
       0.00019453673 0.025061183 -0.015967423 -0.0020983005

gc2.weight f4 [200, 200]
000000 74 93 d9 ba 43 0e 2c 3c 25 4b 5c 3d 69 81 58 3c
       -0.0016599731 0.010501447 0.0537826 0.013214448
000010 67 8a 01 3d 99 4f a4 3c 66 87 52 bd 80 3b c7 bd
       0.03162613 0.020057486 -0.051398657 -0.097281456
000020 be dc 7c 3d e5 06 4a bd cc 22 8e bd 89 2e 90 be
       0.061733954 -0.04932298 -0.06940231 -0.28160504
000030 02 84 32 3d 08 d6 72 3c 23 66 95 3a 6f c3 02 bd
       0.043582924 0.014821537 0.0011398237 -0.03192466
000040 29 61 10 be 15 fa 98 bd de 29 c8 3d ec c4 58 bd
       -0.14099564 -0.07469574 0.097736105 -0.052922174
000050 f5 c7 a9 3d 79 11 36 bd d1 28 02 be 2a d4 1d 3c
       0.08290092 -0.044450257 -0.12710883 0.009633103
000060 8a bb 67 3d 87 38 17 3c 78 fc eb 3d 05 9c 04 b9
       0.056575336 0.009229786 0.11522764 -0.00012646623
000070 13 52 2e 3d ce b2 70 bd 5e 23 18 3d d5 be 41 3d
       0.04255874 -0.05876427 0.037143104 0.047301132
000080 31 2b 18 3e 34 b0 6f bd 8b 59 a3 bd 5b 3d 19 bd
       0.14860226 -0.05851765 -0.07976063 -0.03741203
000090 2e f7 40 bd 3a 86 d3 3d 4e 07 5d bb 58 13 90 3c
       -0.04711073 0.10328336 -0.0033726278 0.017587349
0000a0 66 5c f1 bd 44 98 3c 3d 5a bd a7 3c 01 f5 03 bc
       -0.11785202 0.04604365 0.020476032 -0.008054019
0000b0 3e fd 91 3d 62 9f 88 bd 02 6b a2 3d 48 7b 2a 3c
       0.0712838 -0.06671025 0.07930566 0.010405369
0000c0 80 da 1f bd a3 81 c7 bc 7a 98 a2 3d 41 db 15 3e
       -0.039026737 -0.024353808 0.07939239 0.1463442
0000d0 a3 46 9e bd 67 92 eb bc e7 92 f2 bc 52 94 e1 3d
       -0.07728317 -0.028756334 -0.029611064 0.11014618
0000e0 ed 09 54 3d 2d 96 54 3d b7 ec e4 3c ea f7 ef bd
       0.05176728 0.05190103 0.027944906 -0.11717208
0000f0 22 98 0f 3e a4 48 e3 3c 76 f5 89 bd f2 1d 99 3d
       0.14022878 0.027744599 -0.06736271 0.07476415
000100 e3 a3 9f 3c 24 7d f3 bc 25 a1 34 be 86 cd 1b 3c
       0.019487327 -0.029722758 -0.17639597 0.00950945
000110 3c 23 42 bd a5 b8 b1 bd 76 0d 4a bd 4a 75 0a be
       -0.047396883 -0.08677796 -0.049329244 -0.13521305
000120 0d 92 a9 3d 32 4a a6 bd 67 db 41 bd ad 5c 2d bd
       0.0827981 -0.081196204 -0.04732838 -0.04232471
000130 60 8e a4 bd ee 0c 41 bd da bf 3c bd 54 dc 95 3d
       -0.080349684 -0.04713147 -0.0460814 0.07317415
000140 2e 47 4e 3d 61 10 7c bd 2a 79 67 bc bd fe 00 bd
       0.05036085 -0.061539058 -0.014128009 -0.031492937
000150 72 a0 62 bd 76 6b f9 3b 8b cc 20 bc 7b a5 1d bc
       -0.055328794 0.0076116873 -0.009814392 -0.009621973
000160 33 fd 8e 3d c6 74 17 be 2e 29 88 3d 1a 49 bb 3c
       0.06981888 -0.1479064 0.066484794 0.022862006
000170 1c 7f c7 3c c0 12 c7 bb 86 7e 09 3d d8 30 2f 3e
       0.024352603 -0.006075233 0.033567928 0.17108476
000180 aa c9 38 bb e3 0d 88 3d ee 2a 35 bc 22 1a e6 bd
       -0.0028196373 0.06643274 -0.0110575985 -0.11235453
000190 ff 8f d2 3c 29 d9 9a bc 36 5c 31 bc 28 76 92 bc
       0.025703428 -0.018902378 -0.010825207 -0.017878607
0001a0 5b c8 21 bd 97 53 83 bd a9 22 b8 3c c6 7f 28 bd
       -0.039497714 -0.06412428 0.022477465 -0.04113748
0001b0 82 26 12 bb 3d 28 c5 bc 6c 00 d6 bd 7d ef 21 3d
       -0.0022300784 -0.024067039 -0.10449299 0.039535034
0001c0 65 89 a8 3d 88 2b 04 bd c1 68 13 3d a3 cf a8 3d
       0.08229331 -0.032268077 0.035988573 0.082427286
0001d0 77 98 9a 3c 68 dc da bc 3a f5 51 be dd 74 42 bd
       0.018871529 -0.026716426 -0.20503703 -0.04747473
0001e0 09 1e 3e 3d 00 88 cd bc 1c 17 19 bd 78 39 d3 3c
       0.046415363 -0.025089264 -0.037375554 0.02578424
0001f0 a9 04 45 bd 7b 9b b6 bc 60 12 45 bd 2a e0 0d bd
       -0.048100147 -0.022290936 -0.048113227 -0.034637608
000200 da 3f 59 bc 59 4b 60 bd 69 9e 25 bd b9 f4 2c bd
       -0.013259852 -0.054759357 -0.040434275 -0.042225573
000210 86 88 df 3d cc c8 12 bc ec 68 06 3d bf 60 61 bd
       0.10914712 -0.0089590065 0.032814905 -0.055023905
000220 5c b3 bc bc 6c 26 1d bd 30 bd 03 bc f7 f1 10 3d
       -0.023034744 -0.03836672 -0.008040711 0.035387006
000230 12 49 4f bd d6 45 18 3d e0 0b 74 3c 84 d5 d1 3d
       -0.050606795 0.037175976 0.014895409 0.10245803
000240 58 fc 41 bd 66 30 0d bd f4 e5 28 3d 58 cb 5d ba
       -0.047359794 -0.034469984 0.041234925 -0.00084607815
000250 1a c8 ff bd 9b 59 f0 bc 6d 59 70 3c 40 26 d3 3c
       -0.12489338 -0.029339602 0.014669758 0.025775075
000260 8a 29 f4 bc 66 3c a5 3d ec 13 80 bd 24 30 14 3d
       -0.029804964 0.08068161 -0.062538 0.036178723
000270 cd e8 ac 3d ea 2a 54 3d bd c4 f4 3c c1 b6 92 3c
       0.08442841 0.05179874 0.029878968 0.01790941
000280 d7 d4 1c 3d 08 e4 39 bd 05 fb c3 bd 70 2a 02 bd
       0.038288917 -0.045383483 -0.095693626 -0.031778753
000290 11 36 d1 3d 56 43 56 bd 2f 8a 5a bc 24 66 8b 3b
       0.102153905 -0.05231031 -0.01333861 0.0042541195
0002a0 29 b7 3a bc aa 75 7d bd f1 08 14 bc 26 4e 1d bd
       -0.011396208 -0.06187979 -0.009035335 -0.038404606
0002b0 fd 31 8b 3c e6 67 bf bc 5a d3 14 3e 66 4e 30 3d
       0.01699161 -0.023364972 0.14533749 0.043043517
0002c0 43 05 a9 bd 2f b8 76 3c cf b9 a4 3b b4 e5 67 bd
       -0.08252957 0.015058561 0.005027033 -0.056615546
0002d0 a6 d4 f6 bd d7 9b 19 bd 0d 80 c1 3c 3e 3c c2 3c
       -0.12052278 -0.037502136 0.02362063 0.023710366
0002e0 b1 ce bb bb d7 a2 4b 3b 8c bb a4 3d 4b 79 91 bb
       -0.0057314266 0.0031072402 0.08043584 -0.004439508
0002f0 fd ca 82 bd f9 45 c2 3b 6d 98 00 be 48 22 94 bd
       -0.06386373 0.0059287515 -0.12558146 -0.07233101
000300 8c dc ba 3b 11 52 b1 bd 0f 51 45 bd d2 b5 ba bd
       0.005702561 -0.08658231 -0.048173007 -0.09116711
000310 a8 0f ff 3c dd 53 ae bd 25 de f2 bc a9 77 ba bd
       0.031135395 -0.085120894 -0.029646942 -0.091048546
000320 2d b9 6b 3d f6 36 96 bd 8d 10 a1 3d 6a f2 c9 bd
       0.057549644 -0.07334702 0.07864485 -0.0986069
000330 f5 31 26 bd d1 10 2b bd be 85 75 3d 44 e1 35 3d
       -0.040574986 -0.041764084 0.059942 0.044404283
000340 5e 77 eb bd 18 bd a0 3d 3b ef 37 3d 93 35 2a 3d
       -0.11497377 0.07848567 0.044905882 0.041555
000350 ae 39 26 be ae 65 c6 3d 01 90 c6 3d 21 10 bd 3d
       -0.1623294 0.096873626 0.09695435 0.09231592
000360 46 48 1f 3e 08 3f 26 3d 75 a4 de 3d 51 9e 1d bc
       0.15554914 0.040587455 0.108712114 -0.009620265
000370 6b f1 6c 3d 72 6c 95 3d 08 f6 89 3d 5d 18 83 3d
       0.05784742 0.07296075 0.0673638 0.06401131
000380 cd 2b 4f bc 6d 6f f8 bc 57 61 a6 bc c4 f6 ed 3c
       -0.01264472 -0.03032657 -0.020310087 0.029048331
000390 15 bc e6 3a 00 8f ce 3d 8f 3d a9 3d 1f 55 df bd
       0.001760366 0.10085869 0.082636945 -0.109049074
0003a0 5a e1 b5 3c 77 89 e4 bc 44 9a 20 3d 59 20 cb bc
       0.022202183 -0.02789758 0.03920962 -0.024795698
0003b0 c8 7d d8 bd 54 a9 fd 3d 64 36 3e bd 27 73 12 be
       -0.10570866 0.123858124 -0.04643859 -0.1430174
0003c0 8e 3b cd bd 0f d9 72 3c 03 a5 3a bd e1 db 15 3d
       -0.10021125 0.014822259 -0.045567524 0.036586646
0003d0 8c 68 9e bc 9d c3 b3 bd 24 61 70 3c 61 b6 61 3c
       -0.019336961 -0.08777545 0.014671598 0.013776393
0003e0 55 b7 2f bd d6 1d 38 bd b9 71 a1 bc 5b 4e 8a bd
       -0.04289945 -0.04495033 -0.019707548 -0.06753226
0003f0 a2 da b8 3d 27 45 1f bc 18 c7 df bd a6 5f 36 bd
       0.09026076 -0.009721077 -0.10926646 -0.04452481

gc2.bias f4 [200]
000000 48 45 1d bd d0 7e fe bc b3 2e bb bc 5d 8b 0c bb
       -0.03839615 -0.031066328 -0.022849416 -0.0021445372
000010 55 a1 01 bb 4e 19 9f bb a0 01 12 bb e7 f7 32 3a
       -0.001978 -0.0048553115 -0.00222788 0.00068271015
000020 b9 d0 18 bd 60 2a 93 3d 9a 3b 2c 3d d8 55 ea 3c
       -0.03730843 0.07185817 0.042049028 0.028605387
000030 8f 63 88 ba 16 12 60 3d 4e 30 9f bc 22 6d e3 bb
       -0.0010405647 0.054704748 -0.019432213 -0.0069405
000040 23 0d 06 bd 4a 76 b6 bc 8e 25 5e bc 20 a4 f4 bc
       -0.032727372 -0.022273201 -0.013558758 -0.029863417
000050 2d 50 50 3d 16 dd 81 bc 43 4b 79 bc 7d 63 03 bd
       0.05085771 -0.015852492 -0.015215698 -0.0320773
000060 83 f2 91 bc 34 f0 83 bc f9 c7 01 bd 24 5c a8 bc
       -0.017815834 -0.016105749 -0.03168485 -0.020551749
000070 68 c8 0a bc e7 f5 29 3b 5b 0e f8 3c 18 14 bd bb
       -0.008470632 0.0025933923 0.030280283 -0.0057702176
000080 26 a7 76 bc f0 3b 38 3d 5f bb f4 bc 5c 6b a2 bc
       -0.0150545 0.044979036 -0.029874502 -0.019826584
000090 c5 97 d3 bb 33 62 95 bc 43 24 13 bd e2 11 56 bd
       -0.0064573013 -0.018235302 -0.035923254 -0.052263148
0000a0 d3 f1 fb 39 4d fb 9f bc c1 96 23 bd c5 79 a9 3b
       0.00048054624 -0.01952901 -0.039938692 0.0051719868
0000b0 ab a0 17 bd a4 72 3b bd 82 29 36 bb ed fb 5e bc
       -0.03701846 -0.045763627 -0.0027795737 -0.0136098685
0000c0 fa 41 c3 bb 23 e7 44 bc 5e a7 b2 3d 09 34 db bc
       -0.0059587928 -0.012017998 0.08723329 -0.02675821
0000d0 0c 1c a7 bc 0d 11 8f 3b b5 74 6a bc 89 77 e3 bc
       -0.020399116 0.0043660463 -0.014310052 -0.02776696
0000e0 c9 1c b2 bc 26 4d a8 3c ca e7 b4 bb 60 7e 3b bd
       -0.021742241 0.0205446 -0.0055207955 -0.045774817
0000f0 37 e7 a2 bc 71 0a ae bc 2e d0 ce bb a7 ca 5e bc
       -0.019885642 -0.021245213 -0.006311438 -0.013598121
000100 f3 b9 6a 3d a5 24 73 bc 37 5e a3 3b 1b 0c cb bb
       0.05730624 -0.01484028 0.0049855965 -0.0061965114
000110 bc 7f 09 bd 5b 71 0e bb 8b 9a bd bc f1 b6 b5 3c
       -0.033569083 -0.0021735046 -0.02314498 0.02218196
000120 de 48 bd 3c 7e 71 a0 bc 8b 08 29 bc e4 02 a4 bc
       0.023106035 -0.019585367 -0.010316978 -0.02002091
000130 cf 5c 0b 3d 74 f9 ad bb 21 38 0d bc b3 9e b1 bc
       0.034024056 -0.005309278 -0.008619339 -0.021682119
000140 35 49 46 3c 61 ab 6f bc 0e e4 f3 bc 3e ee 90 3b
       0.012102415 -0.014628262 -0.02977183 0.004422932
000150 cd d3 8f bb d4 1b 94 ba ba f4 96 3b 9f b6 2d bc
       -0.0043892623 -0.0011299797 0.0046068104 -0.010602622
000160 3a c4 8d bc 0e b3 84 bc f8 d4 a8 bc c9 07 eb bc
       -0.017305482 -0.016198661 -0.020609364 -0.028690236
000170 8f 37 73 3b 88 a2 d4 bc 65 43 e9 bc d0 8a 33 bc
       0.0037111973 -0.025956407 -0.028474519 -0.010958388
000180 ff 4f 9f bc 56 ce 2d bc 24 d4 89 bc 48 cb 95 bc
       -0.019447325 -0.010608276 -0.01682479 -0.018285409
000190 14 f6 25 bc 14 8d 1d bc 3d 25 2b bd 3e 62 4a bd
       -0.01012947 -0.009616155 -0.04178356 -0.049410097
0001a0 6e 97 21 bd c0 eb a0 bd 21 9b e8 bc ec 0e 68 bc
       -0.039451055 -0.07857466 -0.028394284 -0.014163714
0001b0 6d c7 09 bd 62 6c 0c bd 87 51 13 3a 7d 30 83 bc
       -0.033637453 -0.03428305 0.00056197535 -0.016014332
0001c0 dd 4e bd bc 55 90 bd bc 9e 1d c7 bc ba d9 1f bd
       -0.023108894 -0.023140112 -0.024306115 -0.039026
0001d0 89 95 24 bb 26 cc 6f 3b fb f6 6d 3c 2a 9b d2 bb
       -0.0025113544 0.0036590188 0.014524217 -0.0064271884
0001e0 21 4c 28 3b ad c4 31 ba 86 77 46 bc df 65 ca bc
       0.0025680142 -0.0006781321 -0.012113458 -0.024706779
0001f0 00 46 cf bb a7 02 9f bc af 36 cb bc dc 0c 14 bd
       -0.0063254833 -0.019410444 -0.024806349 -0.036145076
000200 e3 37 cd bc 69 3b f9 bb ea 1a 0b bc 0c 1b 69 bd
       -0.025051063 -0.007605959 -0.0084903035 -0.05691056
000210 9a 4d 2b bd cd e3 8e bd 3d cc a6 bc eb 51 2d bc
       -0.041822053 -0.06977043 -0.02036106 -0.010578613
000220 fa 30 37 bc 9e 9c a1 3b 99 95 d0 bc df bc 2e bd
       -0.0111811105 0.0049320003 -0.025461959 -0.04266059
000230 27 d7 49 bc 95 4f 51 3b 45 d8 31 3b fd 4b 2a 3d
       -0.012319363 0.0031938304 0.0027136963 0.041576374
000240 d9 46 aa bc 76 a5 00 bd 8f a0 12 bb bc c6 90 3d
       -0.020785736 -0.031407796 -0.0022373532 0.070691556
000250 cb 4d f7 bc 9e 2c b0 3c ad d6 eb bc 5f c4 16 bd
       -0.030188462 0.02150565 -0.028788889 -0.036808368
000260 0a 55 a3 3a 4e d3 ac bc d0 a2 28 bd 91 9f 54 bc
       0.0012461257 -0.021096852 -0.041170895 -0.012977497
000270 bd 3a 2f 39 8b 01 14 3c fd c4 65 bd f0 90 6a bc
       0.00016711182 0.009033571 -0.056096066 -0.014316782
000280 bf 6c fd bb 10 ce 2d bd 21 72 76 3c 73 20 47 bc
       -0.007733911 -0.042432845 0.015041859 -0.012153733
000290 5a 8d ca bb 4a 1c f8 bc cc 6d 8e bc 7d 05 97 bc
       -0.006181401 -0.030286927 -0.01738634 -0.018435234
0002a0 26 33 2b 3b f3 bd f2 bc 68 18 f5 bc c4 b8 b9 3b
       0.0026123016 -0.02963159 -0.029918864 0.0056677777
0002b0 bc 21 1c 3c e8 ed ff b8 73 bb 41 bd 18 3f 2e bd
       0.009529527 -0.00012203661 -0.047297906 -0.04254064
0002c0 b6 71 45 3c 8c df 23 bc 18 c2 3d bc a9 18 cc bc
       0.012051037 -0.010002028 -0.01158192 -0.024914103
0002d0 2b 8b 83 bb c3 60 6b bc ee 2b 3e bc 4c 18 ef bb
       -0.004014393 -0.0143663315 -0.011607153 -0.0072965976
0002e0 78 9f 3f bb 41 ba 9c 3c 34 8d bd bc 48 23 01 3b
       -0.0029239338 0.019131782 -0.02313862 0.0019704867
0002f0 f4 14 27 bc 69 73 fe bc 8d 7f 4c bc fb 62 ba bc
       -0.010197867 -0.031060891 -0.012481582 -0.022752276
000300 9c 44 32 3d 1f 6e 63 ba 37 19 8e bb 14 34 d2 bc
       0.043522462 -0.0008675772 -0.004336502 -0.025659598
000310 be c6 39 bd a1 a3 7a bc 34 46 bb bc a2 27 87 bb
       -0.04535555 -0.015297801 -0.022860624 -0.0041245976

gc3.weight f4 [200, 100]
000000 78 4f 23 bc 14 a4 80 3d c7 fd 56 3d f0 2c 24 bd
       -0.009967677 0.062812954 0.052488115 -0.04008192
000010 29 43 f6 bd df 21 51 3d be c3 92 3d 03 60 af 3c
       -0.120245285 0.051057693 0.07166241 0.021408087
000020 31 26 2c 3d 05 c4 2f 3d 6e 05 97 3d b7 43 b4 bd
       0.04202861 0.04291155 0.073740825 -0.08801978
000030 83 68 bd 3c 21 e2 b7 3c 0a 8d f8 3d ab b8 06 3d
       0.023121124 0.022446694 0.12136276 0.032890957
000040 1a 16 61 3d 12 a1 44 bd 9c 86 1c 3e 78 3e 5d bd
       0.05495272 -0.04800517 0.15285724 -0.054014653
000050 93 a9 fb 3d e3 45 fc bd 13 34 a1 3a 01 c5 33 bc
       0.12288203 -0.12318017 0.0012298845 -0.010972262
000060 f5 bf 4f be 0e 71 8b bd 2d d9 6f 3d b0 f3 7b 3d
       -0.2028807 -0.06808673 0.058556724 0.061511695
000070 fe 97 de bc 2e 10 32 3e 3e 3f 28 bd eb 43 ad bc
       -0.027172085 0.17388985 -0.041075937 -0.02115055
000080 98 99 41 3e cc 0e 8e 3d b6 91 cd bc e6 09 b0 3d
       0.18906248 0.06936416 -0.025093894 0.08595638
000090 ae 26 07 3e e7 8e 91 3d bf 09 37 3e b0 93 8f 3d
       0.13198349 0.071073346 0.17874812 0.07010591
0000a0 df a2 ec 3c 58 b8 1a 3e 47 8c 3a bd 3c b7 be 3a
       0.028886257 0.15109384 -0.045543935 0.0014550458
0000b0 f5 4d 4a 3e bd 86 68 bd 8f c8 0e 3e b0 5d 66 3e
       0.19756301 -0.05676912 0.13943695 0.22496676
0000c0 4c fc d8 bd 70 28 4b 3e 23 c4 95 bd ac 7e 21 3e
       -0.10594997 0.19839644 -0.07312801 0.15770978
0000d0 f7 10 c5 bc d8 77 9d 3c f7 51 3f 3e 59 5a 19 be
       -0.024055941 0.019222185 0.18683611 -0.14975871
0000e0 d9 da 9d bc 35 76 18 3d 6d f6 83 bd c4 01 2a ba
       -0.019269394 0.037222106 -0.06443486 -0.00064852485
0000f0 a1 21 25 bd e5 3e b0 3d 63 e5 90 bc 92 70 1c 3e
       -0.040315274 0.08605746 -0.017687505 0.15277317
000100 15 54 de 3d 50 df 2b bd 9c c4 63 3d c1 07 ca 3d
       0.10855881 -0.041961014 0.055607423 0.0986476
000110 d5 d2 e8 bc 78 57 23 3d 83 78 d8 bd 70 7c a2 3b
       -0.028420845 0.03987834 -0.10569861 0.0049586818
000120 bb 06 64 be 78 aa 13 3e 7f 15 41 3c 28 da e6 3d
       -0.22268192 0.14420497 0.01178491 0.11272079
000130 de e5 fa 3d e2 3d 1a 3e 79 f5 d9 3d 37 33 1f 3e
       0.12250875 0.15062669 0.10642523 0.1554688
000140 03 8a c3 3d 47 6e 76 3d 3d 13 97 3c 1f 9e 89 3d
       0.09547808 0.060163762 0.01844179 0.06719612
000150 b5 5c 88 3d d7 b6 9f 3c b5 66 a5 3e 9b 15 6b 3a
       0.066583075 0.019496365 0.32304922 0.0008967758
000160 e4 60 8e bc 9c 27 99 bb 6c 16 c7 3c 56 4a da 3d
       -0.017380185 -0.0046739113 0.024302684 0.1065871
000170 15 74 41 3d 3a b2 0a 3e 8d 50 77 3e 3d 6f 2a 3d
       0.047229845 0.1354455 0.24151821 0.04160999
000180 7c a5 6b 3d e5 e3 3d 3d ee ba 1c 3e e5 d9 d1 3d
       0.057530865 0.046359915 0.15305683 0.10246638
000190 79 7e 99 bc 1b 76 0c 3e 02 64 3e bd b0 2a b5 3d
       -0.018737065 0.13716929 -0.046482094 0.088460326
0001a0 b3 31 1f bd fa cf af ba 38 56 15 bd d3 08 d7 bb
       -0.038865756 -0.0013413422 -0.036459178 -0.006562331
0001b0 8a 16 4f 3d 54 84 37 3d 0a a8 61 bd 29 39 cc bd
       0.050558604 0.044803932 -0.055091895 -0.0997184
0001c0 c0 60 2e be bb 7f 43 bd e6 a8 26 3e 12 c7 c7 bd
       -0.17029095 -0.047729235 0.16275367 -0.097547665
0001d0 04 a4 b5 bb 4c 76 38 3d 05 52 2b 3e 75 34 4f 3d
       -0.005543234 0.04503469 0.16730507 0.050587136
0001e0 83 3e ca 3d 64 bf cb bd 63 6d 3c bd 49 37 b0 bd
       0.098752044 -0.09948614 -0.046002757 -0.08604295
0001f0 b6 f8 ab bb 94 a4 37 be f2 5e 01 bd 9b 95 d3 3d
       -0.0052481545 -0.17933875 -0.031584688 0.10331269
000200 f3 f4 04 3d 47 14 96 bd 80 f0 74 3c 00 1b d6 3d
       0.032460164 -0.07328086 0.014949918 0.104543686
000210 6d 5b 88 bd 12 32 2c be 10 e6 26 be 82 cb 26 bd
       -0.06658063 -0.16815975 -0.162987 -0.040721424
000220 ce 64 e2 bc 95 e0 b7 3d cc 31 10 3d c2 93 8e bd
       -0.027635958 0.089783825 0.03520374 -0.06961776
000230 b2 2f 51 bd e9 68 27 3e ae fa da 3d f0 14 3c be
       -0.051070876 0.16348614 0.106923446 -0.18367362
000240 31 02 15 3e fa 41 9b 3d c4 14 dd bc b2 34 97 bc
       0.14551617 0.075809434 -0.02698744 -0.018457744
000250 e4 3b 3d bd e8 51 52 3c 0e ff 39 3e c0 95 48 bd
       -0.046199694 0.012836911 0.18163702 -0.048970938
000260 34 34 4e bd 05 6a 31 3e bb 14 e8 3b e0 6f 83 bc
       -0.050342754 0.173256 0.0070825494 -0.016044557
000270 82 03 0b 3e a5 11 29 bd 45 4c e9 3d 79 6e fe 3d
       0.13575557 -0.041276593 0.113915004 0.12423415
000280 bc 7f cf 39 c5 5b 06 bd e9 28 8d 3d 17 3a 63 bd
       0.00039577286 -0.032802362 0.068925686 -0.05547532
000290 54 b6 c0 bd ae 52 8d bd 10 c7 88 bc 37 f6 c6 ba
       -0.09409776 -0.069005355 -0.016696483 -0.0015179579
0002a0 7f 0b da bd 99 7f b2 bb 46 11 66 3d 63 c7 45 3e
       -0.10646724 -0.0054473397 0.056168817 0.19314341
0002b0 20 bc ae 3d d4 d0 d8 bd e1 64 e0 bb 85 60 03 3c
       0.08531976 -0.10586706 -0.006847963 0.0080186175
0002c0 5a 1c b5 3d eb aa ab bc a9 dd 71 bd f3 0c f5 3d
       0.08843298 -0.020955523 -0.059049282 0.119653605
0002d0 b3 6a 36 3e 3f 3a d3 3d 8b 29 90 bc 54 4e f2 bc
       0.1781414 0.10313844 -0.017597934 -0.029578365
0002e0 70 3c 06 3d 3e 7a 3e 3c df 6d 02 3e d8 f9 2d 3c
       0.03277248 0.0116258245 0.12737225 0.010618649
0002f0 a2 0c 4c bd 83 2a d2 bd b4 b7 51 3a 51 5e 1f bd
       -0.049816735 -0.10262015 0.0008000091 -0.038908307
000300 7c 14 c8 3b 22 58 a9 bd 0f be 84 3b 87 7d bb 3c
       0.0061059576 -0.08268763 0.004050977 0.022887005
000310 7c c0 ca bd f4 93 91 3c 5d c4 86 3c bf d6 b4 3d
       -0.09899995 0.017770745 0.016451055 0.08830022
000320 48 14 fc 3d 87 9a 16 3d 2b a5 b1 bc b4 9d 51 be
       0.12308556 0.036768463 -0.021685204 -0.20470315
000330 83 f7 24 be cb 4b b5 3d 80 09 05 3e ac 80 b6 bd
       -0.16110043 0.08852347 0.12991905 -0.08911261
000340 98 d7 b1 bd f9 a2 f5 bd d2 69 72 3d 22 e3 c8 3d
       -0.08683699 -0.11993975 0.05918295 0.09808947
000350 d8 d5 0b 3d 0e e0 87 3d f7 b1 0d bd c1 a3 cd 3d
       0.034139484 0.06634532 -0.03459355 0.10040999
000360 31 bb 9b bd 43 44 44 bd c7 dd b6 bd c1 7b 11 bd
       -0.07604063 -0.047916662 -0.089290194 -0.03551841
000370 cf 42 10 bb 9d 8d f3 3b e2 c5 29 bd 88 34 73 bd
       -0.0022012477 0.007432653 -0.04144848 -0.05937627
000380 6c 82 f0 bd 28 72 84 bc 61 48 95 3e e3 d4 d4 3c
       -0.11743626 -0.016167715 0.29156783 0.025980419
000390 07 7e c7 3c 87 19 90 bc ed 37 ab 3d e9 98 16 3c
       0.024352087 -0.017590297 0.08360276 0.00919173
0003a0 d6 ee 84 3c 7b 4b 12 3e 91 8f 00 bd fc 54 13 bd
       0.016227167 0.14286606 -0.031386916 -0.03596972
0003b0 c4 d5 82 bd 48 9f 07 3e a1 12 b0 3b 40 d4 66 bd
       -0.06388429 0.13244355 0.0053733145 -0.05635476
0003c0 0a df c3 3d 27 82 79 3a 69 05 64 3d 82 f5 56 3c
       0.09564026 0.00095179904 0.055669222 0.013120057
0003d0 a7 70 5c be c3 fc 0d bd 0c 4b 2c 3e dc e4 06 be
       -0.21527348 -0.03466488 0.16825503 -0.1317324
0003e0 b1 7c c1 3c f3 8d 4c be 62 f8 0b bd 4d 1e c4 bc
       0.023619028 -0.19976024 -0.034172423 -0.02394023
0003f0 ec 51 73 bc 31 96 3a be 2d f5 b4 bd 01 16 cf 3b
       -0.014851075 -0.18221356 -0.08835826 0.0063197617

gc3.bias f4 [100]
000000 dc 57 f8 bc ef 11 27 bd 74 9d d3 bc 01 43 d6 bc
       -0.030315332 -0.040788587 -0.025831915 -0.026154997
000010 34 e6 1b bd 1f 21 ca 3a 78 bd 8c bc 48 83 04 bd
       -0.038061336 0.0015421248 -0.01718019 -0.032351762
000020 56 c6 0f bc 13 a5 0f bd e5 b6 1b bd d3 80 53 bd
       -0.008775314 -0.035069536 -0.03801622 -0.05163653
000030 92 9b f3 bc 58 b7 81 bc ad b4 bd bc cc 86 17 bd
       -0.029737268 -0.015834495 -0.023157442 -0.036993787
000040 a3 22 9d bc 6c df ce ba 0e 40 d8 bc 4e 72 d6 bc
       -0.019181555 -0.0015783138 -0.026397731 -0.026177552
000050 78 a7 31 bd e0 bb 6f bd 35 f0 00 bd cb 7f d4 bc
       -0.0433726 -0.05852878 -0.03147908 -0.025939843
000060 d9 e5 07 bd 57 ce dd bc f7 e1 d8 bc 1f 5a 84 bc
       -0.033178184 -0.02707593 -0.026474936 -0.016156254
000070 79 2b 24 bd 31 de f3 bc 36 6e 71 bc 4a a6 06 bd
       -0.04008052 -0.029769035 -0.014735749 -0.03287343
000080 89 d0 f6 bc 50 0b 7b bd 53 15 8b bc 13 81 9d bc
       -0.030128734 -0.061290085 -0.016977942 -0.019226586
000090 42 b1 83 bb a6 26 17 bd a2 5b d7 bc 3b 12 a6 bc
       -0.0040189335 -0.036902092 -0.026288811 -0.020272365
0000a0 6b fe 50 bd a1 c1 81 bc cc 7d 5c bc 58 38 92 bc
       -0.051023882 -0.0158394 -0.013457727 -0.017849132
0000b0 16 89 cc bb 6f 77 03 3d cc de 0a bd d0 db 27 bd
       -0.006241928 0.032096323 -0.033903882 -0.040981114
0000c0 f4 e6 e0 bc 72 2e 99 bc 4b 88 f5 bc 6c d7 bc 3c
       -0.027453877 -0.018698905 -0.029972216 0.02305194
0000d0 13 94 07 bd 6e e6 86 bc d3 68 f6 bc 86 cc 35 bc
       -0.0331002 -0.0164673 -0.030079281 -0.0110961255
0000e0 dc ab 0d bd 4c 1e e4 bc 90 3b 01 bd 42 b6 0b bd
       -0.034587726 -0.027846478 -0.031550944 -0.03410936
0000f0 0b 33 d4 bc 4e aa 1f bd 4a 9d 20 bd 47 2e 07 bc
       -0.025903245 -0.038980775 -0.039212503 -0.0082507795
000100 db 68 e4 bc c2 d4 c9 3c 2c 05 49 bd 73 bc 2e bd
       -0.02788203 0.024637584 -0.049077198 -0.042660188
000110 ee 5d 03 bd 61 6c 37 3a 7f ff 03 bd cf 4a 1b bd
       -0.032072 0.0006997046 -0.032226082 -0.03791314
000120 e1 c0 8d 3a fb fd 1d bd 5c 76 97 bc 02 0e ae bc
       0.0010814929 -0.038572293 -0.018489055 -0.021246914
000130 e5 b8 25 bc 41 6e 2a bd 18 eb a6 bc 1f 22 21 bd
       -0.010114883 -0.041609053 -0.020375773 -0.03933918
000140 b0 0e 9a bc 7b 3e 2e 3d 73 5d c2 bc 03 75 84 bc
       -0.018805832 0.042540055 -0.0237262 -0.016169077
000150 f5 a1 72 bd 89 53 05 bd 14 b7 fb bc 5d 00 14 bc
       -0.059236486 -0.03255037 -0.030726947 -0.00903329
000160 ec 6c 25 bd 1e 86 0f bd c7 01 b4 bc 22 7b f7 bc
       -0.04038708 -0.035040013 -0.021973504 -0.030210081
000170 86 f4 68 3c fd 1a 38 bb f9 aa 96 bc b6 45 5c bd
       0.014218455 -0.0028092258 -0.018392073 -0.05377742
000180 e2 c4 56 bd d0 9b 7d bc 82 c1 08 bd ec 6f 02 bd
       -0.052433856 -0.015479043 -0.03338767 -0.03184502
