ROSMAP/models/2/C1.pth (torch, 1911 bytes, 2 tensors)

clf.0.weight f4 [2, 100]
00000000: 3706 a2be ef06 fd3d 2f1c a33e 3855 773e
00000010: 9569 f9bd 611c d0bd ed35 9d3d 7be8 a63e
00000020: d554 453d 34f0 1d3a 17fb 82be 699b 0f3e
00000030: 45f6 a33e e574 293e fdb4 adbe 7113 b13e
00000040: a5fb b3be d662 383e 6f7f 9b3d 701c 953e
00000050: 9aa6 83bd 9ebb 42be ec45 843e cd4e 90bc
00000060: 7224 9d3e 2fd8 b73e 9017 ae3e bf54 833e
00000070: 1dd2 9ebe f8a7 58be bb57 353e 2e23 613e
00000080: 0f49 84be 447e 3b3e f1cd 06bf 76d3 9cbd
00000090: 1229 d63c c6b7 af3e ef80 a23e cf84 7bbd
000000a0: 959c d23e 7355 873d 2e75 8f3e 08c9 6ebc
000000b0: 132b 943c dee2 003e 2f2a 63be 42fd 6c3d
000000c0: a95a 2c3e 1b29 853d 88f5 773e d34d f43d
000000d0: 6141 0c3e 69b5 7fbe efd6 81be a21b 5e3d
000000e0: 2cf7 33be f84a 5d3e 43d5 9ebe 973e 003e
000000f0: fd98 8cbe 7868 4abe 6472 5a3e eff3 4c3e
00000100: 75d0 a0be 621f 8c3e df0e 6ebd 088a 86be
00000110: 3b44 4f3e 633a 26be 4fa2 88be 0ad1 a9be
00000120: 6a1e 82be 250f 1abe ff8e 883e 40aa 813e
00000130: c092 123e 0103 cc3c b9ae 6bbe a211 c2bd
00000140: 73c4 743d df6e 2f3e 4d1a 7dbe fd2b b03d
00000150: c5c9 043e cc53 263e 55cc c5bd b237 393e
00000160: 8c16 3f3e 1fa1 d13c 8b41 a33d c125 4a3e
00000170: 32c9 3fbe a52f 09be f262 c0bd 96ce bc3e
00000180: fcda 393e 7bf6 36be 1a8c 323e c15c 4dbe
00000190: cc9a 8d3e b356 50be f9c6 4cbe 572b a2bd
000001a0: a38d 013e dc33 ac3e 7813 2ebd b498 c6be
000001b0: e9ee a4be 5c8e 2f3e d075 b33d 97a5 b2bc
000001c0: d511 81be 61ac 40be dbd0 b53d ad47 37be
000001d0: 4549 973e cd90 67be 4e94 ed3e 8c08 c8bd
000001e0: dc45 923c ed52 923e d3ae 293c 6db1 50be
000001f0: 9f87 56bd 4b1a d4bd 65f8 8dbe c57c 943d
00000200: 24fd 373d cd13 493e b2bc 0cbe 72df 65bc
00000210: 1e98 833d c0e4 92be 731f dc3d f233 753e
00000220: e5ce e5be 8005 b1be 6f33 b5be d708 8e3e
00000230: 8c52 91be 7c19 83be 59b8 f0bd e6fb 753e
00000240: 9ef5 eabe 1de1 9abe 1eb1 023e c19a d5bd
00000250: 8998 09be 438a 35be bafe adbd 2dec 0ebe
00000260: 0d0a 08be 6e79 13bc 7778 b33c 2ca6 873e
00000270: 7adc e83d 2b27 08bf 1c92 e43c d8c1 8cbc
00000280: 37da 963d a43f e33d bde0 e4bd ebec 483d
00000290: 5493 383e 226c 74bc 81d4 803e e94c 4a3d
000002a0: 6d9a 4cbe b195 883e f3a6 893e 349a 873b
000002b0: 0dd7 df3d 5470 f53e 1bb2 debe ff1a 3bbe
000002c0: df95 34be 0802 7bbe 3f32 943d 8dad 553e
000002d0: 9471 70be c05a 6fbe d4a5 c53d 3468 1dbe
000002e0: 609e 6bbe 0e39 06be 624d 893e b22a 4ebe
000002f0: f72d 88be e87a 5a3e e2e2 99be ca3a 76be
00000300: 3a85 753e c8ad 8d3e 5090 3d3e 92b7 91bd
00000310: 640e 76be c857 703e 7151 c4be 0b74 a23d
-0.31645367 0.12354838 0.3185744 0.24153602 -0.12178341 -0.10161663 0.07676301 0.32599244
0.048176605 0.0006024868 -0.2558219 0.14024128 0.32023826 0.16548498 -0.33927146 0.34585145
-0.35152927 0.18006453 0.075926654 0.2912326 -0.06428261 -0.19016883 0.25834596 -0.0176157
0.30691868 0.35907122 0.34002352 0.25650594 -0.3101968 -0.21157825 0.17709248 0.21986076
-0.2583699 0.18309885 -0.5265799 -0.076575205 0.02614263 0.34319896 0.31738994 -0.061405953
0.41135088 0.06608095 0.28019089 -0.014574297 0.018086946 0.12586543 -0.2218406 0.057858713
0.16831459 0.06501981 0.24214756 0.11928906 0.13696815 -0.24971546 -0.25359294 0.05422557
-0.17574757 0.2161063 -0.3102208 0.12523876 -0.2746047 -0.19766414 0.21332699 0.20014928
-0.3140904 0.27367693 -0.05811965 -0.26277184 0.20240872 -0.1623321 -0.26686332 -0.33167297
-0.2541383 -0.1504484 0.26671597 0.25325203 0.14313793 0.024903776 -0.2301587 -0.094760194
0.05975766 0.17132138 -0.24717064 0.0860214 0.12967594 0.16242903 -0.09658114 0.18087652
0.18660945 0.025589524 0.07971486 0.19740964 -0.18729094 -0.13397081 -0.09393872 0.36876363
0.18149942 -0.17867462 0.17436257 -0.20054914 0.27657163 -0.20345573 -0.19997777 -0.07918423
0.12651686 0.33633316 -0.042499036 -0.38788378 -0.32213524 0.1714415 0.08762705 -0.021807475
-0.25208917 -0.18815757 0.08877727 -0.17898436 0.29548088 -0.22613831 0.4640221 -0.09767255
0.017855577 0.28578892 0.010356623 -0.20380183 -0.052375432 -0.103565775 -0.27728572 0.072503604
0.044919148 0.1963646 -0.13743857 -0.014030324 0.064254984 -0.28690147 0.10748186 0.23945597
-0.4488441 -0.3457451 -0.35390803 0.2774112 -0.2838329 -0.2560538 -0.117539115 0.24021873
-0.45890516 -0.30249873 0.12762877 -0.104299076 -0.13437094 -0.17728524 -0.08495851 -0.13957281
-0.13285084 -0.009001119 0.021908028 0.26493967 0.113701776 -0.53184766 0.027901702 -0.017182276
0.0736584 0.11096123 -0.11175678 0.049054068 0.18024951 -0.014918359 0.25162128 0.049389753
-0.19980784 0.26676705 0.26885185 0.0041382555 0.109296896 0.47937262 -0.4349526 -0.18272017
-0.17635296 -0.24512494 0.07236146 0.20866986 -0.23480827 -0.23374462 0.0965077 -0.15371782
-0.23009634 -0.13107702 0.2681685 -0.20133474 -0.26597568 0.21335948 -0.3005591 -0.24045864
0.23976603 0.27671647 0.18512082 -0.071150914 -0.24028927 0.23470986 -0.38343385 0.0793229

clf.0.bias f4 [2]
00000000: 6cba abbc ecbb ab3c
-0.020962916 0.020963632
