ROSMAP/models/2/E3.pth (torch, 404225 bytes, 6 tensors)

gc1.weight f4 [200, 200]
000000 27 0e 01 be a3 0c 86 3d da ad 26 3d 3b 64 3f 3d
       -0.12603055 0.06545379 0.04069314 0.046726447
000010 fd 2e 67 bc 29 93 a5 bd 6b 6f 4a 3d 6e 2c f1 3c
       -0.014110324 -0.08084709 0.049422663 0.029440131
000020 b4 bb aa 3c d3 d4 a4 3d ae 78 0a 3c e8 bf 80 bd
       0.020841457 0.080484055 0.008451624 -0.06286603
000030 fe e6 d8 3c 50 78 68 bd f0 be e4 3b 19 1b b0 bc
       0.026477333 -0.056755364 0.0069807693 -0.021497296
000040 62 d8 65 bd 9f 7b d7 3a 6a 38 28 be 82 a6 86 bd
       -0.05611456 0.001644004 -0.1642777 -0.065747276
000050 8b 65 57 bc 49 7e 9c 3d f4 4f ac bd c8 0a 0e 3b
       -0.013146768 0.076412745 -0.08413687 0.0021673907
000060 6e 82 f9 3c 6a 56 1b 3c 79 a5 6f bd e2 5e d0 3c
       0.030457702 0.009481052 -0.058507416 0.025435869
000070 a0 42 94 bd 1c 3c 3b 3d 81 11 15 3d 25 b1 b9 3c
       -0.0723927 0.04571162 0.036393646 0.022667477
000080 58 5e f6 3d f7 f4 07 3d 44 ea bb bd 19 0b a4 3d
       0.120297134 0.0331926 -0.09175542 0.08009929
000090 89 5f 94 bd 0a ec d5 3c 26 75 f1 3d 65 60 de 3d
       -0.072447844 0.026113529 0.117899224 0.108582295
0000a0 a8 13 45 3d 56 b8 47 bd 3e 41 77 3b 4c 4a 38 3e
       0.04811445 -0.04875978 0.0037728096 0.17997092
0000b0 5c b4 99 3c ee 76 3b bd 9f 9b 56 3a 99 10 4c bd
       0.01876276 -0.045767717 0.00081866415 -0.049820516
0000c0 14 8a cb 3d 2b 49 ac bd dd cc 45 3d da 09 a7 bd
       0.09938446 -0.08412393 0.048291076 -0.08156176
0000d0 3c b8 88 3d a1 97 3c 3d da f6 ba 3d fb fa ae 3d
       0.06675765 0.046043042 0.091291144 0.085439645
0000e0 08 e7 0e 3d 05 2f 64 3d fd fa b0 bc a3 b1 b8 3b
       0.034888297 0.055708904 -0.021604056 0.0056364103
0000f0 e3 ba d4 bb 2a 59 04 3d 37 c6 48 3e a8 8a ff 3d
       -0.006492005 0.032311596 0.19606863 0.124776185
000100 04 54 4b 3d 27 0a eb 3d cb 1f 50 bd 4e b9 e3 3d
       0.04964067 0.11476546 -0.05081157 0.111193284
000110 95 58 2b 3c 59 2b 76 3d aa 79 52 3e f1 d3 9d 3d
       0.010458131 0.060099933 0.20554224 0.0770644
000120 ea cd 86 3d 5d 47 02 bd 26 b5 05 3e 69 00 f1 3d
       0.06582244 -0.03180634 0.13057384 0.11767656
000130 00 b6 2b be b6 f6 98 3d ad 45 b7 bc 2e 24 c7 3c
       -0.16768646 0.074689314 -0.022372091 0.024309244
000140 95 09 03 bd f4 f1 13 bd b4 2e be bd 26 9b 2f 3d
       -0.03199156 -0.036119416 -0.09286252 0.04287257
000150 21 c9 24 3d 4c ab 2a be df 4c 55 bd aa ef b3 bc
       0.040230874 -0.16666907 -0.052075263 -0.021964867
000160 7e 0c 52 3e 08 92 54 bc fd b0 09 be ec 54 80 3d
       0.20512578 -0.01297427 -0.13446422 0.062661976
000170 3b af 12 3d a6 1b 09 3e 56 76 57 bc cb 85 88 bc
       0.035811644 0.13389453 -0.013150772 -0.01666536
000180 36 f4 15 be 8c 50 13 3e 0d 4e 55 3d ff 9b c9 bb
       -0.1464394 0.14386195 0.05207639 -0.0061526294
000190 65 3c c0 3c 2f eb 23 bc 25 b6 5f 3b eb 7f 9e 3d
       0.023466298 -0.010004803 0.0034135666 0.07739242
0001a0 b6 1b 68 bc c8 91 b2 bd 5f 5f a8 bd 21 72 1c bd
       -0.014166763 -0.08719212 -0.082213156 -0.03819478
0001b0 33 ad 61 bd d3 70 1b 3d 32 0d 8d 3d ac e5 18 be
       -0.055096816 0.037949394 0.068872824 -0.14931363
0001c0 2c 09 a5 bb 97 b7 84 bc 39 4c 90 3d 74 ea 4b bd
       -0.0050364938 -0.016200824 0.07045788 -0.04978414
0001d0 63 15 0a 3d f9 a8 87 bd 53 f1 9e bd f3 f3 90 bc
       0.033711802 -0.06624026 -0.07760873 -0.017694449
0001e0 86 df 45 3c 52 5f dc bc 0d 54 d2 bd c1 f5 a4 3d
       0.012077218 -0.026900921 -0.10269938 0.08054686
0001f0 11 4d 84 bd 64 18 97 3d 7c 72 e7 3d 70 57 0a 3e
       -0.06460012 0.07377699 0.11301133 0.13509917
000200 0d 46 96 bd f7 15 48 be a3 04 74 3d fb 7d 5e bd
       -0.0733758 -0.19539629 0.059574734 -0.054319363
000210 66 64 80 bd 94 39 bd 3d 41 59 d0 3d 3e 5d 66 3b
       -0.062691495 0.09239498 0.10173274 0.0035150792
000220 9c 1f ce bb b3 cc 4f 3d a1 a1 90 bd a2 fc 5c 3d
       -0.006290389 0.050732326 -0.07062078 0.053951867
000230 e2 f0 5a bd e2 ad d8 3d 17 71 1f 3c 72 c4 f7 3c
       -0.05345238 0.105800405 0.009731553 0.03024504
000240 29 2d 52 3d 1d 21 92 3d 7e 75 91 bd 87 7b 95 3d
       0.0513126 0.07135222 -0.07102488 0.072989516
000250 96 e8 4b 3a 71 c9 1e bd 91 1f 1c 3e c2 63 07 be
       0.00077784935 -0.03876633 0.15246417 -0.13221648
000260 e0 96 be bd 55 84 a7 bd f0 f6 79 bd b4 1e 14 bb
       -0.09306121 -0.08179537 -0.061026514 -0.0022601308
000270 c1 38 52 3c 08 04 8c 3d 21 97 87 3c 72 ac 18 bc
       0.012830914 0.068367064 0.016551556 -0.009318458
000280 86 65 cf bc 63 a7 3d 3c 16 2b 39 bd d0 e9 d6 bd
       -0.025316965 0.011575553 -0.045207106 -0.10493815
000290 30 29 19 be 4b 2a dc bd be 45 17 bd 11 ba ea 3d
       -0.14957118 -0.10750254 -0.036931746 0.114612706
0002a0 6d 3d 64 3d 2c 18 1b 3d e6 69 05 3a bc b8 b2 bd
       0.055722643 0.03786485 0.00050893275 -0.087266415
0002b0 5d 85 7d 3d 2a d4 b3 bd 87 38 84 3d 94 74 52 3d
       0.061894763 -0.087807015 0.06456094 0.05138071
0002c0 93 4c 69 be f3 58 f6 3d 27 95 88 3d 2b 2d 9c bc
       -0.22783117 0.120286845 0.066690736 -0.019064507
0002d0 79 c4 66 3c b0 1c 08 3d cf fa d0 3c 7b dc 41 3c
       0.014084929 0.033230484 0.02551022 0.011832352
0002e0 0e f2 c8 3d 0c f1 87 3d 96 f0 fe 3d 54 ca 16 bd
       0.09811793 0.06637773 0.12448232 -0.03681405
0002f0 8f 4f 17 3e 7e 02 4b bd bf b9 9b bb b3 e2 36 3d
       0.14776443 -0.049562924 -0.0047523673 0.04464979
000300 48 54 30 bd 23 90 0b 3d 32 6d b9 3d 0f bb 20 bc
       -0.043049127 0.034073006 0.090540305 -0.009810223
000310 7f e1 0b 3d 20 a4 6b 3d 9c de 6f bb b7 b2 28 3d
       0.034150597 0.05752957 -0.0036601191 0.04118606
000320 64 45 be bd bc bf fb bc bd 43 78 3d a8 8b 26 bb
       -0.09290579 -0.030731075 0.060611475 -0.0025412831
000330 ef b4 6c 3d d7 52 eb 3d a5 e3 10 bc a1 c7 11 3d
       0.05778974 0.1149041 -0.008843337 0.03559077
000340 b0 eb 54 3d 5e 89 0c be 02 04 45 bd 3c 6f 5a 3c
       0.05198258 -0.13724276 -0.048099525 0.013332184
000350 25 2f c6 3d 52 13 95 3d 5e 46 05 bd eb 7b 59 3d
       0.09676961 0.07279076 -0.03253781 0.053096693
000360 db c6 1a bc a7 f7 f4 3d 1b 41 b2 3d 29 e2 d6 3d
       -0.009446825 0.119612984 0.08703824 0.104923554
000370 bf fd 37 3b 8d eb 01 be 91 94 26 3c f2 e0 0a 3d
       0.0028074828 -0.12687512 0.010167257 0.03390593
000380 4b ae 59 bd f2 4c 35 bc 41 79 da bd 12 43 0e bd
       -0.053144734 -0.0110657085 -0.106676586 -0.034731932
000390 2f fb 00 3d 63 58 39 3c 27 3f b2 3d 25 e3 e3 3d
       0.031489547 0.011312577 0.087034516 0.11127309
0003a0 4a bb 9f bc 4a 51 8b bd 6a dc 3b be 23 9c 44 bd
       -0.019498486 -0.06802614 -0.183458 -0.048000466
0003b0 b8 e1 16 3a 35 5e dd 3c 56 4f 39 3d 19 53 9e 3d
       0.00057556806 0.02702246 0.045241676 0.07730693
0003c0 d0 9e 71 3c 24 9e 0d 3d cb 87 76 bd 70 fc 97 bd
       0.0147473365 0.034574643 -0.060188096 -0.074211955
0003d0 a0 36 d1 bc e4 8a 6f 3c 29 2d a2 bd 86 5a 93 bc
       -0.025538743 0.014620516 -0.0791877 -0.0179875
0003e0 09 d6 fc bb 29 53 1d 3d bb 44 0d bd aa 5d 47 3e
       -0.0077159447 0.038409386 -0.034489375 0.19469324
0003f0 3a 54 c7 bc e5 38 3e 3d 0d eb 8e 3d ce a8 2b 3c
       -0.024332155 0.046440978 0.06978426 0.010477258

gc1.bias f4 [200]
000000 d1 70 a0 bb 17 c7 08 3c 8c fd b8 ba e4 22 0d 3c
       -0.0048962613 0.008348248 -0.0014113649 0.008614276
000010 dc 2d 00 bb 58 ef 85 3b fd 98 31 bc d5 b5 a2 bb
       -0.0019558584 0.00408737 -0.010839698 -0.0049655237
000020 7c 9e 9b 3a 5a 0d e9 b9 5b 75 ba 3b 33 c2 e8 3a
       0.0011872794 -0.0004445117 0.0056902594 0.0017758071
000030 c9 68 96 ba 0b ca 8d 3c 23 3d b0 39 fd 58 32 3c
       -0.001147532 0.017308256 0.00033614886 0.010885474
000040 79 f9 cc bb dd 63 21 bb c5 dc f9 3b f7 05 91 b9
       -0.0062553254 -0.0024626174 0.0076251947 -0.00027661
000050 44 8d 20 3c f4 09 7a 3a 53 1e 34 bb ea e4 35 bc
       0.009799305 0.00095382263 -0.0027483895 -0.011101941
000060 01 c8 0f bb 79 84 21 3c 2a c9 17 3a db 08 35 34
       -0.002193928 0.009858244 0.00057901687 1.686016e-07
000070 07 82 76 bc 53 9b 96 bb 87 c3 2c bb 98 d4 2c 3a
       -0.015045649 -0.004596153 -0.002636166 0.0006592958
000080 4a d9 55 ba fd c5 b0 bb d4 37 f8 3a c3 d4 b8 3b
       -0.0008157684 -0.005394696 0.0018937537 0.0056405975
000090 1e 86 c7 bb fc 29 8a bb bf 3c 0a bc de 53 25 ba
       -0.006088986 -0.0042164307 -0.008437335 -0.00063067477
0000a0 aa c9 8d bc e1 68 4a ba 9d b2 3d bc b0 97 07 3c
       -0.017308075 -0.00077213167 -0.011578229 0.008275911
0000b0 3c a8 fd 39 25 dd af 3b ae 19 ac bb 82 c8 26 bb
       0.00048381265 0.0053669387 -0.0052520847 -0.0025449102
0000c0 5a 23 15 bc 93 70 e8 ba c0 ef 15 bc 4a 28 15 3c
       -0.009102667 -0.0017733745 -0.009151399 0.009103844
0000d0 2b 18 55 bb d1 4d 13 bc f7 1f 07 bb 44 a1 a3 3b
       -0.0032515626 -0.008990721 -0.0020618418 0.0049935896
0000e0 dd 33 ba 3b 5a 41 10 bb ff e4 72 ba fa a9 2d 3c
       0.005682452 -0.0022011609 -0.00092656905 0.010599608
0000f0 4e 44 c6 bb e8 5e e8 bb 22 c7 58 b8 96 6f f2 bb
       -0.006050623 -0.007091392 -5.168387e-05 -0.007398556
000100 01 3d c1 ba 60 14 1c bb 83 d0 32 3c 30 13 00 ba
       -0.0014742912 -0.0023815855 0.010913971 -0.00048856717
000110 72 a0 13 bc c4 a7 eb 3a 6f 56 37 bc d0 cd 5a ba
       -0.009010421 0.0017979075 -0.011190041 -0.00083467085
000120 04 59 30 ba 44 39 32 bb 8c d7 08 3c b7 f0 0e 3c
       -0.00067271315 -0.0027194778 0.008352172 0.008724383
000130 ca f7 eb ba 4f 3d 32 3b 25 61 6a 3b e9 40 16 bc
       -0.0018002924 0.0027197187 0.003576347 -0.009170749
000140 02 20 1f 3b 8f ec 8c 3b 14 7f 58 3b 57 33 48 3b
       0.0024280553 0.004300661 0.003303473 0.003054818
000150 3c b2 32 3b a2 f2 f6 3a 0c 5a 97 bb 9c e3 6f bb
       0.002726688 0.0018840621 -0.0046188887 -0.0036604172
000160 ff 1f 42 bc 96 ad 76 bc 25 5e ce ba 41 6d a4 ba
       -0.011848449 -0.015056035 -0.001574461 -0.0012544767
000170 2d 8d ea bb ce f7 ab bb 73 c6 95 3b fb 56 76 3a
       -0.0071579427 -0.0052480465 0.004570776 0.00093971164
000180 d4 2f 3c bb 80 16 cd bb 1f 32 c9 bb 74 d5 26 3b
       -0.0028715031 -0.0062587857 -0.006140008 0.0025456818
000190 7a 9f 29 bc 68 6e 7f 3b 2b d0 9f ba f5 56 b3 ba
       -0.010352964 0.003897572 -0.0012192776 -0.0013682531
0001a0 e2 20 28 bc 75 f3 6d 3c 93 5a af ba 67 6f e1 3b
       -0.010261746 0.014523377 -0.0013378434 0.0068797353
0001b0 e2 3b 4a bb 93 a2 27 bb 0d c6 47 3c 62 34 1f bb
       -0.0030858447 -0.002557908 0.012193215 -0.0024292697
0001c0 2e f3 6e 38 02 e0 71 bc 7b cb 6d bb b0 68 00 bc
       5.69701e-05 -0.01476288 -0.0036284614 -0.007837459
0001d0 6f 8f 7a 3a cc ba 3e bc b0 74 04 3c bb ad b7 ba
       0.00095581164 -0.0116412155 0.008084461 -0.0014013568
0001e0 01 6e b6 bb 0f 4d 90 3c df 1e c4 3b ed 42 7a 3b
       -0.0055673127 0.01761487 0.0059851254 0.0038186864
0001f0 fb 58 f3 bb 0e c9 bc 3a 53 51 10 3c bc ba 35 bc
       -0.007426379 0.0014403181 0.008808452 -0.011091884
000200 1b 44 34 bb 60 34 03 bb 76 f1 a9 3a d2 d5 38 bc
       -0.0027506414 -0.0020020232 0.0012965638 -0.0112814475
000210 c6 a6 0c bc 3d 7d a0 bb 04 2a b9 bb 9f 5f 37 bc
       -0.008584684 -0.004897742 -0.0056507606 -0.011192231
000220 15 b2 88 3b 78 b1 31 bb c6 b0 25 3c e0 26 8e bb
       0.0041716197 -0.0027113836 0.010112947 -0.0043381304
000230 35 36 11 ba ab 13 5a 3c 96 48 e7 3b 61 f5 cf 3a
       -0.00055393885 0.013310353 0.0070582135 0.0015865975
000240 8a ce 4c 3a 80 71 b4 bb 27 d3 33 bc 69 0d 4d 3b
       0.0007812759 -0.0055066943 -0.010975636 0.003128851
000250 95 a0 86 bb f4 79 c4 bb e8 92 49 3a 87 08 32 3b
       -0.0041084983 -0.0059959833 0.0007689432 0.0027165727
000260 f9 51 c6 bb ea 9d 5e bc c9 a7 09 bc 8b d6 6b 3b
       -0.0060522524 -0.013587454 -0.0084018195 0.0035986032
000270 cc 5c 93 bc a0 af 87 3a 4a 45 44 3b 9e 2e bd 3b
       -0.017988585 0.0010352023 0.0029948526 0.0057733795
000280 2a b6 64 ba ad ac f2 bb 7b ad 55 3b 6d 34 07 bc
       -0.00087246543 -0.0074058385 0.0032604623 -0.008252245
000290 16 c5 aa 3b 8b 0e 82 bb b9 9c 50 bb 34 2d 83 ba
       0.0052114828 -0.003969019 -0.0031831695 -0.0010007978
0002a0 9e 7a 1a 3c 73 ed ef bb a5 e4 1e bc 2e ff 1b bc
       0.009428648 -0.0073220073 -0.009698068 -0.009521289
0002b0 b5 d4 b0 3b 0c ac 81 3b 39 62 02 bc 7a e3 b1 bb
       0.0053964504 0.003957277 -0.007957988 -0.0054287286
0002c0 4e a4 15 bc 26 7c 3e 3c 77 d7 94 3a 7d 60 77 3b
       -0.009133412 0.011626279 0.0011355717 0.003774672
0002d0 e7 91 4f 3c 73 fc 4e 3a 21 17 f9 bb 6f bf bd bb
       0.012669063 0.0007895894 -0.007601634 -0.005790643
0002e0 1d f1 69 3a cf ad af bb fb 76 d2 3b a5 4d 41 3b
       0.00089241733 -0.005361296 0.006422875 0.0029495743
0002f0 9c 4e 4c 3c 4d 66 48 3b 70 59 7e bb 2b f1 43 bc
       0.012469914 0.0030578554 -0.0038810633 -0.011959354
000300 86 3f 44 3b 4c c0 d2 3b 72 a5 2a 3b 09 59 bd 3a
       0.002994509 0.006431615 0.0026038554 0.001444609
000310 1d 4c 1a 3b 96 29 f1 b9 4c 86 51 bb 49 c2 02 3b
       0.0023543902 -0.00045998086 -0.0031970916 0.0019952229

gc2.weight f4 [200, 200]
000000 5a 7e 97 bc d1 76 02 3e 01 72 0d be 4f 12 92 3d
       -0.018492866 0.12740637 -0.1381302 0.07132398
000010 18 0b d1 3c 80 4f df ba 63 53 27 3a 3b bd 10 3d
       0.025517985 -0.0017037243 0.000638297 0.035336714
000020 0a 8e b8 3c 02 08 05 3c c0 5c fa 3d 00 72 81 bd
       0.022528667 0.008119585 0.12224722 -0.06320572
000030 42 bc 2c be 31 86 f4 bd 50 11 fc bc c7 17 f3 bd
       -0.1686869 -0.119396575 -0.030769974 -0.118697695
000040 45 0c a8 bd e4 7c 83 3d a9 24 8c 3d 84 7c f3 bd
       -0.08205465 0.06420305 0.0684293 -0.11888984
000050 e3 ed 92 bd c0 dc 30 3d e2 11 79 3d 01 12 8f bb
       -0.071742795 0.043179274 0.06080807 -0.00436616
000060 6b 7e 6e bd 28 b8 cb bd dd a5 92 bc a9 6d 99 3d
       -0.05822603 -0.099472344 -0.017901355 0.07491619
000070 c7 e1 81 3d bc 2f 5b bd ae 96 a4 bd 82 37 a9 3d
       0.06341892 -0.05351232 -0.08036552 0.082625404
000080 a8 09 12 3d 7e cc 0f be 1f fe 16 be 91 9b ab bd
       0.03565374 -0.14042851 -0.14745377 -0.08379281
000090 45 83 1e be 8f 21 16 be a9 d6 b3 3c 2b 40 c7 3c
       -0.15479763 -0.14661239 0.021952944 0.02432259
0000a0 08 ac b8 bd eb 69 d1 bc 15 86 bf bc 39 fc 3d 3d
       -0.09017187 -0.025563201 -0.023379365 0.046383116
0000b0 e2 90 d4 3d 82 23 17 be d6 13 0e bd bd f6 8d 3d
       0.10379197 -0.14759639 -0.034686886 0.06931827
0000c0 7e 61 ca bb 65 f5 b6 bd 80 93 b7 3b de 74 ae bc
       -0.0061761728 -0.08933524 0.0056023 -0.021295961
0000d0 c3 d1 12 bb 74 83 59 3d 0e 38 09 3d 61 8b 12 3e
       -0.002240286 0.05310388 0.033500724 0.14310981
0000e0 2c c8 8f bc 31 30 51 bd aa 3f 8c bd 9e b6 7a 3d
       -0.017551504 -0.05107135 -0.068480805 0.061209314
0000f0 18 b7 cf 3c 02 3d 4a bd 5b 64 f9 3c 52 ec 8a bc
       0.02535586 -0.049374588 0.030443361 -0.01695839
000100 d3 e4 6e bd 25 e6 b5 bd af c5 2b 3d dc 59 e3 3d
       -0.058323693 -0.08881787 0.041936573 0.11101124
000110 e8 c6 da 3c d9 76 d8 bc 08 b6 dd 3d 1d 08 be bc
       0.026706174 -0.026423858 0.10825735 -0.023197228
000120 e1 fc 37 3d 3b fc 24 3a e9 29 52 bd 59 72 cd 3d
       0.0449189 0.0006293689 -0.0513095 0.10031576
000130 fe 85 23 3e c2 1f 6b 3d eb 90 a5 3c c7 09 68 3d
       0.15969083 0.057403333 0.020210704 0.05664995
000140 41 4e 7e 3d be 02 d1 bd 7e 7b f2 3d 48 41 a5 bb
       0.062086347 -0.10205601 0.118399605 -0.0050431825
000150 2e 54 4b 3d 51 8a 5e 3d de b3 b1 3d b0 35 e2 bd
       0.049640827 0.054331128 0.08676885 -0.11045396
000160 0b d6 54 3d aa 91 0f 3d 15 fc 81 3d 84 22 96 3d
       0.05196194 0.035051025 0.06346909 0.07330802
000170 fc bd b4 bd d2 0b 68 bd 28 c5 7c bd 1e 57 04 3d
       -0.08825299 -0.056651898 -0.06171146 0.032309644
000180 b5 9c c1 bd 3d a1 90 3d 18 28 17 be 58 c8 a8 3d
       -0.094537176 0.07062004 -0.14761388 0.082413375
000190 76 4b 28 3c 96 99 e9 bc 0d d5 98 bd 06 9d 23 3e
       0.010271898 -0.028515618 -0.07462511 0.15977868
0001a0 e6 de 02 3c 1d 88 bf 3d 9d 94 b9 3b 05 88 8d bc
       0.007987713 0.093521334 0.005663468 -0.017276773
0001b0 05 40 52 3c 13 50 a3 3c 35 86 ed bd 49 1e 65 3d
       0.012832646 0.019935643 -0.115978636 0.055937085
0001c0 55 b8 83 bd d4 d3 ee bd bf ca c2 bc 63 8c b9 3c
       -0.06431643 -0.11661497 -0.023778317 0.02264995
0001d0 31 c9 ba bb 32 a8 91 3d 7c 11 12 bd 77 8a 9e 3d
       -0.0057002534 0.07112159 -0.035661206 0.07741254
0001e0 de 05 09 be aa 6d 5a bd 05 3b 31 bd dd 92 3b be
       -0.13381144 -0.05332724 -0.043269176 -0.18317743
0001f0 1c 64 24 3b 11 30 c6 bd d9 e5 ec bd 43 a2 af bd
       0.0025084084 -0.09677137 -0.115672775 -0.08575871
000200 c3 fa 7e bc bc e4 7d bd 32 2a 86 bd 02 23 c5 3d
       -0.015562716 -0.061985716 -0.06551017 0.09625818
000210 81 18 81 3d f7 62 c7 3c c2 79 d0 3d 13 44 86 3d
       0.06303502 0.024339182 0.101794735 0.06555953
000220 68 d8 10 bd 92 8c b8 3d 3d f3 7b 3b 1d f5 00 3d
       -0.03536263 0.09011187 0.0038444542 0.03148376
000230 7d e3 aa 3d 6c 91 0e 3c 81 a7 05 bd 52 9d 37 bd
       0.08344171 0.008701663 -0.032630447 -0.044827767
000240 c4 7f 56 bd 00 2f e8 3d 04 91 73 3d 99 57 60 bd
       -0.05236794 0.113370895 0.05946447 -0.05477104
000250 22 63 77 bd 93 5e cc bc cb f5 9e 3d e5 33 38 bd
       -0.060397275 -0.02494744 0.07761725 -0.044971365
000260 79 57 8b 3b 74 e3 d1 3d 12 19 80 3d 41 fb 84 bd
       0.004252371 0.10248461 0.06254782 -0.064932354
000270 fb 3d 53 bc 9d 12 10 3c 9d 6f 00 be 3c 84 a4 bd
       -0.012893195 0.0087935 -0.12542577 -0.08033034
000280 58 5a 18 3d c9 72 02 bd da 50 07 be 24 fe 1c bd
       0.037195534 -0.03184775 -0.13214436 -0.038328305
000290 98 86 8f bd fd 99 c9 3d 9a 74 dc 3d 7f a2 41 3b
       -0.070080936 0.09843824 0.107644275 0.0029546318
0002a0 ba 5a 3d bd f9 0c 65 3d a1 2e 6c bd 24 05 97 bd
       -0.0462291 0.055920575 -0.057661656 -0.07374027
0002b0 70 47 2e 3e f6 b1 0f 3d fd 61 d0 3d 4e 2a 4f 3d
       0.17019439 0.035081826 0.1017494 0.050577454
0002c0 d9 9d 0d 3c 3d bf eb bd de 0c 4c bd 53 46 66 3d
       0.008643591 -0.11511085 -0.04981696 0.05621941
0002d0 7f 70 ab bb 8c d8 c9 bd f2 81 c8 3d b5 d4 7c bd
       -0.0052319164 -0.09855756 0.0979041 -0.06172629
0002e0 3e 39 b4 3d 38 bf 87 be 24 aa 4a 3c 97 12 35 bd
       0.087999806 -0.26513076 0.012369666 -0.04420718
0002f0 a7 9b 51 3d b5 ea cd bd 0a ed 95 bd ef 6c 6d bc
       0.051173832 -0.100545324 -0.07320602 -0.014491304
000300 fe 9b b7 bc 06 dc 12 3d 59 48 ad 3d 59 be 48 bc
       -0.02241325 0.035854362 0.08461065 -0.012252414
000310 31 f6 f1 bb 10 2f 29 bd 6b 45 64 3c 79 8f 44 bd
       -0.0073840846 -0.041304648 0.013932566 -0.04798839
000320 34 97 fb 3d 5f 52 85 3d 7d 65 8d bb c5 b7 b7 3d
       0.12284699 0.06509852 -0.004315077 0.08970598
000330 f7 45 87 bd b1 67 6f bd e4 c0 0f bd c9 66 5e bd
       -0.066051416 -0.058448497 -0.035096064 -0.054297242
000340 03 05 0a bc a5 f5 9c 3d 9e 80 7d bd 60 b3 55 3d
       -0.008424046 0.076640405 -0.061890237 0.05217302
000350 6d b1 82 3d 77 f4 56 bd 8a f0 14 bd 07 ca 70 3c
       0.063814975 -0.052479234 -0.03636221 0.014696605
000360 e2 5f ba bc 4c 23 2b bd cb 09 b7 bd 72 6b 3c bc
       -0.022750799 -0.04178171 -0.08937415 -0.011500226
000370 79 59 42 bd ee 3c 5e 3d 1f 54 8d 3d 01 19 5e bd
       -0.04744861 0.054257326 0.069008105 -0.054223064
000380 0a 17 cf 3c 09 f5 92 bd ab fd 9b 3d de 90 2e bd
       0.02527954 -0.07175643 0.07616743 -0.042618625
000390 d0 7f 8a bd 10 a3 b6 bc 17 5e e2 bc 6e 43 86 bb
       -0.067626595 -0.022294551 -0.027632756 -0.0040973937
0003a0 cb ad d0 bb b8 75 f4 bc 00 0f 5e bb 79 64 c6 bd
       -0.006368374 -0.029841289 -0.0033883452 -0.096871324
0003b0 8b d2 aa 3c 97 93 1b 3e bd b1 79 bd b5 68 96 bc
       0.020852348 0.1519302 -0.06096052 -0.018360475
0003c0 a5 87 dc 3c b4 35 78 3d 4b 61 4b 3d 24 a4 dc bc
       0.02692015 0.06059809 0.049653333 -0.026933737
0003d0 de 2d f9 3c fd c5 0e bd 51 f0 ff 3d c7 d8 85 3d
       0.030417379 -0.034856785 0.124970086 0.065354876
0003e0 31 1b b8 b9 f4 32 1d 3d 6f 33 98 3c 8a 7c 8a 3c
       -0.00035115474 0.03837867 0.018579213 0.016905088
0003f0 d5 10 b6 3d ef d6 ea 3c a4 c6 e3 3c 39 d6 43 bd
       0.08889929 0.028666941 0.02780468 -0.04781172

gc2.bias f4 [200]
000000 80 e9 e6 b8 ee 22 dc bc 5b 0b 05 bd 3f 7a 2e 3c
       -0.000110107474 -0.026872125 -0.032481533 0.010649263
000010 df cb 5d bb 38 2e be bc 61 86 5a bc 99 21 62 bc
       -0.003384344 -0.023215398 -0.0133377025 -0.013801956
000020 57 11 bd bc bb 17 f1 3b 90 d1 96 bc 90 1b 03 bd
       -0.023079557 0.007357565 -0.018410474 -0.032008708
000030 1e 2d 11 bc e4 41 71 bc 1a a0 90 bb cf 59 3d bc
       -0.008860854 -0.014725182 -0.004413617 -0.011557057
000040 59 be f4 bc 7d 43 a2 bc 0f 41 5d bc d5 41 df ba
       -0.029875921 -0.019807572 -0.013504281 -0.0017033169
000050 69 3d 6a bc e3 e6 0a bd 7a 7f 07 bc f3 2f 27 bd
       -0.014296868 -0.033911597 -0.008270139 -0.040817212
000060 0d 15 27 bd 43 2c 73 3c f3 83 c1 bc d9 a5 a2 bc
       -0.04079156 0.014842096 -0.023622489 -0.019854473
000070 b0 41 97 bc 5c 4d 09 bc 92 89 31 bc f7 1a 19 bd
       -0.01846394 -0.00838026 -0.010836022 -0.03737923
000080 bf 69 aa bc f1 c4 f2 bc 15 59 3a 3a fb 8d 05 bc
       -0.020802377 -0.029634925 0.0007108611 -0.008151527
000090 8b 5e cf bc 8f c5 0c bd 49 ba b0 bc d7 54 82 bc
       -0.025313636 -0.034368094 -0.021573203 -0.015909595
0000a0 c1 ea a9 bc 8f e1 08 bd b9 86 84 bc e9 e8 14 3c
       -0.020741822 -0.033418234 -0.016177522 0.009088733
0000b0 2a 03 f6 bc 11 c2 94 3c 22 ee f6 3b 7a 73 35 bc
       -0.030030806 0.018158944 0.007535712 -0.011074895
0000c0 7d 36 23 bc e1 60 10 bd 75 47 d9 bc e0 d3 57 bc
       -0.0099617215 -0.03524864 -0.026523331 -0.0131730735
0000d0 d2 43 79 3b 4b 3b ed 3b d5 d2 3d ba bb 32 d6 bc
       0.0038034809 0.0072397343 -0.0007241194 -0.026147237
0000e0 4a 36 1f bb e3 fc 13 bd b0 5d 70 ba cc 34 ae b9
       -0.0024293833 -0.036129843 -0.0009169234 -0.00033227203
0000f0 eb 44 9f bb 88 59 9f bc 65 16 d2 bc 97 2e 6d 3a
       -0.0048605106 -0.019451872 -0.025645444 0.0009047775
000100 f4 67 80 bc 95 82 9a 3c 41 04 2d bc 9b 44 61 bc
       -0.015674569 0.018861094 -0.010560096 -0.013749267
000110 58 22 e7 bb 32 28 2d 3b c6 6e e5 3c a5 97 22 3c
       -0.0070536546 0.0026421663 0.028006922 0.00992385
000120 51 eb 1e bc 18 d4 91 bc 1c b5 51 bd a4 be 04 3c
       -0.0096996585 -0.01780133 -0.05119811 0.008102093
000130 b3 02 2a bd 2c 95 70 bc 9c 0a 95 3b 03 1c 2b bb
       -0.04150648 -0.014684003 0.004548384 -0.0026109226
000140 ee 37 1c bb 05 bf 04 ba bb 35 94 bc 10 78 43 bd
       -0.0023837048 -0.00050638645 -0.018092027 -0.047721922
000150 f2 33 82 3c 90 fa 65 3c bd 55 dd bb 16 10 9c bb
       0.01589391 0.01403679 -0.0067546056 -0.00476266
000160 70 37 0c 3c 4b db 41 bd 40 e9 57 bc 8d ac 0c bc
       0.008558139 -0.047328275 -0.01317817 -0.008586061
000170 11 fb 02 bd d1 fa 08 bd 1f fe 98 3b a9 3a 7f 3c
       -0.031977717 -0.033442322 0.0046689655 0.0155779505
000180 83 4c 90 bc d2 41 e6 bc 52 f1 00 bd 80 82 c2 bc
       -0.017614609 -0.028107557 -0.03148014 -0.023743868
000190 af f3 88 bc 73 e0 01 bd 34 bc 02 bc fb de 1a bd
       -0.01671776 -0.031708192 -0.007979441 -0.037810307
0001a0 66 d1 da bc ba 31 49 b9 ba f9 eb bc 02 ca ad bc
       -0.026711177 -0.00019187378 -0.028805602 -0.021214489
0001b0 88 9d fc bc 81 bb 50 ba 98 a7 c3 bb 04 56 5e 3c
       -0.030836836 -0.00079625106 -0.0059709065 0.013570312
0001c0 ee 45 23 bd 3d 08 18 bd b1 3f b0 bc c6 fe cf bc
       -0.039861612 -0.03711723 -0.021514745 -0.02539004
0001d0 cf cc a2 bc 0e 42 1d bd a1 02 eb 3b 38 2d 58 bc
       -0.019873051 -0.038393073 0.0071719442 -0.013194375
0001e0 14 d3 c5 3c 58 6c c5 bc b5 a0 d6 bc a2 c6 d6 bc
       0.024148501 -0.024099514 -0.026199678 -0.026217762
0001f0 30 a5 45 bd 72 da d7 bc c5 11 15 bd 4b bc 14 bd
       -0.04825324 -0.02634928 -0.0363939 -0.036312383
000200 26 ad 0f bd 2c 5d a5 3c 42 8c b3 bb 3b ed 75 bc
       -0.035077237 0.02018603 -0.0054793665 -0.015010173
000210 5b 87 83 bc 67 82 97 bc d5 8f cd 3a c5 04 8e 3d
       -0.016055753 -0.018494798 0.0015683124 0.069345035
000220 e9 fe e5 3b 2e e2 b8 bc 90 8f b4 bb 11 52 f4 bb
       0.007018913 -0.022568788 -0.005510278 -0.007456072
000230 52 5c b6 bc 4c 2d cc bc b0 58 8a bc 27 df 81 bc
       -0.022260819 -0.024923943 -0.016887993 -0.015853478
000240 c8 54 f1 bc 89 d1 3b bb 95 ab a0 bc a7 29 58 bc
       -0.029459372 -0.0028658828 -0.019613067 -0.013193524
000250 3a 4f e2 bc 92 77 a3 3a 02 fc 68 bc 8b e7 bc bc
       -0.027625669 0.0012471548 -0.01422024 -0.023059627
000260 d5 ff 89 bc 17 42 e0 3b 1c cc 96 3c 20 05 2b bd
       -0.016845623 0.006843816 0.018407874 -0.041752934
000270 16 21 c4 3c ae d1 bb bc 1e 66 18 bd c0 bd 1e bc
       0.023941558 -0.022927132 -0.03720676 -0.009688795
000280 c7 a5 9a bc de ae 68 3c a6 42 27 bd be 47 c3 bb
       -0.018877877 0.014201848 -0.040835045 -0.00595948
000290 f5 10 cf 3c da 45 9c bc 21 0b f2 bb c1 3a 39 3c
       0.02527664 -0.019076277 -0.0073865806 0.011305512
0002a0 36 32 43 bb d3 2f 09 bd ad 9f 81 bc cc 9a e7 bc
       -0.0029784567 -0.033492874 -0.01582321 -0.028272055
0002b0 bb 86 97 bc 52 1f 83 3b 67 f7 da bc a3 ed 34 bb
       -0.018496862 0.0040015364 -0.026729299 -0.0027607463
0002c0 e9 df 25 3c e9 aa 85 bc 02 4d 7e 3d 95 09 b4 bc
       0.010124185 -0.016316848 0.06208516 -0.021977225
0002d0 18 cf 42 bc 5b 41 8d bc 1c f5 2b bd 97 51 77 bd
       -0.011890195 -0.017243078 -0.0419818 -0.060380545
0002e0 81 91 fb 3b 2f 24 3e bb 65 45 2e bc e8 fb 42 bd
       0.0076772575 -0.0029013266 -0.010636662 -0.047603518
0002f0 dd 6d b5 bb 0b fd 38 3c b1 5d d8 3b ff 7a 39 bc
       -0.0055367784 0.011290799 0.0066029658 -0.011320828
000300 10 85 ec 3a 71 fb e7 3c 9a 15 a3 bc 61 83 a7 bb
       0.0018045027 0.028318139 -0.019907761 -0.005112097
000310 00 e7 0d bd 4c b2 03 bc 8f 76 a4 bb be 63 e7 bc
       -0.034644127 -0.008038115 -0.005019016 -0.028245803

gc3.weight f4 [200, 100]
000000 96 30 93 bc 35 45 f1 bd 77 f7 5d be 68 86 67 3c
       -0.017967504 -0.11780778 -0.21676432 0.014131166
000010 5a 47 8e bd 8e f8 95 3d c3 e6 2e 3d 4a 75 58 3d
       -0.06947203 0.07322799 0.04270054 0.05284623
000020 ef 02 a2 3d 76 b9 ef 3d 20 c6 2d 3e 9a 7b 15 3e
       0.07910716 0.11705296 0.1697011 0.14597932
000030 b9 71 6c 3d 34 5d 01 bb 5b c6 ab 3d 26 1e e8 bd
       0.057725642 -0.0019739391 0.08387443 -0.11333875
000040 ba 40 44 bd a0 1d 58 bd a4 2a ff bd 4e 21 ca 3b
       -0.04791329 -0.052762628 -0.12459305 0.006168521
000050 d1 15 38 be 8f ed 4f bd 3c 26 a9 3d 1e 06 95 3d
       -0.17977072 -0.050763663 0.08259246 0.072765574
000060 b9 fd a0 bd 9f d2 e1 bc 62 95 20 3e e1 61 17 3c
       -0.07860894 -0.027566252 0.15681985 0.009239645
000070 2d 67 81 bd e0 03 d0 3d 29 7e 5c be 9c 05 50 3d
       -0.06318507 0.10156989 -0.21532501 0.0507866
000080 5e 2c b2 3d 12 7b 51 3d d1 29 e6 3c 48 24 c6 3c
       0.086998686 0.05114276 0.028096111 0.024187222
000090 fc c6 ca 3d a1 76 ee bd 79 5f 24 bd a0 0c 47 bd
       0.099012345 -0.116437204 -0.040130112 -0.048596025
0000a0 11 01 ed bd 28 38 70 3d 61 a9 2d be e2 0a 01 3e
       -0.11572469 0.058647305 -0.16959144 0.12601808
0000b0 57 f2 0d 3e 4d 15 ca bd 95 1f 93 3d 31 db 5f be
       0.13861977 -0.09867344 0.07183758 -0.21860959
0000c0 df 97 1d be 84 ce 1d be 73 97 40 bd da ec 94 bd
       -0.15389965 -0.1541081 -0.047019433 -0.07271738
0000d0 3e 85 0e 3e 90 6f 45 3d ea 7b 6e bd f0 66 7b bd
       0.13918015 0.048202097 -0.058223642 -0.061377466
0000e0 94 dd d4 3c 5c 59 d1 bd 7d 08 8a 3d 7e 03 b1 3d
       0.025984563 -0.10222122 0.067399 0.08643244
0000f0 26 4a 31 be ce a2 4d bd 95 fd aa 3d 8d a4 0e 3e
       -0.17313442 -0.05020409 0.08349148 0.13929959
000100 3f 5b 43 bd f2 2e 17 3e 11 c8 96 3d 95 4c ec 3d
       -0.04769444 0.14764002 0.073623784 0.11538044
000110 63 65 41 bd 5a 4c 52 3d eb 8d 08 3d f3 b8 a5 3a
       -0.04721583 0.051342346 0.03333847 0.001264362
000120 0e 1e 11 bd 0e 69 bb 3d b0 d2 00 3e 46 56 80 bd
       -0.035429053 0.09150897 0.12580371 -0.06266455
000130 aa a4 eb bd 5d 82 23 3d ba cf 71 bd dd 66 d4 3d
       -0.115060166 0.039919246 -0.059035994 0.10371182
000140 b1 40 a3 bc f8 ca 94 bd ca f3 b2 bd 63 b1 75 3c
       -0.019928308 -0.07265276 -0.08737905 0.014995906
000150 e6 04 58 3d cc 77 c7 3d 99 47 53 bd 11 ea 02 3e
       0.052739047 0.09739646 -0.051581953 0.12784602
000160 8d e0 a4 bd ad f6 32 bd 64 84 cc bd 32 80 97 bc
       -0.08050642 -0.04369228 -0.09986189 -0.018493745
000170 74 66 b3 3d 0c 3e 5d 3d 19 03 81 3d 3f 09 f3 3d
       0.08759776 0.05401425 0.06299419 0.11866998
000180 3b 18 e1 bc a0 13 9b 3e 63 cd bb bd 02 dd d5 bc
       -0.027477374 0.3028841 -0.09170034 -0.026106361
000190 fd 51 d2 3c 31 9e b5 bd aa 0e 90 3d 3a d3 f6 3d
       0.02567386 -0.08868063 0.07034047 0.12052007
0001a0 12 86 49 be dd a9 8e be 4a 9d da bd c1 99 f5 3d
       -0.1968005 -0.2786397 -0.10674532 0.11992217
0001b0 33 f6 26 bd c2 7f 49 bc 6f f7 b8 3d 6f aa d0 bd
       -0.040762138 -0.012298526 0.09031569 -0.10188758
0001c0 6e c5 8a 3d 6d 59 71 3d f0 38 f8 bc 67 78 fa 3b
       0.06775938 0.058923174 -0.030300587 0.0076437476
0001d0 50 d6 a4 bd b4 56 ad 3d af 9a 58 bd 3d 24 90 bd
       -0.08048689 0.08463803 -0.052881893 -0.07038162
0001e0 24 db 1b be ed 0f bd bc 25 7b c3 ba 8d ec 19 bd
       -0.15220314 -0.023078883 -0.0014914019 -0.037579108
0001f0 cd b5 a6 bd 57 88 45 3c da 73 9c 3d 18 4b 80 3d
       -0.081401445 0.012056432 0.076392844 0.06264323
000200 4f 0f 89 3d 4c a5 97 3c 5c fd e1 bd 79 78 4b 3b
       0.06692373 0.018511437 -0.110346526 0.003104715
000210 1e 8f a2 3d cf 86 a9 3d 75 69 0d be 86 3e f1 3d
       0.07937454 0.08277666 -0.1380976 0.117795035
000220 89 b7 d8 3d 02 c0 ac bd c4 f9 1e be 63 72 8e bc
       0.105818816 -0.0843506 -0.15524966 -0.017388528
000230 8d 60 bd bd 92 05 9c bc 4a 05 63 bc d8 b3 b9 bd
       -0.09246931 -0.019045625 -0.0138562415 -0.090675056
000240 65 18 ff 3d 13 e2 87 be 15 3b 81 bd 34 fa a4 3a
       0.12455825 -0.26539668 -0.06310097 0.0012586773
000250 3f be 83 bd 2c 90 38 3d 1b b3 0a 3d db 2a 79 bd
       -0.06432771 0.045059368 0.033862215 -0.060831886
000260 27 f0 ba bd 94 23 c7 bd 53 b7 1b be 0c eb f7 3c
       -0.09127837 -0.09723583 -0.15206651 0.030263446
000270 ac ff b9 3c 2a 54 29 bd 31 3b c2 3d 8e 1d 7d 3c
       0.022704922 -0.04134003 0.09483946 0.015448941
000280 93 a7 7e 3c 32 77 50 bc 18 cb 95 bc e0 d3 48 bc
       0.0155428825 -0.012723731 -0.01828532 -0.012257546
000290 f0 f7 18 3d a9 9b 3c bd 43 b8 d2 bd b8 25 a8 3d
       0.037345827 -0.046046887 -0.102890514 0.08210319
0002a0 18 e5 1a be f5 36 65 3e f1 d9 4b 3d d4 1e 1b 3d
       -0.15126455 0.22384246 0.049768392 0.037871197
0002b0 57 58 0f bd 2b 5a ab bd d1 d7 8f 3d 64 be b1 3d
       -0.034996357 -0.083668076 0.070235856 0.08678892
0002c0 bd a4 d7 3d 7e 08 1c 3d 31 d3 7f bc 86 78 0c 3d
       0.10529468 0.038094036 -0.015614317 0.034294628
0002d0 4d 33 03 bd bf 05 0d be e3 b0 1a 3e ba 25 41 3e
       -0.032031346 -0.13771723 0.1510654 0.18862048
0002e0 3f e8 5c bc bf 2c 9e bc ab 6f 00 3e 83 19 3d 3c
       -0.013483106 -0.019308446 0.12542598 0.011541727
0002f0 92 76 ea 3d 90 c1 ff bd 30 d1 2d 3d 74 3c 23 3d
       0.11448397 -0.12488091 0.042435825 0.039852574
000300 f9 42 e5 3d 5e 01 1a bd 06 74 f8 bb 57 27 ec bd
       0.11194415 -0.03759896 -0.0075821904 -0.11530941
000310 21 df 43 bd 98 0c 46 be d8 f3 1a 3e 6b fc 2e 3d
       -0.047820214 -0.19340742 0.15132082 0.042721193
000320 ff 22 a7 3c 1c 67 14 bd 19 02 f8 3d bc 61 e7 3d
       0.02040243 -0.036231145 0.12109775 0.11297938
000330 3d 71 82 3d 28 46 95 3d 68 10 6a bd ba 16 d5 3c
       0.06369255 0.07288772 -0.057144552 0.026011813
000340 68 85 00 3e f9 6f bb 3c 79 c9 90 3d 43 26 6b 3c
       0.1255089 0.022880541 0.07069678 0.014352384
000350 b9 90 77 3d c0 5a db bc 7a 43 83 3d e1 ca ce bd
       0.060440753 -0.026776671 0.064093545 -0.1009729
000360 e4 a7 be bd 40 d8 93 3d 8c 50 83 3b 99 02 27 bd
       -0.09309366 0.07218981 0.0040074047 -0.04077396
000370 af 96 d1 bc fc f3 0c 3e eb 96 93 3d 69 fe ac bd
       -0.025584547 0.13764948 0.0720652 -0.084469624
000380 0e 87 a2 3d 02 b5 09 3d 0c bc 1b bc f1 53 bc bc
       0.07935916 0.033619888 -0.009505283 -0.022989245
000390 fa d0 5a 3d 12 80 c7 3c 27 74 38 bc 56 09 87 3d
       0.05342195 0.02435306 -0.011258162 0.065935776
0003a0 45 d4 93 bd 4a 0b e4 bb 81 9d 83 bc 44 ea 07 be
       -0.072182216 -0.0069593536 -0.016066315 -0.13272959
0003b0 20 d2 a2 bd 5f 4e 40 be 5f be 9c 3d 5d 5d d4 3d
       -0.079502344 -0.18779896 0.07653498 0.1036937
0003c0 8c 54 d9 3d 13 dc 0c 3d 03 50 9d 3e 11 4a 2e 3d
       0.10611829 0.034389567 0.30725107 0.042551104
0003d0 ae 23 0b be 8d 51 11 3e 7f ba b4 bb 39 59 3a 3e
       -0.1358783 0.14191265 -0.005515396 0.18198098
0003e0 8f 61 05 bd b2 ae 33 bc fd ef 5b 3e 52 cf bd bd
       -0.032563742 -0.010966944 0.21478267 -0.09268059
0003f0 73 9f ac 3d ad ee 78 bd e6 92 f8 3d 1a 42 14 bd
       0.0842885 -0.060774494 0.12137394 -0.03619585

gc3.bias f4 [100]
000000 5a 86 1e bd 35 1f c6 bc ac 9e 90 bc 53 e7 91 bc
       -0.038702346 -0.024184803 -0.017653786 -0.0178105
000010 c6 b4 34 bc d1 d7 c8 bb f7 08 ae bb a0 86 83 bc
       -0.011029428 -0.006129243 -0.0053111273 -0.016055405
000020 57 0e 6b bc dc 49 ac bc db ba 47 bc 92 e8 54 bc
       -0.014346681 -0.021031313 -0.012190546 -0.012994902
000030 5a 92 50 bc 11 8a 5a bc a8 fa 58 bc 10 7f 33 bc
       -0.012730205 -0.013338582 -0.013243355 -0.010955587
000040 e3 ed 18 bc c1 af c3 bc f2 10 69 bc 77 af 0f bc
       -0.00933406 -0.023887517 -0.0142252315 -0.008769861
000050 3a 09 b3 bc af ee 2b bc 80 29 8f bc 15 7b a6 bc
       -0.021854986 -0.010493918 -0.017475843 -0.020322362
000060 03 9e 06 bd 6b 7e 8e bc c3 bd e8 bb 3a 77 b8 3c
       -0.032865535 -0.017394265 -0.0071026995 0.02251779
000070 fe 46 59 bb 42 65 34 3a 1b 73 aa bb 19 91 06 bc
       -0.0033153887 0.00068815437 -0.00520171 -0.008213305
000080 15 d4 00 bc 4b 4c e5 bb 03 98 ef 3c 36 f3 31 bd
       -0.007863064 -0.00699762 0.02924729 -0.043444835
000090 7d 98 c0 bc 50 e7 56 bd 69 f8 0b bd ab fe 15 bd
       -0.023510212 -0.05246669 -0.03417245 -0.036619823
0000a0 6c 5d da ba 85 b7 38 bb ce cd a7 bc 58 b1 a7 3b
       -0.0016659922 -0.0028185558 -0.020483878 0.0051175766
0000b0 72 64 2c bd 12 0e f8 bc ae fb 30 3d 73 0d f6 bc
       -0.04208798 -0.030280147 0.04320877 -0.03003571
0000c0 16 6d d0 3b 64 e8 80 bc ac 79 1b bc dd 05 8b bc
       0.0063606603 -0.015735812 -0.009489458 -0.01697057
0000d0 06 0f dc bc 16 a4 cc bc e0 41 0d bc f4 af b7 bc
       -0.026862632 -0.024980586 -0.008621663 -0.022422768
0000e0 5a 02 9e bb a2 ac 34 3c 15 09 ac bc 6a 5d b3 bc
       -0.0048220577 0.011027487 -0.021000424 -0.02189513
0000f0 cb 46 89 bc f9 f4 95 3a a0 c5 06 3b a4 2e 0a bd
       -0.01675739 0.0011440805 0.002056457 -0.033735886
000100 b7 1f a5 bc 9a 3b fc bc 7e 26 ea 3b fe a7 77 bc
       -0.020156724 -0.030790139 0.007145702 -0.015115736
000110 99 d9 27 3c 0f de aa bc 28 37 ea bc 0d a6 48 bc
       0.01024475 -0.020857839 -0.028590754 -0.012246621
000120 39 c4 3f bc c5 4f b4 bc 5b 6d ef bc 13 7d f6 3c
       -0.011704498 -0.022010693 -0.02922695 0.030088937
000130 92 ae a0 bc 54 37 ef bc 1a 83 ea bc 96 20 6a bc
       -0.019614492 -0.029201187 -0.028626967 -0.014289996
000140 ad 42 a5 bc ae 85 a7 bc 2c 0e 44 bc e0 d5 7d 3a
       -0.020173395 -0.020449486 -0.011966269 0.0009683054
000150 70 67 0f bd 3e 1a 3a bc c1 92 7e bc 29 cf 8a 3a
       -0.035010755 -0.011358796 -0.015537919 0.0010590303
000160 15 70 8c ba a8 6f 07 bc 18 e3 dc bc 5b c1 16 39
       -0.0010714555 -0.008266367 -0.026963755 0.00014377145
000170 41 de 36 bc b0 7c 23 bc f2 29 29 bc d6 a3 3d bd
       -0.011161388 -0.009978458 -0.010324942 -0.046298824
000180 8c 92 28 bb e6 bb fa bc da 6e 31 bc d3 98 33 bc
       -0.0025722114 -0.030607175 -0.010829652 -0.010961729
