ROSMAP/models/3/C1.pth (torch, 1913 bytes, 2 tensors)

clf.0.weight f4 [2, 100]
0.15820082 0.1944653 -0.16232039 0.18703404 0.20565493 -0.06097658 0.24524707 0.2143755
0.045870055 -0.37991253 -0.17745401 -0.19848396 -0.24423999 0.11117036 0.124857664 -0.11383377
0.11824192 0.05474091 -0.042099074 0.29348436 0.34032646 0.36470062 -0.02240955 0.43434235
-0.23902692 -0.0756947 -0.25999254 -0.3606218 -0.10418197 0.06909202 0.15298057 -0.28126198
-0.27635548 -0.19570512 0.19817866 0.13016614 -0.1212744 0.06629093 -0.3406348 -0.29208902
0.17962681 0.29460794 0.38529274 0.4214281 0.18618348 0.42890805 0.1647501 -0.24093737
0.09260289 -0.19162703 -0.1930049 0.08364323 0.48191357 -0.17640316 -0.100781575 0.30261663
-0.27947226 0.387351 -0.3329822 0.061922915 0.21215001 0.30408004 -0.19706999 0.27915335
-0.1546076 0.13751002 0.10860276 0.18542694 0.29441497 0.22346666 -0.31387895 0.44690764
0.31054196 -0.16630268 -0.28558397 0.26428616 -0.1258796 -0.28496864 -0.10667565 -0.03667864
0.10329534 0.18154436 0.0153759215 0.22260606 -0.23956664 -0.45767075 0.38738474 -0.24962251
0.30084127 -0.048823316 0.32085407 0.08137968 0.23348385 -0.23825695 -0.29876104 0.27297232
0.0039308243 -0.21286738 0.2575527 -0.16806422 -0.20068718 -0.3880334 0.0061195926 -0.1383763
-0.08076599 0.24372248 -0.3018404 -0.1911804 -0.058989987 0.045824297 0.22536705 0.28849646
0.43371677 -0.13524348 -0.24300978 0.30351663 -0.11116847 -0.22798283 0.23191403 -0.40716064
-0.25308418 -0.06971118 -0.21141368 -0.14803644 0.16908623 0.2714875 0.14898506 0.22355728
0.17728761 -0.1695314 -0.14405118 0.15458973 -0.06439034 0.22634795 -0.080912426 -0.110597745
0.17930216 -0.14207515 0.2233047 0.09275773 -0.40150303 -0.19036599 -0.11429547 -0.4649084
0.008388731 -0.1311592 -0.31149042 0.1100751 -0.19063273 0.043608807 0.30905542 -0.3054057
-0.03769348 0.22873557 0.26841867 -0.26128563 0.622484 -0.30092975 0.09475634 -0.2284154
-0.22031616 -0.12226048 0.5166654 -0.34138647 0.18134752 -0.15083951 -0.10767664 -0.2596816
-0.047480147 -0.33205774 0.38522324 -0.15997879 -0.12294461 0.19341455 0.06191506 -0.31735933
0.18351905 0.06536203 0.17263538 0.26964548 0.33512655 -0.1490714 -0.23578952 -0.13249503
0.018653212 0.29642904 -0.04683869 0.20199628 -0.12918337 -0.34392694 -0.07207291 -0.28974703
-0.28786173 0.102632225 0.17547376 -0.10345294 0.28534383 0.13080108 -0.04140563 0.14989433
00000000: 65ff 213e e921 473e 5137 26be da85 3f3e
00000010: 3597 523e 94c2 79bd 0c22 7b3e 4085 5b3e
00000020: 3de2 3b3d e583 c2be 81b6 35be 613f 4bbe
00000030: 0c1a 7abe 49ad e33d 60b5 ff3d ae21 e9bd
00000040: d228 f23d 0138 603d 1470 2cbd 9543 963e
00000050: 453f ae3e 0aba ba3e 3c94 b7bc 1f62 de3e
00000060: 79c3 74be d305 9bbd be1d 85be 6ca3 b8be
00000070: 5b5d d5bd 1e80 8d3d f0a6 1c3e 9201 90be
00000080: 777e 8dbe ec66 48be 59ef 4a3e 464a 053e
00000090: b65e f8bd 8ac3 873d af67 aebe b18c 95be
000000a0: 17f0 373e dad6 963e 1745 c53e 6dc5 d73e
000000b0: e2a6 3e3e d699 db3e 40b4 283e 49b8 76be
000000c0: 96a6 bd3d e039 44be 14a3 45be 244d ab3d
000000d0: 60bd f63e 08a3 34be 9266 cebd 91f0 9a3e
000000e0: fd16 8fbe df52 c63e a57c aabe e2a2 7d3d
000000f0: da3d 593e 61b0 9b3e b7cc 49be 30ed 8e3e
00000100: 7451 1ebe 6dcf 0c3e 206b de3d 8fe0 3d3e
00000110: 8fbd 963e 72d4 643e beb4 a0be 14d1 e43e
00000120: 5bff 9e3e 404b 2abe 1038 92be 8450 873e
00000130: 95e6 00be 69e7 91be c378 dabd 573c 16bd
00000140: 828c d33d c4e6 393e 4aeb 7b3c d8f2 633e
00000150: f550 75be d253 eabe 4b57 c63e 0b9d 7fbe
00000160: de07 9a3e f5fa 47bd fc46 a43e 64aa a63d
00000170: 6416 6f3e a1f9 73be 35f7 98be 07c3 8b3e
00000180: 25ce 803b e8f9 59be f3dd 833e 0719 2cbe
00000190: f180 4dbe 50ac c6be dd86 c83b 84b2 0dbe
000001a0: a468 a5bd 6392 793e d38a 9abe cbc4 43be
000001b0: 7c9f 71bd 42b2 3b3d 9fc6 663e cfb5 933e
000001c0: 2010 de3e 447d 0abe 8ed7 78be 8866 9b3e
000001d0: 4bac e3bd 5574 69be df7a 6d3e 5c77 d0be
000001e0: 4094 81be bcc4 8ebd d47c 58be dd96 17be
000001f0: f124 2d3e 6900 8b3e 8a8f 183e 33ec 643e
00000200: e28a 353e a499 2dbe 2782 13be c54c 1e3e
00000210: 15df 83bd c2c7 673e 6ab5 a5bd 1281 e2bd
00000220: fc9a 373e 267c 11be fda9 643e c4f7 bd3d
00000230: ce91 cdbe 4def 42be be13 eabd 7908 eebe
00000240: e370 093c 994e 06be ac7b 9fbe 0e6f e13d
00000250: 3a35 43be 269f 323d 833c 9e3e 235e 9cbe
00000260: 7a64 1abd a839 6a3e 2c6e 893e 3bc7 85be
00000270: 1d5b 1f3f 7713 9abe 9d0f c23d bae5 69be
00000280: 8f9a 61be b463 fabd 2f44 043f 35ca aebe
00000290: 2ab3 393e ac75 1abe 9285 dcbd fdf4 84be
000002a0: 8b7a 42bd 7903 aabe fb3b c53e 7bd1 23be
000002b0: 62ca fbbd 770e 463e a59a 7d3d ec7c a2be
000002c0: 6bec 3b3e 87dc 853d 54c7 303e f90e 8a3e
000002d0: b595 ab3e 2ca6 18be cf72 71be c7ac 07be
000002e0: 9fce 983c 8cc5 973e edd9 3fbd 1dd8 4e3e
000002f0: a548 04be 3117 b0be f69a 93bd b959 94be
00000300: 9d62 93be d830 d23d 65af 333e 23df d3bd
00000310: 9618 923e b8f0 053e f398 29bd e67d 193e

clf.0.bias f4 [2]
-0.014095856 0.014096539
00000000: 4ef2 66bc 2bf5 663c
