ROSMAP/models/3/C2.pth (torch, 1911 bytes, 2 tensors)

clf.0.weight f4 [2, 100]
00000000: 6efe 583e 70cb 6f3e 84b6 11be 1266 bb3d
00000010: ba66 843d 60fc eabd f98c f0bc 6064 37bd
00000020: 4533 773e a58a c2bc c47b 963e 1b35 87bd
00000030: 37bd 12bc d845 84be b7bb 983d 7bfa 85be
00000040: 4db9 f7bc 1fe5 893e 854f 9abd c372 573e
00000050: 3a37 eebb 4363 463e 3862 c83d a830 8e3e
00000060: ca2d 8b3d f7d8 0f3e e342 8f3d b316 113d
00000070: 4195 e9bb 6de6 87be d6f2 8f3d 19ba 8c3e
00000080: 90ef 80bc faab b1be 6572 a0bd 9df9 22be
00000090: 22d9 08be 1204 343e df9b f03d 8e46 72be
000000a0: 74e6 513e 27ad b63e ae06 3a3e 4338 04be
000000b0: 8f3b 693d 35f3 b13e 9247 efbd ac89 cdbd
000000c0: a3f8 6d3d d250 0fbe 5b1b 5c3e 1ec2 913d
000000d0: d257 d43e ebea cd3e 9359 433d 0d9d 963e
000000e0: 6819 873d 8107 153e ca23 87bc 9df4 6dbe
000000f0: b7ef eebd bfbe 733e ff82 5bbd 4cf8 313c
00000100: e2fb 553e b59d 893e 32ac 153d 468f f03c
00000110: b97b 1e3e c36b 05bd 6fbc 453e 9229 613e
00000120: 4dbc 423e d386 253d 124a 60be 3935 033e
00000130: bb94 aebd b9a1 22be 4721 3b3e c106 8fbe
00000140: 250e 67bd 87a1 aabd 4ca9 313e 285b b23d
00000150: f12e abbd bc80 253e 3f11 f43d fccf 4a3e
00000160: b108 06be 6fad e5bd c9dc 8f3c 1d5d 8cbd
00000170: 5e0e 13be 5ffb 123e 4329 3e3e 9828 933d
00000180: 74d6 8dbe fc64 743e 1621 993e c578 ff3c
00000190: 1bb7 71bd 489f 6cbe f4b5 073e fc76 c33e
000001a0: c159 4dbe 6030 d33c e885 bc3e 81e9 dfbd
000001b0: 4c60 15be 660a 48be 469d cdbd 5d32 0b3e
000001c0: c678 63be 930d a63d d66f 80be edf2 113e
000001d0: ebbf 933e 360d 0fbe 5e44 85be 20b6 893d
000001e0: 2fb1 4bbe c36b 10be 8a20 0dbe 1500 63be
000001f0: da35 87be a54f 14be 1012 e3bd a28d c23e
00000200: beb7 a13d 69c0 b03d 7578 043c be1b b7bd
00000210: fec9 75be 9a48 6b3e 6cfa 023e 2979 523d
00000220: 2cb6 9d3d 7359 7dbe a9a7 66be 179e 413d
00000230: fc8e fdbd ac13 2c3e a26f fdbd 4449 173e
00000240: 87b9 353e 7313 163e dce2 7c3d 9cc9 cfbc
00000250: fbb9 58bd c833 693e f5cf 9cbd d7f1 febd
00000260: 6f46 65bd c0fe febd aa38 42be 462a f33d
00000270: 477a f2bd a671 62bd f35e cebe 5705 143e
00000280: 292a 55be 6b93 5e3c 2934 343e eb58 78be
00000290: 5cdc 2ebe 4098 87bd 6678 82be 9631 be3d
000002a0: 0a56 0fbd 745b 8e3e f80d e0bd 9376 923d
000002b0: 3569 23be 7019 afbd 0509 a73d 980c a6bd
000002c0: 91e6 79be 5378 d43a ee71 68bc 85c4 723e
000002d0: a840 443e 66b8 bb3d 4dac bcbd 86ca 23be
000002e0: 8a80 a5be 384b 68bd 7982 8bbe c6c8 26bd
000002f0: 2f07 253e c3bd cc3d 5800 1abe c79c dd3d
00000300: e53c d93d bd74 063e 2e08 f33d 80d5 b7be
00000310: 9b72 dfbd ba68 5cbe 9561 1f3d 1334 c1bd
0.21190807 0.23417449 -0.1422978 0.09150328 0.06464906 -0.11473918 -0.029364096 -0.04477346
0.24140652 -0.023747751 0.293913 -0.06601926 -0.008956245 -0.25834537 0.07457679 -0.26167664
-0.030239725 0.26932618 -0.075346984 0.21039872 -0.007269767 0.19373803 0.09784359 0.27771497
0.06795843 0.1404761 0.069951795 0.03542204 -0.007128388 -0.26542988 0.07028739 0.2748573
-0.015739232 -0.3470152 -0.07834319 -0.15915532 -0.1336408 0.17579678 0.1174848 -0.23659727
0.20498067 0.3567898 0.1816661 -0.12912087 0.056941565 0.34755865 -0.11683573 -0.100360245
0.058098447 -0.13995674 0.2149481 0.07117103 0.41473252 0.4021829 0.047692847 0.29416695
0.06596643 0.14553644 -0.016496558 -0.23237844 -0.11666816 0.23803233 -0.053591724 0.010862421
0.20896867 0.26878133 0.03654117 0.029365193 0.15476884 -0.032573473 0.19310163 0.21988514
0.19017144 0.04041178 -0.21903256 0.12813272 -0.08524462 -0.15882005 0.18274413 -0.2793484
-0.056409974 -0.0833159 0.17349738 0.08708793 -0.08358563 0.1616239 0.11917352 0.19805902
-0.13089253 -0.112147205 0.017561333 -0.068536974 -0.1436095 0.14353703 0.18570428 0.07185477
-0.27702677 0.23866647 0.29908055 0.031185517 -0.059012514 -0.23107636 0.13253003 0.38176715
-0.2005377 0.025779903 0.36820912 -0.10933209 -0.14587516 -0.19535217 -0.10039763 0.13593431
-0.2221404 0.08108058 -0.25085324 0.14252825 0.2885736 -0.13969883 -0.26028723 0.06724191
-0.19891809 -0.14103608 -0.13781944 -0.22168 -0.26408273 -0.14483507 -0.110874295 0.37998682
0.07896374 0.08630449 0.00808536 -0.08940838 -0.24002835 0.22976914 0.12790841 0.05138508
0.07700762 -0.24741153 -0.22524895 0.047269907 -0.12380788 0.16804379 -0.12374808 0.14774042
0.17746554 0.14655857 0.061739787 -0.02536469 -0.05291174 0.22773659 -0.07656852 -0.12448471
-0.055975374 -0.124509335 -0.18966928 0.118732974 -0.11839729 -0.055284165 -0.40306816 0.14455162
-0.20816864 0.013584952 0.17598023 -0.2425267 -0.17076248 -0.06620836 -0.25482482 0.092868015
-0.034994163 0.27804148 -0.10940164 0.071515225 -0.15958102 -0.08549774 0.08156017 -0.08107871
-0.2440436 0.0016210176 -0.014187319 0.23707779 0.1916529 0.091660306 -0.09212551 -0.15995225
-0.3232463 -0.05671236 -0.2724798 -0.040718816 0.16116022 0.09997132 -0.15039194 0.108209185
0.10607318 0.1313047 0.118667945 -0.35905075 -0.10910531 -0.21524325 0.03891142 -0.094337605

clf.0.bias f4 [2]
00000000: c8de 29bc 50e1 293c
-0.010368057 0.01036866
