ROSMAP/models/3/C3.pth (torch, 1909 bytes, 2 tensors)

clf.0.weight f4 [2, 100]
0	0xbd85549a	-0.06510277
1	0x3e2696eb	0.16268508
2	0x3da12c8a	0.07869823
3	0xbe0cec82	-0.13762096
4	0xbdf7c909	-0.12098891
5	0x3e5db591	0.21651293
6	0xbe85cafb	-0.26131424
7	0x3e8eb8d6	0.27875394
8	0x3e388127	0.18018018
9	0x3e011e10	0.12609124
10	0x3e4821f3	0.195442
11	0x3d0551ad	0.032548595
12	0x3e50ecca	0.20402828
13	0x3c95ea81	0.018300297
14	0xbe7df028	-0.24798644
15	0xbd81869b	-0.06324502
16	0x3dd6f941	0.1049676
17	0x3db907a2	0.09034659
18	0x3ccd031b	0.025025895
19	0x3cdaa5bb	0.026690355
20	0x3e57838e	0.21046278
21	0x3c5f1bac	0.013617437
22	0xbcd8269f	-0.026385603
23	0xbe4d79d3	-0.20066004
24	0x3e986d1c	0.29770744
25	0x3dac00d7	0.08398598
26	0xbca7890d	-0.020451093
27	0x3e039765	0.12850721
28	0x3eab33b4	0.33437884
29	0x3da7b652	0.08189072
30	0x37f452bc	2.9125593e-05
31	0x3d84b90d	0.06480608
32	0x3d1aa003	0.037750255
33	0xbe0f8607	-0.14015971
34	0x3b224a64	0.0024763579
35	0xbc2d8594	-0.01059093
36	0x3e76ff2c	0.24120778
37	0xbbc28951	-0.0059367795
38	0x3e975fe8	0.29565358
39	0x3e1f581f	0.1556096
40	0x3e1fcad3	0.15604715
41	0xbe13a6d3	-0.14419107
42	0x3db44e4d	0.08803997
43	0xbd8d314f	-0.068941705
44	0x3e078d2f	0.13237451
45	0x3d3fb89d	0.04680692
46	0xbe859491	-0.2608991
47	0xbc3ab6dc	-0.011396136
48	0x3db80d14	0.089868695
49	0xbddcf7b3	-0.107894324
50	0x3d9e0c88	0.07717234
51	0xbdd56ee1	-0.10421539
52	0x3ddf74ca	0.109109476
53	0xbe949199	-0.29017332
54	0xbe232354	-0.15931445
55	0x3ebcde11	0.36888173
56	0x3d7771c7	0.06041124
57	0x3e2a11fd	0.16608424
58	0xbea2cea0	-0.31798267
59	0xbd8a599c	-0.06755373
60	0xbe9091c4	-0.2823621
61	0xbd42fee0	-0.04760635
62	0xbce335dc	-0.027735643
63	0x3bf9969f	0.0076168324
64	0xbcf018f5	-0.029308775
65	0xbe0007ae	-0.1250293
66	0xbe29222e	-0.16516945
67	0xbd9fd57c	-0.07804391
68	0xbe35bdbd	-0.1774816
69	0xbd653a74	-0.05596395
70	0x3cf5f9b3	0.030026292
71	0xbe829aec	-0.2550882
72	0x3e3d1925	0.18466623
73	0xbd698635	-0.057012755
74	0x3e29c77a	0.1658
75	0xbe307255	-0.17231114
76	0x3e8f0a2e	0.27937454
77	0xbe200f54	-0.15630847
78	0xbdd30491	-0.10303605
79	0xbd777018	-0.060409635
80	0xbe3b0604	-0.18264014
81	0xbda6bb9d	-0.08141253
82	0x3e07990a	0.13241974
83	0xbe2fdb1c	-0.17173427
84	0xbe6e5b97	-0.23277126
85	0x3ec3eed9	0.38268164
86	0x3c0efca2	0.008727225
87	0x3e1c76e8	0.15279734
88	0xbe2a6038	-0.16638267
89	0xbe91a8e5	-0.2844917
90	0xbbe01e99	-0.006839585
91	0x3e5a2c4c	0.2130596
92	0x3e996e4b	0.2996696
93	0xbe434cb8	-0.19072235
94	0x3cc9c67e	0.024630781
95	0xbe5a1110	-0.21295571
96	0x3e3d2ffb	0.18475334
97	0xbd9ecf39	-0.07754368
98	0x3e5ad73d	0.2137117
99	0x3ab0f411	0.0013500472
100	0xba931a42	-0.0011223035
101	0xbe64e061	-0.22351219
102	0xbe8eca39	-0.2788866
103	0x3de49043	0.11160328
104	0x3d5fd7e5	0.054649252
105	0x3de2cb0e	0.11073886
106	0x3d994640	0.07484102
107	0xbbfc2927	-0.0076953354
108	0xbdbec0a3	-0.09314086
109	0x3e7fd78f	0.24984573
110	0x3da6ed69	0.08150751
111	0xbe23fa99	-0.16013564
112	0xbe2ecf4a	-0.17071262
113	0x3e49da1a	0.19712105
114	0x3dd50dbd	0.10403011
115	0x3dd15d0f	0.10222828
116	0xbda4e2a8	-0.08051044
117	0xbe854066	-0.26025695
118	0x3e5ee56d	0.21767206
119	0x3e0279e9	0.12741818
120	0x3d2f911e	0.042863004
121	0x3d1f0385	0.038821716
122	0x3e0d6220	0.13806963
123	0x3e937819	0.28802565
124	0x3df73f6c	0.12072644
125	0xbdbfb3da	-0.09360476
126	0x3dea37e4	0.114364415
127	0xbd7d7b9b	-0.061885457
128	0xbe5c1f98	-0.21496427
129	0xbe077488	-0.13228047
130	0x3e1789cd	0.1479866
131	0x3e6c6017	0.2308353
132	0xbde841db	-0.11340686
133	0x3c690bf9	0.014224046
134	0xbe8cc496	-0.27493733
135	0x3e569a6b	0.20957343
136	0x3c11c81c	0.008897807
137	0x3e137cbd	0.14403053
138	0x3d9eb1b6	0.077487394
139	0xbdd86591	-0.10566247
140	0x3d009c4e	0.031399064
141	0x3d62dee7	0.055388357
142	0xbde3b54c	-0.11118564
143	0xbe9b7c0d	-0.3036808
144	0xbe685f91	-0.22692706
145	0xbdb9b5ef	-0.09067904
146	0xbd3f1cbc	-0.046658263
147	0x3e006053	0.12536745
148	0x3e28eb17	0.1649593
149	0x3de22ba2	0.110434785
150	0xbe4b60f1	-0.19861199
151	0x3e2781e1	0.16358139
152	0xbcac8c5c	-0.021063022
153	0xbd814513	-0.06312003
154	0xbd8c04b2	-0.06836833
155	0x3e0b1ebf	0.13585947
156	0xbebbab84	-0.36654294
157	0xbb9d0e26	-0.0047929464
158	0xbd4edc47	-0.05050304
159	0x3e879ee3	0.26488408
160	0xbc94a26b	-0.018143853
161	0x3d86e54b	0.06586703
162	0x3e5df953	0.21677141
163	0xbe584852	-0.21121338
164	0xbe6398e7	-0.22226296
165	0x3dcfab87	0.10140138
166	0x3ec87948	0.3915503
167	0x3e74c43a	0.2390298
168	0x3e5c81a5	0.2153383
169	0x3e5ed4c9	0.21760859
170	0xbe603530	-0.2189529
171	0x3e895446	0.26822108
172	0xbe47aec7	-0.19500266
173	0x3e4ee8d5	0.20206006
174	0xbb9c60c0	-0.0047722757
175	0x3e0b19c2	0.13584045
176	0xbe6bb08b	-0.23016565
177	0x3d8d63dd	0.06903813
178	0xbe8ce5b4	-0.27519
179	0x3e8e3d9c	0.2778138
180	0x3e10b4a5	0.1413141
181	0x3d8d3be5	0.068961896
182	0x3e807ca8	0.25095105
183	0x3c353bd6	0.011061629
184	0xba394f5a	-0.0007069014
185	0xbe586476	-0.21132073
186	0xbdf11a30	-0.11772573
187	0xbe087c08	-0.13328564
188	0x3d939102	0.072053924
189	0x3a59d6d5	0.00083099055
190	0x3e9889ab	0.29792532
191	0xbe4e3aeb	-0.20139663
192	0xbdea877a	-0.11451621
193	0x3d0cfe89	0.03442243
194	0xbea5e5f5	-0.32402006
195	0xbd7d3b47	-0.06182411
196	0xbe814f35	-0.25255743
197	0x3dc4e03b	0.09613081
198	0xbdfa374a	-0.12217577
199	0xbdb1104a	-0.08645685

clf.0.bias f4 [2]
0	0x3b29925f	0.0025874597
1	0xbb2987aa	-0.0025868216
