ROSMAP/models/3/E3.pth (torch, 404229 bytes, 6 tensors)

gc1.weight f4 [200, 200]
000000 49 2d 29 3e 4b e7 c1 bd 26 7d 0a bc 4a 5e 48 be
       0.16521181 -0.09467944 -0.008452689 -0.19567218
000010 5c 3b 8f bd ad 56 1b be a7 21 60 3d 50 df a2 3d
       -0.06993744 -0.15169783 0.054719593 0.0795275
000020 1b 6c ae 3d ec 47 e7 bc 6a 4f 2b 3e 56 54 55 bd
       0.08516713 -0.028232537 0.16729513 -0.052082382
000030 41 ec 88 bd e7 52 36 bd 8e 3b 3b 3c 31 77 3e 3d
       -0.06685687 -0.044512656 0.011427773 0.04650039
000040 af 94 0e bd 81 9c d8 3d 62 96 d6 3d 38 62 ef bc
       -0.034809764 0.10576726 0.10477902 -0.029221639
000050 04 47 6d 3c f6 86 8c 3c c5 f8 05 bc 27 a4 87 3d
       0.0144822635 0.017154198 -0.008176987 0.066231064
000060 1f e0 35 3d 46 e4 c0 bd 13 04 ee 3c ea 0b 9a 3d
       0.04440319 -0.0941854 0.029054677 0.07521804
000070 13 4a dd bd 75 5d b5 bd 3d a1 06 be ff 3f f8 bc
       -0.10805144 -0.08855716 -0.13147445 -0.030303953
000080 4e 72 ff bd 56 d3 83 3d 1a f1 06 bd 39 b5 09 3d
       -0.12472974 0.064367935 -0.032944776 0.033620093
000090 0e ab ef bc c7 a9 0e bd 39 fe 2a 3d d3 4a 0f be
       -0.02925637 -0.03482988 0.041746352 -0.13993387
0000a0 c9 1f 5a bd 4c 8b b1 bd 8a 00 75 bc 6b 7d bf bc
       -0.05325297 -0.08669147 -0.014953742 -0.023375234
0000b0 c6 39 e1 3d f1 26 92 3d 12 2a 92 3d a8 27 13 3c
       0.109973475 0.07136334 0.071369305 0.008981623
0000c0 77 d5 d2 bd 62 21 81 bd aa 25 18 3d 4a b7 2d 3d
       -0.102946214 -0.063051954 0.037145294 0.042411126
0000d0 ac d6 71 bd 53 54 17 bc 96 7e 2a bc e6 95 00 be
       -0.059042618 -0.009236413 -0.010406157 -0.12557182
0000e0 96 55 3e 3d ba 2b c9 bd be 71 91 3d 1f 3d ad bc
       0.04646834 -0.09822793 0.07101773 -0.021147309
0000f0 46 2e f8 bc 6e 24 18 3d 6e f8 26 bd 5d 53 dd bd
       -0.030295502 0.037144117 -0.040764265 -0.10806916
000100 ed 20 25 bc cd 57 46 3d 4d 0d 5a 3c 4a 52 49 bd
       -0.010078651 0.048423577 0.013308835 -0.049150743
000110 58 f9 b7 bd 64 95 00 3e 7c 43 02 3d 14 7d ba 3c
       -0.089831054 0.12556988 0.03180264 0.02276472
000120 d1 0a 0e 3e 76 58 81 bc 6d e7 03 be 03 7b 55 bd
       0.13871314 -0.015789252 -0.1288125 -0.052119266
000130 32 68 ad bc 18 7c 28 be 02 aa 85 bc 18 7a 20 be
       -0.021167848 -0.16453588 -0.016316418 -0.15671575
000140 44 de 92 3c 97 f1 5f bd cd 3d 8d bd f8 75 3c 3a
       0.01792825 -0.054673757 -0.06896553 0.00071892096
000150 a7 f4 5f ba 0d 80 0a 3c ab ae e5 bc 84 2a 0b 3d
       -0.0008543231 0.008453381 -0.02803739 0.033976093
000160 5c 23 0b bd ac 91 f9 bd 26 e8 ab bd 8e 12 cc bb
       -0.03396927 -0.12185988 -0.08393888 -0.006227798
000170 88 e0 2d 3d d1 07 ce bd 73 cd 6d 3d 23 88 18 3d
       0.042450458 -0.100600846 0.05805726 0.037239205
000180 6c c4 a3 3d 7b 45 09 3d f0 c4 86 3c 1d 92 eb bc
       0.07996449 0.033513527 0.016451329 -0.028756196
000190 26 36 31 bd 24 33 99 bd 56 64 6b bd de 3f 84 39
       -0.04326453 -0.074804574 -0.057468735 0.00025224587
0001a0 a2 08 48 3c f5 31 63 3d 44 2b 5d bd 59 0e e0 3c
       0.0122090895 0.055467565 -0.05399634 0.027350591
0001b0 f7 49 4b 3e 0d bc 15 3d c0 79 a0 bd 39 25 be bd
       0.19852434 0.036556292 -0.07835722 -0.092844434
0001c0 63 f6 f3 bb c8 7e 7a bd 21 0a 22 bd 6d 48 a9 3d
       -0.007445143 -0.061156064 -0.03956044 0.08265767
0001d0 83 b4 14 3d 88 5a 63 bc 39 95 af bc dd e8 00 3e
       0.036304962 -0.013876565 -0.02143346 0.1258883
0001e0 f9 50 1b 3d e3 0c 85 3c de d9 fb 3d ed 93 c5 3d
       0.03791902 0.016241496 0.12297414 0.09647355
0001f0 45 61 13 bd 82 88 89 3d 9c ba 2a 3e f1 f0 c8 bd
       -0.035981435 0.0671549 0.16672748 -0.09811581
000200 f6 6e 81 bd cb 1f 87 3c 90 2d 88 bd 4d d5 a6 3d
       -0.06319992 0.016494652 -0.06649315 0.08146153
000210 d9 50 1d 3e 4c a7 9d bd 36 54 c2 bb 37 14 a6 3d
       0.15362872 -0.07697925 -0.005930449 0.081093244
000220 c4 19 d7 3d 52 ff 86 3d 93 7b 03 3d 31 5c 63 3d
       0.10502961 0.06591667 0.03210027 0.055507842
000230 c8 73 e9 bb f4 55 68 bb 54 de 95 3d 06 2d 46 3c
       -0.007124398 -0.0035451623 0.07317796 0.012095695
000240 96 b4 0b bd ec 9f 90 3d 79 21 c3 3b 38 4e 1a be
       -0.034107767 0.07061753 0.005954918 -0.150689
000250 aa 6e 8d 3d f7 32 2c bc 09 29 0a 3e 56 41 ac 3c
       0.06905873 -0.010510198 0.13492216 0.021027248
000260 b0 7a 9b 3d 8f 87 27 bc 23 29 d4 bd 6f ac 0c 3d
       0.0759176 -0.010225191 -0.10359409 0.034344133
000270 d4 67 11 3e ef 5d 57 3c 82 63 e2 3c 48 b8 bc 3c
       0.14199764 0.013144954 0.02763534 0.02303709
000280 8f 83 b2 bd 8b 1b 4f 3c e1 ce c8 bb 28 03 a7 bd
       -0.08716499 0.012640844 -0.0061281775 -0.08154899
000290 ec 9d ba bc fe a1 02 bd 95 87 6b bd c0 48 58 ba
       -0.022780381 -0.03189277 -0.057502348 -0.00082505867
0002a0 4f 7c d9 3d d7 25 11 bd 2d 04 3a bc 4e 62 31 bc
       0.10619413 -0.035436478 -0.011353535 -0.01082666
0002b0 97 da b9 bc ce 81 bc 3d 4d 0d 19 3d a7 dc ed bd
       -0.02268724 0.09204446 0.0373662 -0.11614352
0002c0 66 8b 23 3e ad 80 aa 3d f9 2c 35 bd ed e1 d4 bd
       0.15971145 0.08325324 -0.044232342 -0.103946544
0002d0 65 01 e8 bd 8d db d9 bc a9 d4 e1 bd dc 9a 05 be
       -0.11328391 -0.026593948 -0.1102689 -0.13047355
0002e0 6a d5 27 3b 4f 8a ab 3d 73 db 9a 3d 53 6f 3f 3d
       0.0025609382 0.0837599 0.07561388 0.046737026
0002f0 86 fa 7b bd 78 c5 c5 3b 21 ad f2 3c 8d 85 f5 3d
       -0.061518215 0.006035503 0.02962357 0.119883634
000300 3e d4 81 bc 76 19 1f 3d 8e 20 0b be 8e a9 9a 3d
       -0.015848275 0.03884264 -0.13586637 0.07551871
000310 73 a5 98 3d 31 3f c4 3b 47 5b 3c bd 9d 4c 98 3d
       0.07453432 0.0059889783 -0.045985486 0.07436488
000320 17 39 3e 3c b9 77 aa 3d 57 50 97 bd 24 4d a5 bc
       0.011610291 0.083236165 -0.073883705 -0.020178385
000330 8d eb 06 3d 4d 56 db 3b 24 ec d4 bb 60 a9 98 bd
       0.032939482 0.0066936375 -0.0064978767 -0.07454181
000340 3d 96 a1 3c 8a 26 6d 3d d6 e7 16 3c 84 26 77 bd
       0.01972496 0.05789808 0.009210547 -0.060339466
000350 e6 01 4c 3d 2b 23 a2 bd 1c 8d b3 3b 6b ea 26 bd
       0.049806498 -0.07916864 0.005479468 -0.040750902
000360 d6 1a 7c 3b 6d 7e ee 3b ff 84 96 bd 49 b1 83 bd
       0.0038468144 0.0072782547 -0.07349586 -0.06430299
000370 45 5a 02 be 54 ca f4 3d ac f3 49 bd 56 7f 19 be
       -0.12729748 0.119526535 -0.04930465 -0.14989981
000380 7f 2f 59 3d a1 ee c5 bd 7d 92 45 3d 96 2b 01 bd
       0.05302381 -0.096646555 0.048235405 -0.031535707
000390 c1 3b c9 bc 64 28 07 3d e0 6f e0 bc fc 48 16 3e
       -0.024564626 0.032997504 -0.027397096 0.14676279
0003a0 18 c2 a3 3c 8d 3d d0 3c 24 fc df bc a1 ac 58 3d
       0.019990012 0.025419975 -0.02734191 0.052899007
0003b0 71 a1 5b bc 76 60 e6 bb 67 5f 22 3d 1b dc 53 bc
       -0.01340519 -0.007030542 0.039641764 -0.012930895
0003c0 54 ac f6 3b 6a 52 10 bd db ff a4 ba e2 56 2b 3e
       0.0075278673 -0.035234846 -0.0012588458 0.16732362
0003d0 fe 22 a4 3d d8 ab d1 bd b9 ea b8 3d 8e 40 bb bc
       0.08014487 -0.10237855 0.09029145 -0.02285793
0003e0 f6 69 28 bd 39 5e 8c 3d 31 4f 8f bd 55 df 4f 3d
       -0.041116677 0.06853909 -0.069975264 0.050750095
0003f0 16 61 08 3e 65 2e 00 bd ae c1 a7 3c d7 66 88 bc
       0.13318285 -0.031294245 0.020478096 -0.0166506

gc1.bias f4 [200]
000000 25 02 21 bc 92 1b 65 bb ac e6 61 bc 56 8f 7c bb
       -0.009827171 -0.003495906 -0.013787907 -0.0038537583
000010 56 58 4e 3b 63 41 96 bb 95 6d 8b 3a 83 5c 0b bb
       0.0031485758 -0.0045854314 0.0010637516 -0.0021264858
000020 5b 27 c9 3b f5 09 c1 bb 11 f2 da 3a 30 e8 50 bb
       0.0061387247 -0.0058910795 0.0016704221 -0.0031876676
000030 cb 12 e3 bb 44 64 2f 3c e6 84 bc 3b 29 2a 21 bc
       -0.0069297305 0.0107050575 0.0057531474 -0.009836712
000040 61 e0 00 3b e5 9d 6a 3b 3e 79 02 bc ed 0c ae b9
       0.001966499 0.003579968 -0.007963477 -0.00033197497
000050 bf 6c 82 bc 41 ee 3b 3c c2 5e 9d bb 75 ba 42 bc
       -0.015920995 0.011470378 -0.004802556 -0.011885275
000060 ca fb 60 bb 76 cd d1 3a 60 bb b4 bb 39 0b 90 bb
       -0.0034329765 0.0016006667 -0.005515501 -0.004395869
000070 cd b8 2a 3a 0c 61 4d 3b 50 85 34 bc b5 52 42 3c
       0.0006512523 0.0031338362 -0.011018112 0.011860539
000080 13 ee 0a bb 91 f2 f8 bb d0 aa 00 ba 69 af 02 3c
       -0.0021199032 -0.0075972755 -0.00049082655 0.007976391
000090 97 e6 28 ba 02 78 7f bb 10 a2 b8 bb b9 aa c5 3b
       -0.0006443052 -0.0038981442 -0.0056345537 0.0060323146
0000a0 27 86 a2 bb 4b b8 b4 3b 4f ac ef 3b 1d 7c dd ba
       -0.00495984 0.0055151335 0.007314242 -0.001689795
0000b0 59 b6 a6 3a 81 93 34 3c a7 d1 ef 3b b7 f6 5a 3a
       0.0012719139 0.011021496 0.0073186937 0.00083528034
0000c0 f1 16 a4 ba 75 42 32 bc 52 de 19 bb b0 5f 63 3a
       -0.0012519044 -0.010880102 -0.002347846 0.00086736213
0000d0 04 20 0a 3b f8 85 50 bb c7 72 55 bb bb d7 c1 3b
       0.0021076212 -0.0031818133 -0.0032569633 0.0059156097
0000e0 83 dd 0b 3b 44 e5 1c 3c 1e da 0b bb 2b a7 3c bb
       0.0021341748 0.009576146 -0.0021339725 -0.0028786163
0000f0 f7 7e 13 3a 71 6d 2a bc 3d 97 25 3b 82 20 86 bb
       0.0005626524 -0.010402069 0.0025267147 -0.0040932307
000100 ff d7 73 38 6c 13 fc 3b 1b 7a 0b bb ac be a7 3b
       5.8136877e-05 0.007692745 -0.0021282497 0.0051191654
000110 57 bd ef bb 92 0d c4 3b 00 bf 6a bc 54 f3 7b 3b
       -0.0073162722 0.005983063 -0.0143277645 0.0038444595
000120 0e 1c 97 ba db c1 83 bb b0 0a d3 ba 8d 61 05 3a
       -0.0011528747 -0.004020912 -0.0016101208 0.00050880836
000130 57 53 dd 3b f3 ad 08 ba 8e fc 7b 3b a5 1c 41 bc
       0.0067543196 -0.0005213909 0.0038450095 -0.011786615
000140 2b 33 3a 3c 8b a7 1b ba 34 d6 ee b9 98 19 86 3a
       0.011364738 -0.00059377466 -0.0004555449 0.0010231016
000150 81 d3 56 bb 87 bb 19 bc 10 8f 73 3c bc cf cb bb
       -0.0032779875 -0.009383089 0.014865652 -0.006219832
000160 88 d6 68 3b 30 fb a4 39 1b df 29 3b 44 81 2b bc
       0.0035528261 0.00031467667 0.0025920335 -0.010467831
000170 dd 70 31 bb be 3e 90 bb cd dc 36 ba 85 50 12 3c
       -0.0027075328 -0.0044020107 -0.0006975651 0.00893033
000180 68 8b 5f bb ef 29 c2 3a 09 6f 12 3b 3a b5 0d bc
       -0.0034110192 0.0014813523 0.0022344014 -0.008649165
000190 09 3a 8f 3b 3d c1 2b 3c d4 0c 26 bb 74 1d d7 bb
       0.004370932 0.010483083 -0.0025337236 -0.0065647904
0001a0 14 d1 d0 3a 1c c2 f5 3a a3 e2 9d bb 64 6c 4b bc
       0.0015931451 0.0018749866 -0.004818277 -0.012415979
0001b0 e4 17 4b bc 72 2a 0c 3b 51 63 c4 ba f7 3b 97 3b
       -0.012395833 0.0021387604 -0.0014983212 0.0046153027
0001c0 f3 a0 83 bc 39 f2 0d bb ff 93 32 bc b3 31 85 3a
       -0.016067958 -0.0021659269 -0.010899543 0.0010161906
0001d0 2f ce f8 bb fa 36 b5 bb 92 06 04 bc 23 d6 dc 3b
       -0.0075929384 -0.0055302354 -0.008058207 0.0067393943
0001e0 6f 35 ef 3a 13 e3 1c 3a ca 8c 9d bb 5f b5 f1 b9
       0.0018250177 0.00059847644 -0.004808043 -0.00046102234
0001f0 e5 2b 9a 39 86 a4 42 3b b1 7d 8f 3c 68 4c e1 bb
       0.00029405873 0.0029700114 0.017515989 -0.0068755634
000200 db 7f a4 ba fb 13 9e bb bc ac 31 bc ba 3b 05 3c
       -0.0012550311 -0.004824159 -0.010844406 0.008131916
000210 17 4e 44 bb 64 ac de 3b 07 3e 92 ba 6c d8 72 bc
       -0.0029953772 0.006795453 -0.0011157402 -0.014822107
000220 94 10 a8 bb 7f a3 c0 3b c5 10 aa 3b 50 8b ce 3a
       -0.0051289294 0.0058788653 0.0051899874 0.0015758071
000230 cf 32 fc ba b3 c2 44 3b 28 1a d2 3a 9a 4e 44 bc
       -0.0019241216 0.0030023276 0.0016029524 -0.011981631
000240 a9 7a ff b8 8a 4f 98 bb d2 1d a6 bb 9f 45 21 3c
       -0.00012182195 -0.0046481537 -0.005069473 0.009843259
000250 03 f4 08 bc 71 a8 51 bb 1a fb 12 bc 37 27 38 b9
       -0.008358958 -0.0031991268 -0.008971 -0.00017562216
000260 87 59 67 bb 15 cc ee b9 f1 85 86 3b 3e 8a e7 3b
       -0.0035301165 -0.0004554695 0.0041053225 0.0070660403
000270 13 5e fe 39 98 09 5b bc c8 e4 b7 3b eb 39 64 bc
       0.00048516746 -0.013368987 0.0056119896 -0.013929824
000280 10 bb 28 bb cf e4 64 3a 43 76 8e 3b e2 0e 8d bb
       -0.0025746264 0.0008731605 0.004347594 -0.0043047527
000290 b4 76 19 3c 65 f7 9d 3a 69 6c 0c bc b2 fd eb 3a
       0.00936668 0.0012051879 -0.008570769 0.0018004684
0002a0 9e 3c 0b bb 19 57 94 3a b5 ad 87 bc fd 7d d1 3b
       -0.0021245847 0.0011317461 -0.016562322 0.006393193
0002b0 db ab 07 bb 5f bd 44 bb c8 1a 17 3b 4b f1 e1 3b
       -0.00207018 -0.00300201 0.0023056734 0.0068952194
0002c0 13 a8 bc 3a 67 66 2f ba 47 8b ec bb b2 9a a7 bb
       0.0014393352 -0.00066909794 -0.0072187516 -0.0051148767
0002d0 ce 00 87 3b 10 dd 1d 3b 52 13 8d 3a 40 90 36 bc
       0.004119969 0.0024088062 0.0010763204 -0.01114279
0002e0 ae 6b cd bb fd f3 c0 3b 64 f5 94 bb b6 68 e2 3b
       -0.00626894 0.0058884607 -0.0045458544 0.006909455
0002f0 76 1f 32 bc f4 e0 17 3c 9a 3e 2a bb 57 da 5d bb
       -0.010871759 0.009269942 -0.0025977255 -0.0033852065
000300 29 74 2e bc 17 13 63 bc 38 09 ed 3a d7 6a 18 3b
       -0.010647812 -0.013859532 0.0018084412 0.002325704
000310 a9 d7 a3 bb 7b 20 ec b9 3b ee 53 bb 15 57 e8 3b
       -0.005000074 -0.00045037628 -0.0032338041 0.007090459

gc2.weight f4 [200, 200]
000000 e1 cd 8b 3c a2 33 b1 bd 6e dd 20 bd 05 b1 29 be
       0.017065944 -0.08652426 -0.03927367 -0.16571434
000010 1f 69 98 bd 24 0b 4e 3c 4a 51 a9 3c 6a f3 95 bb
       -0.07441925 0.012575898 0.020668644 -0.0045761364
000020 07 97 8b bd 32 94 c0 3d 21 a5 17 be 85 cb aa 3d
       -0.068159156 0.09403266 -0.14809085 0.083395995
000030 2c 34 e4 3c b0 2f e9 3b 99 44 11 3e 3a b1 0b 3d
       0.027856909 0.0071162805 0.14186324 0.034104563
000040 a2 aa e8 3b 7a 5d ab 3c 6b 39 15 bd ad 35 03 3d
       0.007100419 0.020918597 -0.03643171 0.03203361
000050 73 da 43 3c 70 02 22 bd f4 f8 bb 3c 3d a5 f3 bc
       0.011953938 -0.039553106 0.022945859 -0.029741878
000060 0a 7b f3 3c 03 55 c7 3d 04 81 c8 3d 96 21 52 bd
       0.029721756 0.097330116 0.09790233 -0.05130156
000070 17 78 28 3d 8e f8 05 bd f8 00 ce 3d 4a 50 ab bd
       0.04113015 -0.032707743 0.100587785 -0.08364923
000080 12 e6 1e bd fe 95 25 bd 4a 61 49 3d a9 4f 22 bd
       -0.03879363 -0.040426247 0.049165048 -0.03962675
000090 4a cd da 3d 40 4c 63 bd de de 42 3d 88 a7 b5 bc
       0.10683687 -0.05549264 0.047575824 -0.022174612
0000a0 64 6b b7 3d e9 c6 de 3c 21 04 39 bd 40 1c 02 bd
       0.0895603 0.027194457 -0.045169953 -0.031765223
0000b0 75 ff d8 3a 6f a9 46 bd 06 4d af bd 37 1c 33 bd
       0.0016555624 -0.04850143 -0.08559613 -0.04372808
0000c0 ab 08 a7 3d 3f 3f 8e 3d 72 d5 20 bd e3 67 95 3d
       0.0815595 0.06945657 -0.039266057 0.072952054
0000d0 72 fd 01 bc 7f 5e 75 bd 66 f0 1e 3d d5 ee 31 bc
       -0.007933961 -0.05990457 0.03880348 -0.010860165
0000e0 6c 04 10 bd 99 0e 87 bc ef 98 9b bd 5d 55 4d 3b
       -0.035160467 -0.016486453 -0.07597529 0.0031331398
0000f0 89 55 f4 3d 7b 32 1f 3d 4b 18 11 bd 75 ac 92 bd
       0.11930377 0.0388665 -0.03542356 -0.071618
000100 d3 e5 86 3c 8e bd d5 bd 92 2a 32 bd 3d 85 e3 3c
       0.01646701 -0.10436545 -0.04349763 0.027773494
000110 fa 09 d8 3b 1e 48 07 bd d8 b7 aa 3c 24 aa a1 bd
       0.006592986 -0.03302776 0.020839617 -0.0789378
000120 60 be c9 3c 57 c5 bb bc 23 47 16 bd 3a 88 d8 bb
       0.02462691 -0.022921247 -0.036688935 -0.0066080363
000130 33 08 c7 3d d7 06 37 3d 8e 8f 81 3d a1 37 7e bd
       0.09718361 0.044684257 0.06326209 -0.06206477
000140 c1 9a 61 bd b7 60 8b 3d 0f ea 39 bb c4 f7 b4 bd
       -0.055079225 0.06805556 -0.002836827 -0.0883632
000150 30 38 7f bd f8 07 9e 3c 55 d6 86 bd 26 e9 ad bc
       -0.062309444 0.01929091 -0.06583849 -0.021229338
000160 b9 c6 3c bd e2 c1 8f bd dd 09 0a bd 58 d5 b5 bc
       -0.046087954 -0.07019402 -0.033700813 -0.022196457
000170 47 64 8e 3d 50 bd 90 3c f2 41 9d 3d d3 2b c6 ba
       0.0695272 0.017668396 0.07678594 -0.0015119262
000180 e6 bf 8d 3c 2e f6 d0 3d 6a 44 33 be a0 16 eb bc
       0.017303418 0.10203205 -0.17506567 -0.028697312
000190 fd ca 15 3d 6c ca 99 bd f9 68 75 bd 62 2a e1 bd
       0.036570538 -0.07509312 -0.059914563 -0.10994412
0001a0 b7 26 0a 3d b6 d1 b7 bd e9 89 1b bc fe 7f 42 bc
       0.033728328 -0.08975546 -0.00949333 -0.011871336
0001b0 c9 71 6f 3d 63 45 2c bd fe 06 93 bd 73 04 24 bc
       0.058458123 -0.04205836 -0.07179068 -0.010010826
0001c0 6e 91 95 bd fb d4 b4 3c 72 67 8a 3d 31 41 0e be
       -0.07303129 0.022074213 0.06758012 -0.13892056
0001d0 f6 f0 ce bd 1c 94 a7 3d 8e df 0c bc c9 fd 80 bd
       -0.101045534 0.081825465 -0.0085982215 -0.06298406
0001e0 7b af 27 be d9 28 ee 3d 1d 06 50 bd 83 e7 fc 3d
       -0.16375534 0.11628885 -0.05078708 0.12348845
0001f0 e5 96 1f bd 7e b2 66 3d 14 ef a4 bc ec cf cd bc
       -0.038962264 0.056322567 -0.020133533 -0.025123559
000200 df 27 85 bc a6 e4 3a 3d 51 03 8c 3c a7 d8 53 bc
       -0.016254364 0.045628212 0.017091425 -0.012930072
000210 8c b1 0c be 56 2b 0b bd 41 de 29 3d e8 13 bc 3d
       -0.13739604 -0.033976875 0.041471723 0.09183484
000220 8c db 84 bd fa 2b 51 3d 20 a8 86 3d 06 f1 93 bd
       -0.06487188 0.05106733 0.06575036 -0.07223706
000230 46 89 b4 3d b1 fa b9 bd 9f 26 a8 bc 84 c1 69 3c
       0.08815245 -0.09081019 -0.020526228 0.014267329
000240 2d 88 6b 3d 7f a5 2a 3c f3 04 a9 3d 80 c6 10 bd
       0.057502914 0.010415434 0.08252897 -0.035345554
000250 2d d6 0b bd 07 37 a6 bc e2 0a a7 bd bf 5d 13 3d
       -0.0341398 -0.020289911 -0.081563726 0.035978075
000260 a8 9b 9d 3d 17 5d 1d 3c 5e fb 83 bd e3 a0 69 bd
       0.07695705 0.009604714 -0.06444429 -0.0570382
000270 aa ae 14 bd 91 13 a9 bc 2d 3c 9e 3c 9b 67 e3 3d
       -0.036299385 -0.020639213 0.019315803 0.111037455
000280 c8 33 a9 3d 14 d8 8c bd 2d 47 d2 bc 0c 93 1b 3d
       0.082618296 -0.06877151 -0.025668705 0.03798203
000290 d5 71 97 bc dd 23 40 3d fa 06 79 bd 46 65 06 3d
       -0.018486897 0.046909202 -0.06079767 0.032811426
0002a0 45 50 88 3d fc d4 15 be 52 f9 1e ba dd ac 89 bd
       0.06655935 -0.14632028 -0.00060643733 -0.06722424
0002b0 59 87 a7 bb 36 fb 1c bd 18 02 bb bd 66 84 86 3d
       -0.0051125702 -0.03832551 -0.09131259 0.06568222
0002c0 56 99 ef 3c 11 64 b4 3d d0 54 54 3c b1 fa cb 3d
       0.029247921 0.08808149 0.012959674 0.09959925
0002d0 67 e3 b3 3b 22 c0 a2 3b bf c4 10 3e 9f a6 c0 38
       0.005489755 0.0049667517 0.14137553 9.186309e-05
0002e0 d4 9c ae bc 7f f9 5c bd e0 7e b0 3b f5 2b 20 3c
       -0.021315016 -0.053948876 0.0053862184 0.009776105
0002f0 a5 13 fd bd aa 52 ad bd f7 a2 cc 3c 58 91 c6 bc
       -0.123572625 -0.084630325 0.024980051 -0.024239227
000300 55 f9 80 bd e5 19 58 be e9 32 02 bd a2 b7 c2 3c
       -0.06297556 -0.21103628 -0.031786833 0.023769204
000310 06 18 77 bc 03 a1 67 3d 9d 15 44 3d b2 0a f7 3c
       -0.015081411 0.056550037 0.047872175 0.030156467
000320 85 08 25 be 40 5f 87 3d a9 12 bc 3d d1 aa 30 bd
       -0.16116531 0.06609964 0.09183247 -0.043131653
000330 68 b4 50 3d d3 41 8f 3d 21 52 4a bc 62 fc 57 bc
       0.0509533 0.06994977 -0.012348683 -0.013182731
000340 0a 88 d4 bc 5d fb b8 bc 2d 14 41 3e 0a 9f 54 3c
       -0.025943775 -0.022580797 0.18855353 0.012977371
000350 1f 9f 2a 3d b1 37 f2 3d 18 85 03 3d 5c af d6 bc
       0.041655656 0.118270285 0.03210935 -0.026206665
000360 33 5c 11 3d e5 6e 11 3c e7 d5 3f bd 87 03 4e 3d
       0.03548832 0.008876537 -0.046834853 0.050296333
000370 64 6f f9 bc 7f 9b f4 bd 51 7f 3a 3e 3f c7 18 3c
       -0.030448623 -0.11943721 0.1821263 0.009324848
000380 7d 4e e4 bd c8 3b 36 bd 41 6f dc 3d eb 00 ec 3c
       -0.11147783 -0.044490606 0.107634075 0.028809031
000390 c3 27 84 bc 2c 6f 0c 3e 56 9d 8c bd c5 a8 95 bc
       -0.016132241 0.13714284 -0.06865947 -0.018268952
0003a0 7d 84 0a 3d 4a be dc bd fb 86 d0 bc 98 1a 97 3d
       0.033817757 -0.10778482 -0.025454989 0.07378119
0003b0 a5 b2 8c bd c7 fa de bc 08 c2 3c 3c 5a 0e b4 bc
       -0.06870011 -0.02721919 0.01152087 -0.0219795
0003c0 15 91 2b 3d 82 ad bf 3d 18 f9 d7 3c e1 13 24 3d
       0.041886408 0.09359266 0.026363894 0.04005802
0003d0 9c d2 37 3d c6 7f 25 3d 19 57 0a 3d f7 df e3 3d
       0.044878587 0.040405057 0.03377447 0.11126702
0003e0 ec 3a 56 bd 1c a8 a4 3d 33 ee 95 bd 8e 4e aa bd
       -0.052302286 0.08039877 -0.073208235 -0.08315764
0003f0 ad 2c 11 3d 24 21 08 3e f3 d2 cb 3d 57 4a 86 bb
       0.035442997 0.13293892 0.09952345 -0.0040982175

gc2.bias f4 [200]
000000 23 2e 19 bc ff 96 38 bd e8 71 2d 3c 01 a0 b1 bc
       -0.009349379 -0.045065876 0.010586239 -0.021682741
000010 6b 30 87 bc b8 a3 fb bc 9f b8 ac bb 57 96 5b bc
       -0.01650258 -0.030717716 -0.005271032 -0.013402543
000020 f6 30 80 3a 58 95 85 bc b1 c3 61 3c 3b 5b 54 bb
       0.0009780216 -0.016306564 0.013779567 -0.003240301
000030 62 3f d2 bc 7f 92 7d bc 1b ec cd ba fd 91 16 bc
       -0.025664989 -0.015476822 -0.0015710624 -0.00919008
000040 8a ff 5a bc fc b3 9b 3b 18 55 ac bc 62 03 b8 bc
       -0.013366589 0.0047516804 -0.02103667 -0.02246255
000050 fd 7d f0 bc b9 ef d9 3b 0e d3 cc 3b 75 77 d5 ba
       -0.02935695 0.0066508916 0.0062507456 -0.0016286211
000060 8a 5b b2 bc 58 92 b0 bc 8d 68 ca bc bc 64 23 bc
       -0.021772165 -0.021554157 -0.024708057 -0.009972747
000070 26 fd c3 bc 05 ab c0 bc 16 b3 44 bd 0c eb 30 3c
       -0.023924422 -0.023519048 -0.048022352 0.010798227
000080 82 a7 93 bc 4d 62 08 bd bb 46 4c bc 79 9d d7 bb
       -0.01802421 -0.033296872 -0.012468035 -0.0065800515
000090 9e 97 94 bb 45 00 a6 bc 29 82 53 bc 1f a3 1a bc
       -0.0045346757 -0.0202638 -0.012909451 -0.009438305
0000a0 24 f9 00 bc 31 04 90 3c 60 95 89 bb f1 4a f9 bc
       -0.0078719 0.017580124 -0.004198715 -0.030431243
0000b0 25 15 5a bd 97 29 2d bc 92 b2 39 3b ca 6e ae bc
       -0.05324282 -0.010568998 0.0028335196 -0.021293063
0000c0 5f 33 57 bd 64 81 30 ba 60 91 d2 bc 5e ee 96 bb
       -0.052539226 -0.0006733148 -0.025704086 -0.0046060523
0000d0 04 4d 8d bc e8 51 16 ba b9 24 cf bc 6e 7f a5 3c
       -0.017248638 -0.0005734251 -0.025286065 0.020202365
0000e0 db f0 62 3b c0 e4 47 bc 4a 4b 67 bc ed 2d 54 bc
       0.0034628424 -0.012200534 -0.014117071 -0.012950403
0000f0 56 00 8f bb 38 42 0a 3b 15 46 2d bc 5a 4d 0b bb
       -0.0043640537 0.0021096598 -0.010575791 -0.0021255822
000100 69 fd 10 bd 11 b5 c8 bc a6 ec 1a bd 67 2f c1 3b
       -0.03539792 -0.024500402 -0.03782334 0.0058955434
000110 f8 2d d5 bc 61 ff 00 ba bc 89 fa bc 86 f7 67 bd
       -0.026022896 -0.0004920867 -0.030583255 -0.05663254
000120 ce 1a 2e bc 6b bf 14 bd f7 cc c7 bc e2 d6 72 bb
       -0.010626508 -0.036315363 -0.024389727 -0.003705435
000130 e3 ca fa 3c f6 8d f9 ba 45 c4 a2 3a dc 19 23 3d
       0.030614322 -0.00190395 0.0012418112 0.039819583
000140 5c 5a 7f bc 2f 35 1e bd 1a 13 15 bd 31 98 bd bc
       -0.015585508 -0.03862494 -0.03639517 -0.02314386
000150 77 42 9a 3b 02 fc 2b bc 8a e0 20 bc 90 f6 93 3b
       0.0047076303 -0.010497095 -0.009819159 0.0045154765
000160 08 7a 62 3c a0 69 7c bc 0e 62 4b bc 12 98 14 3c
       0.01382304 -0.015406042 -0.012413515 0.0090694595
000170 f1 be 3f bc 11 57 e2 bc 16 36 c1 bc 27 39 d6 bc
       -0.011703239 -0.027629407 -0.02358536 -0.0261503
000180 76 1e ba bc ac 6d 71 bc 49 fc ae bc c4 20 21 bd
       -0.022719603 -0.0147356205 -0.021360533 -0.03933789
000190 d8 cd b5 bc e2 af c6 bc 55 d6 aa bb d5 e4 b4 bb
       -0.02219288 -0.02425379 -0.0052135387 -0.005520443
0001a0 06 7e a8 bc 50 bd 84 bb 72 05 d8 bc c4 f5 41 bc
       -0.020567905 -0.004050888 -0.026369784 -0.01183838
0001b0 d7 c4 e0 3a 64 e3 ee b9 08 f4 8e bc 38 a4 9e bb
       0.0017148507 -0.00045564317 -0.017450348 -0.0048413537
0001c0 7e 7e 5c 3c 1f 08 1e bd 33 48 27 bd 21 d8 ab bc
       0.013457892 -0.038581964 -0.04084034 -0.020977082
0001d0 d2 f8 b5 3c 08 6f 6e bc b6 7c 33 bc 35 24 15 bc
       0.022213373 -0.014552839 -0.010955026 -0.009102871
0001e0 a9 f2 98 bc dc 41 87 bb fb 13 3c bc e0 be 96 bb
       -0.018670397 -0.004127724 -0.011479373 -0.004600391
0001f0 d0 3b c6 ba ea cb f3 bc aa be b3 bc f7 6e 2b bd
       -0.0015124027 -0.02976032 -0.021941502 -0.04185387
000200 42 c3 1b bc 88 71 6f bc 04 9c 69 bc df e7 f1 bc
       -0.009507002 -0.01461447 -0.014258388 -0.02952951
000210 3f 03 98 bc 83 18 09 3c 2c 29 86 bc 2a af 3b bc
       -0.018556235 0.00836766 -0.016377054 -0.011455337
000220 68 8e af bc d7 ab 27 bd de 24 b0 bc cc 44 8f 3c
       -0.02143021 -0.040935364 -0.021501955 0.01748886
000230 ff 8c 3a bc 2a 5a 85 bc 2e 08 e4 bc f0 3b 69 bc
       -0.011386155 -0.016278345 -0.027835932 -0.014235482
000240 14 6b c4 bc f7 67 24 bd 7e 61 de bc 5c d1 89 bc
       -0.02397684 -0.04013821 -0.027146097 -0.016823463
000250 4f 42 c7 bc f1 2c 51 bd f0 08 a2 bc 96 70 c0 3c
       -0.02432361 -0.05106825 -0.019779652 0.023491185
000260 37 10 c4 3a 6f ef 48 bb df 2a 4d bb 96 cd 16 bd
       0.0014958446 -0.0030660292 -0.003130607 -0.036817156
000270 32 70 6b 3c f3 3f dc bc 0f 44 6f 3b 9b b9 a0 bb
       0.014370011 -0.026885962 0.0036509072 -0.0049049384
000280 66 50 b8 bc 17 44 c2 bc 42 a0 87 ba 45 86 96 bc
       -0.022499274 -0.023714108 -0.0010347443 -0.018374572
000290 1f 9d 47 bd 96 5f 15 bd fc df b7 bc 2d 6a bd bb
       -0.048733827 -0.03646811 -0.022445671 -0.0057804794
0002a0 37 b2 bd bc 14 a3 bd 3b 18 99 9c 3a 85 b2 1e bb
       -0.023156269 0.0057872627 0.0011947481 -0.0024215293
0002b0 f8 f1 e0 bc aa d0 cb bc 8b 96 88 3c 40 63 df bc
       -0.02745913 -0.024879772 0.016673347 -0.027269006
0002c0 5c 08 45 bc 42 00 91 3b 43 6d 3b 3c bd bb da bc
       -0.012025919 0.0044250796 0.011439624 -0.026700849
0002d0 b3 b9 54 bc 14 26 8c 3b 71 83 90 bc 8d 18 ec 3c
       -0.012983727 0.004277 -0.017640801 0.0288203
0002e0 55 c1 f3 3c eb 90 5a 3d 81 d6 07 bb c0 79 ed bc
       0.029755274 0.05336086 -0.002072722 -0.028988719
0002f0 8f af 9c 3c a2 b8 e0 ba 87 73 45 bc 89 d4 26 3c
       0.019126682 -0.0017144869 -0.01205147 0.010182508
000300 eb d1 04 bc d6 27 32 bc a2 aa eb bc 62 05 12 bd
       -0.008106689 -0.010873755 -0.028767888 -0.035649665
000310 ea 69 3d bc c7 1b 7b bc 78 a2 fd 3a 4f 83 a4 bb
       -0.011560896 -0.015326447 0.0019350788 -0.005020536

gc3.weight f4 [200, 100]
000000 10 d3 b8 3c c3 2a 6f bd ed f3 cf 3d 13 0d bf 3d
       0.02256158 -0.05839039 0.10153947 0.093286656
000010 2a d2 1c 3e b4 72 86 bd e7 52 8d bd d2 fb 32 3d
       0.15314546 -0.06564847 -0.06900578 0.043697186
000020 1e 67 48 bd 59 27 7c 3d 87 dd 23 3c b4 a6 90 3d
       -0.048926465 0.061560962 0.010001547 0.07063046
000030 86 79 73 bc 8c 42 88 3d ad ea 97 bd 0e 0d a5 bc
       -0.014860516 0.06653318 -0.07417808 -0.020147827
000040 30 95 15 3e 70 a2 12 bd 9b 0c 38 3d 62 96 19 3d
       0.14607692 -0.035799444 0.044933897 0.03749693
000050 b5 cc fe bd da 25 8a bd 05 c8 67 3c 8d 72 af bd
       -0.124413885 -0.06745501 0.0141468095 -0.08566771
000060 91 73 01 bd 00 fa c3 bd da 98 49 bc 15 10 e5 3b
       -0.031604353 -0.09569168 -0.012304509 0.0069904425
000070 04 aa 24 be 01 7d 35 bd 8d 94 17 3e d3 84 f8 bd
       -0.16080481 -0.044308666 0.14802761 -0.12134709
000080 04 67 dc bd 53 1b 5f 3c 41 e7 06 bd ba e2 79 bd
       -0.10761836 0.013617354 -0.032935385 -0.06100724
000090 a9 00 15 3e 77 9a 4e 3d 23 ae 21 3e 5d 8d 08 3e
       0.14551033 0.050440278 0.15789084 0.13335176
0000a0 7f f3 27 bd 37 c7 c5 bd d4 f7 09 be a4 10 4c bb
       -0.0410037 -0.09657138 -0.13473445 -0.0031137848
0000b0 ab cf 9f bd 20 d8 9d bd db 30 91 3d 22 00 35 3e
       -0.078032814 -0.07707238 0.070893966 0.17675832
0000c0 a7 24 48 3d 10 6a dd 3d e9 0c bc bc 81 d9 85 bd
       0.04886308 0.108112454 -0.022955375 -0.06535626
0000d0 d4 84 0e bd b1 85 48 3c de 0f c8 3d 70 3a b2 bc
       -0.034794644 0.012238906 0.097686514 -0.02175638
0000e0 2c a7 03 3d bb bf 3a 3c 8b 84 92 3d 6c fd 32 3d
       0.03214185 0.011398251 0.07154187 0.043698713
0000f0 84 0d 0c 3e 56 ec 12 3d 69 a6 72 bd fa 3b 9d bd
       0.13677031 0.03586992 -0.059240732 -0.07677455
000100 c9 3d 8e ba e2 05 ca 3d 39 b5 e3 bc 5b f5 25 3d
       -0.0010852154 0.09864403 -0.027796375 0.040517192
000110 ef f3 d0 3d a9 1e 16 3d 21 d6 0b be c7 42 ba bd
       0.10202777 0.036650334 -0.13655902 -0.09094768
000120 c3 0a 76 bd b0 e6 01 3e bf 11 43 3d da 8b 4a 3d
       -0.060068857 0.12685657 0.047624346 0.04944978
000130 f7 73 f4 3d 60 a4 a0 bd e6 be 2a be b3 34 6c 3d
       0.11936181 -0.07843852 -0.16674384 0.057667445
000140 02 07 16 3d 04 b5 ec 3d b1 f3 31 bc ad c5 a3 3d
       0.036627777 0.115579635 -0.010861323 0.07996688
000150 77 e4 69 bc 44 a3 1b bd 73 41 10 3d 6f 7d f5 bc
       -0.014275662 -0.0379975 0.035218667 -0.029967038
000160 84 51 96 bd 54 7f a4 3d 32 de 55 3e 78 a1 94 3d
       -0.073397666 0.080320984 0.20885542 0.0725736
000170 9f 28 0d be ca fc a5 3d 86 81 a5 bd 43 1e a9 bd
       -0.13785027 0.08104856 -0.08081345 -0.08257725
000180 05 2c 76 bd 20 35 63 bd 97 36 a1 bc a3 e9 53 be
       -0.060100574 -0.055470586 -0.01967935 -0.20694594
000190 a8 56 b9 bc 87 cd c4 bd 9c 23 b6 bd 56 63 2d 3e
       -0.022624329 -0.09609514 -0.08893511 0.16932425
0001a0 c3 56 71 bd 0d 59 d6 bd 9b 17 6d 3d cb 5d 2c 3c
       -0.058920633 -0.10466204 0.05788384 0.010520409
0001b0 fc 81 1f bd a4 a1 cb 3d 7c 5f e3 bd 31 ec 8e be
       -0.038942322 0.0994294 -0.111021966 -0.27914575
0001c0 18 c5 51 bd 88 54 13 3e 5d 39 58 3e 41 46 3c 3d
       -0.051213354 0.14387715 0.21115632 0.045965437
0001d0 9c b7 53 be 42 9d f4 bd 79 45 dd 3d 8b 4f 2c 3e
       -0.2067551 -0.11944057 0.108042665 0.16827218
0001e0 4b cc f6 bd 81 49 d0 3d 07 02 b5 3c 56 ad e5 3c
       -0.120506845 0.1017027 0.022095693 0.028036755
0001f0 21 5f df bd 25 b7 14 3d b3 43 b2 3d e5 6d 7c 3c
       -0.10906816 0.036307473 0.08704319 0.01540706
000200 88 12 03 be 71 97 a7 bd 14 5a 2c bd ce 2d 1c 3c
       -0.12800038 -0.08183182 -0.042078093 0.009532405
000210 f7 ab d9 3c 70 22 f1 3d 49 59 72 bd d0 1c 37 3e
       0.026571257 0.117741466 -0.05916718 0.17882085
000220 bc 01 dc 3d 53 3c 9b bd eb a7 98 bd 3c da 13 be
       0.10742518 -0.07579865 -0.07453903 -0.14438719
000230 eb fe c4 bd 96 c9 04 3e 8f e5 c0 3c 13 a3 99 ba
       -0.09618934 0.12967524 0.023546962 -0.0011721574
000240 8a d2 19 bc dc c0 df bd 32 2f cb 3d a5 ed 14 3e
       -0.009388575 -0.10925457 0.09921111 0.14543779
000250 12 ed 64 bd 8a b5 55 3c 37 41 8d 3d 8d 7c 0f 3e
       -0.05589015 0.013043771 0.06897204 0.14012356
000260 29 39 98 bd 7c d6 2b be 47 84 a1 3d 6d 16 96 bd
       -0.074327774 -0.16781038 0.07886558 -0.07328496
000270 2a 97 1a be b3 a2 84 bd f1 e5 40 3e 38 1e cf 3d
       -0.15096727 -0.06476345 0.18837716 0.10113186
000280 49 f8 fc 3d 6b 95 b4 bb ce 08 81 3d 88 57 ed 3d
       0.12352044 -0.005510976 0.063005075 0.11588961
000290 3a bc bd bd 64 a8 92 3d 0a 43 02 3e 0e 4a 0d 3e
       -0.09264417 0.07161024 0.12720886 0.13797781
0002a0 37 19 45 3e 7b fa f4 bd 00 a3 c2 bc a0 de 57 bc
       0.192479 -0.11961838 -0.023759365 -0.0131756365
0002b0 89 4e 5c 3b 6d 9d 5f 3d 2e 41 a5 bc f6 11 ba bc
       0.0033616147 0.054593492 -0.020172682 -0.022713643
0002c0 cc dd fe bc ad 32 8f 3c a4 dd 28 3e 04 05 bd 3d
       -0.03111162 0.017480219 0.16490799 0.09229472
0002d0 2e db 1f 3e 36 c2 92 3d 87 a8 17 3d 64 a7 ce 3d
       0.15610954 0.07165949 0.037025955 0.10090521
0002e0 47 0f a7 3c 26 6f 0d bc 3b 7d 90 bd a3 7d 84 3c
       0.020393027 -0.008632457 -0.07055136 0.01617319
0002f0 79 a9 ab 3d 2e f9 ec 3d 36 94 8c 3d 35 29 d0 bc
       0.08381934 0.11570965 0.068642065 -0.025410274
000300 9c f1 9a bb 91 10 81 3e e6 ed 3b bd 10 8d e2 bb
       -0.004728509 0.25207952 -0.045881175 -0.0069137886
000310 bb d1 04 bd 35 ff 03 3e 9c f7 7f 3d 7a ac 0e bb
       -0.032426577 0.12890323 0.062491998 -0.0021770285
000320 8e 8c 4f bd cb 59 01 bd 15 ac 48 3d 61 3d 80 3d
       -0.050671153 -0.031579774 0.048992235 0.06261707
000330 5e 83 7d 3d d5 6c 51 bd 53 7c 54 3e 6e bc d2 bd
       0.06189286 -0.05112918 0.20750551 -0.10289846
000340 ab c4 4b bc c3 41 a0 bc 67 18 06 be 46 46 ab bd
       -0.012437026 -0.019562608 -0.13095246 -0.08363013
000350 69 3c b9 bd a0 17 17 3e b9 4f cd 3d 99 26 98 3d
       -0.090447254 0.14755106 0.100249715 0.07429237
000360 7e 61 25 be 6b 48 5c bd 25 0f d9 3d 95 68 82 bd
       -0.16150472 -0.05378 0.10598592 -0.06367604
000370 2d 20 36 bd 33 92 1e 3e ee d4 40 bc 00 8e ea 3d
       -0.04446428 0.15485458 -0.011769516 0.114528656
000380 f8 54 26 bd 77 a2 fc bc 45 6d 51 be 63 24 a0 bd
       -0.040608376 -0.030839188 -0.2045184 -0.0781944
000390 57 43 39 3d c7 ea 82 bc 15 a3 22 3e 93 7b 1e be
       0.045230236 -0.015981091 0.15882523 -0.15476827
0003a0 84 5a 1b be eb 4f c5 3d 2f 16 2d 3d 9b 27 b0 3d
       -0.15171248 0.09634384 0.042257484 0.08601304
0003b0 cd f0 b2 bc 9b b8 69 3e 9a 4f 39 bc 22 3f 2d 3c
       -0.021843338 0.22824328 -0.011310482 0.010574134
0003c0 b8 36 1c 3c 16 dd e0 bb be 20 33 bd 32 0b 28 be
       0.00953453 -0.006862293 -0.043732397 -0.1641052
0003d0 8b 87 ba bc b5 9f a9 bd 59 dc 9a 3d ac 4b 52 bd
       -0.02276971 -0.08282415 0.07561559 -0.051341698
0003e0 31 31 76 3d 2a 92 02 bc 23 5f 63 bd d1 28 a6 3d
       0.060105506 -0.007969419 -0.05551065 0.08113254
0003f0 e7 59 ed bb cc a0 06 3d 67 47 2d 3e 6e 76 4d 3d
       -0.007243383 0.03286819 0.16921769 0.05016177

gc3.bias f4 [100]
000000 30 40 0c bd d5 eb eb bb 67 3f c3 bc a2 de b0 bc
       -0.0342409 -0.007199744 -0.023833944 -0.021590535
000010 9d 98 74 bc 23 9a db bc ec 4e 73 bc be 7c c0 bc
       -0.014928964 -0.026806897 -0.014850359 -0.023496982
000020 25 51 ac bc 64 d2 2a bc d9 e8 04 bd f2 0e 86 bc
       -0.021034786 -0.010426138 -0.032448623 -0.016364548
000030 d6 73 c1 bc 6c cc 58 bb 1d b7 d2 3b ed a4 4d 3c
       -0.023614805 -0.003308083 0.00643052 0.012551528
000040 29 a2 3c bc 15 e3 a1 bc 81 e6 9a bc 9a 74 38 bd
       -0.011513271 -0.019761601 -0.018908741 -0.045033075
000050 d7 83 f7 bc 00 f4 6d bc eb a4 88 bc 60 dc 2f bc
       -0.030214233 -0.014523506 -0.016680202 -0.010733694
000060 c5 b7 15 bd ce 83 9a bc 6a 8d a5 bb 03 84 ee bc
       -0.03655221 -0.018861677 -0.0050522583 -0.029115682
000070 82 d2 25 bd aa bd cc bc bb e3 92 ba 43 fa 23 bc
       -0.04048396 -0.024992783 -0.0011206785 -0.0100083975
000080 69 54 af bc 11 29 27 bd 9e a5 df bc 61 2c b9 bc
       -0.021402555 -0.04081065 -0.027300652 -0.02260417
000090 e9 2a 98 bc 3b e0 db bc 46 39 94 bc 20 30 46 bc
       -0.018575149 -0.02684032 -0.018093716 -0.012096435
0000a0 3c bb 6c bc 7c 2a 62 bc e3 a8 8f bc b4 ba eb bc
       -0.014448937 -0.013804074 -0.017536586 -0.02877555
0000b0 46 af c0 bc a4 33 c3 bb c4 ef c6 b9 c3 d6 4e bc
       -0.023521077 -0.005957084 -0.00037944142 -0.012624445
0000c0 ec 1a a3 bc 00 c3 45 bb c3 86 a4 ba 00 df 2a 3c
       -0.019910298 -0.0030176044 -0.0012552369 0.010429144
0000d0 62 2c 34 bd 58 c3 c8 bc 8a 51 a9 bc 34 27 cc bc
       -0.04398764 -0.02450721 -0.020668764 -0.024921037
0000e0 c4 85 ba bc 46 c7 3a bd 8a b5 0f bd 54 15 5d b8
       -0.022768863 -0.0456002 -0.03508524 -5.271037e-05
0000f0 dc 0e 5a bb 0b 37 d7 bc ce f0 d6 bb 38 c7 e7 bb
       -0.0033273017 -0.026271364 -0.006559468 -0.0070733093
000100 aa 88 db bc 57 ed 9d bc 90 96 a3 bb e1 96 2e bb
       -0.026798565 -0.019278212 -0.0049923137 -0.0026640224
000110 87 9e 3d bc d2 cc 23 bc fb de 3c bd 64 ab 50 bc
       -0.01157344 -0.009997563 -0.04611109 -0.012736175
000120 a0 1c 2c bd 67 e0 6a bc 64 d4 26 bd b5 2a 16 bc
       -0.042019486 -0.014335728 -0.040729895 -0.009165456
000130 b3 8f 68 bc 03 96 95 bc 91 40 03 bb 90 28 b3 bc
       -0.014194417 -0.018260008 -0.0020027498 -0.021869928
000140 fd 42 27 bc c7 69 93 bc a1 6a 9c bc 8f 0a c9 bc
       -0.010208842 -0.017994775 -0.019093813 -0.024541168
000150 be 01 b2 bc bf b9 43 bc 6a 5e 1c bd 09 b1 84 bc
       -0.021729346 -0.011946141 -0.038175978 -0.016197698
000160 1e ec be bc 38 b3 06 3c 66 78 b5 bc 42 cc 0e bd
       -0.023305949 0.00822144 -0.022152137 -0.034862764
000170 35 19 70 bd 8a 42 e4 bc 72 ff b0 bc ab 0b aa 3a
       -0.05861779 -0.02786376 -0.02160618 0.0012973448
000180 ee 09 a8 bc 63 79 13 bd 1f 7f 9e bc 1f c1 3d bd
       -0.020512547 -0.036004435 -0.019347725 -0.046326753
