BRCA/models/4/C.pth (torch, 67198 bytes, 4 tensors)

model.0.weight f4 [125, 125]
-0.028456707 -0.21711494 0.10367388 -0.11981463 -0.12317605 -0.06291944 -0.0125325555 -0.1516023
-0.05077514 -0.15741692 0.10025327 0.33622724 0.31269082 -0.08291681 -0.1622872 0.0032678696
-0.34583056 -0.11506577 0.11247428 -0.08380889 0.057347614 -0.0846363 -0.08538607 -0.050465327
-0.17600937 -0.47664016 -0.2640473 0.08833635 -0.37336078 -0.1569255 -0.21769059 0.01966971
-0.122177854 -0.23588674 -0.2819856 0.19537173 0.16885634 0.68249077 -0.4314975 -0.2786563
-0.25599927 -0.24008425 0.19303802 -0.06968868 -0.024044763 -0.3169486 -0.35266727 -0.15337314
-0.23294866 -0.06474291 0.13920434 -0.0525647 -0.0035313845 0.08842605 -0.055611104 0.07299777
0.11084837 -0.022772089 0.2680138 0.1992894 0.12206455 0.033602826 0.48439735 0.2599859
0.02640616 -0.19865891 0.04489948 0.28089863 0.053974345 0.2797658 0.46046123 0.06905317
0.22970901 0.2651792 -0.17986345 0.11262097 -0.09789368 0.0067261173 0.09754397 -0.086175606
0.16915037 -0.04209597 0.23290344 0.2536004 0.024166103 0.121348836 0.050274063 0.2654694
0.06420656 0.06874246 0.07715028 -0.28441724 -0.09393473 0.27839038 -0.12341981 0.1481296
-0.088574685 0.33589953 -0.007956043 -0.22457318 -0.056208093 -0.16053076 -0.022818089 0.06727128
0.109043926 -0.015575565 -0.1931393 0.039011534 -0.07134124 -0.13758329 0.009365203 0.16966158
0.31114617 -0.231983 -0.33495966 -0.04682038 -0.3674758 0.107531406 -0.07416677 -0.020764029
-0.061603375 -0.22549307 0.11507184 -0.08026297 -0.35879588 -0.14384715 -0.21410352 -0.04560561
-0.035105944 -0.11228868 -0.036426444 -0.34048542 -0.22446732 -0.046763476 -0.03672804 -0.19128366
-0.5009171 0.20264138 0.15531865 0.43304324 0.10279857 0.073546164 -0.23654397 -0.08155773
-0.0016312002 -0.061391637 -0.09103345 -0.06988263 0.08603979 0.048683535 -0.18411812 -0.60760933
-0.15531419 0.08798733 0.25717056 -0.31378376 -0.570943 0.09245025 0.14426684 -0.025158856
-0.22418053 -0.379568 0.26994726 0.40789962 -0.00997099 -0.11316214 -0.023220524 0.16807584
0.19687119 0.03558623 -0.19886915 -0.12334469 -0.02868714 0.050035413 0.029511672 -0.16039258
-0.25550988 0.21861069 -0.017871479 -0.07472677 0.07627443 -0.029876396 0.07165471 0.11024331
-0.13638248 0.59879845 0.25220925 0.51468337 0.19757362 -0.17539874 -0.04757642 0.3395944
0.043133356 0.13639498 -0.05216214 -0.07104599 -0.08810951 0.0008628088 -0.029399166 -0.25801432
0.061225783 0.07923882 -0.029660316 -0.1492374 -0.2123275 -0.11397806 0.1571741 0.22772694
-0.094443336 -0.028593013 -0.2692321 0.40299392 0.23927681 0.19363663 0.23750077 -0.038195636
0.13654548 -0.52618295 -0.057533856 0.008011288 -0.019159336 0.23730493 -0.07837473 0.042261504
-0.010631758 -0.021233914 -0.2560378 -0.3394989 -0.13321145 -0.11279218 0.1286754 -0.02645108
-0.020532718 -0.23553044 -0.23283775 -0.022343414 0.077196 0.5313734 -0.12539886 0.08648683
-0.11367402 0.059114702 -0.028419718 -0.20080857 -0.20268881 0.07815474 0.12626387 -0.045697972
-0.30338794 -0.27023855 0.656403 0.09199119 0.33385321 0.1450708 0.2112698 0.30002782
00000000: 0a1e e9bc 6153 5ebe f952 d43d 5f61 f5bd
00000010: ba43 fcbd e8db 80bd 5955 4dbc a23d 1bbe
00000020: 98f9 4fbd e731 21be 9651 cd3d fa25 ac3e
00000030: 0319 a03e 4ad0 a9bd 9e2e 26be c129 563b
00000040: b410 b1be 9aa7 ebbd ea58 e63d ffa3 abbd
00000050: 55e5 6a3d cc55 adbd e4de aebd bbb4 4ebd
00000060: cd3b 34be 2e0a f4be 3531 87be b0e9 b43d
00000070: 2529 bfbe 14b1 20be 48ea 5ebe 5f22 a13c
00000080: 6238 fabd 4b8c 71be 6b60 90be 870f 483e
00000090: ade8 2c3e b7b7 2e3f 3eed dcbe 0aac 8ebe
000000a0: 5612 83be a5d8 75be c2ab 453e f0b8 8ebd
000000b0: 86f9 c4bc 1647 a2be ce90 b4be d90d 1dbe
000000c0: 188a 6ebe ee97 84bd 958b 0e3e 154e 57bd
000000d0: cd6e 67bb b818 b53d 78c8 63bd db7f 953d
000000e0: 7804 e33d 888c babc 1b39 893e 8512 4c3e
000000f0: fbfc f93d 1ea3 093d ee02 f83e df1c 853e
00000100: bb51 d83c 3e6d 4bbe 84e8 373d f2d1 8f3e
00000110: 3414 5d3d 773d 8f3e 93c1 eb3e c06b 8d3d
00000120: d738 6b3e 91c5 873e 202e 38be d3a5 e63d
00000130: 7b7c c8bd c366 dc3b 22c5 c73d d67c b0bd
00000140: c135 2d3e d36c 2cbd 3d7e 6e3e e9d7 813e
00000150: fef7 c53c bd85 f83d 2dec 4d3d 9beb 873e
00000160: bb7e 833d d9c8 8c3d f700 9e3d 239f 91be
00000170: da60 c0bd 2f89 8e3e 86c3 fcbd 49af 173e
00000180: a566 b5bd 06fb ab3e 105a 02bc 83f6 65be
00000190: 753a 66bd 2d62 24be 00ed babc 86c5 893d
000001a0: 6c52 df3d a830 7fbc 4fc6 45be 8fca 1f3d
000001b0: 5b1b 92bd a2e2 0cbe 8270 193c c4bb 2d3e
000001c0: 8d4e 9f3e f48c 6dbe d57f abbe bac6 3fbd
000001d0: ca25 bcbe 6d39 dc3d bfe4 97bd 5319 aabc
000001e0: d253 7cbd a8e7 66be c9aa eb3d e960 a4bd
000001f0: 18b4 b7be ab4c 13be f43d 5bbe f3cc 3abd
00000200: 40cb 0fbd 9cf7 e5bd e533 15bd 1b54 aebe
00000210: c3da 65be 0f8b 3fbd 2470 16bd dddf 43be
00000220: 1a3c 00bf 3981 4f3e da0b 1f3e d8b7 dd3e
00000230: 0f88 d23d 5f9f 963d 9538 72be bd07 a7bd
00000240: ffcd d5ba cc75 7bbd bf6f babd a01e 8fbd
00000250: a135 b03d 6368 473d 7689 3cbe 498c 1bbf
00000260: af0a 1fbe b432 b43d dcab 833e 44a8 a0be
00000270: 5229 12bf 8f56 bd3d b0ba 133e f219 cebc
00000280: 958f 65be bd56 c2be 8736 8a3e 38d8 d03e
00000290: 5d5d 23bc 8dc1 e7bd f838 bebc 131c 2c3e
000002a0: 9a98 493e dec2 113d 5ba4 4bbe 249c fcbd
000002b0: 4b01 ebbc eff1 4c3d 76c2 f13c f43d 24be
000002c0: 31d2 82be 7bdb 5f3e 3567 92bc 590a 99bd
000002d0: c535 9c3d 58bf f4bc b4bf 923d 3fc7 e13d
000002e0: d9a7 0bbe db4a 193f 9221 813e 4ac2 033f
000002f0: bd50 4a3e ba9b 33be 7edf 42bd 51df ad3e
00000300: 9aac 303d 20ab 0b3e f8a7 55bd 8f80 91bd
00000310: c272 b4bd 1e2e 623a 85d6 f0bc 741a 84be
00000320: e3c7 7a3d f647 a23d 31fa f2bc b0d1 18be
00000330: 616c 59be 546d e9bd 3ff2 203e 4031 693e
00000340: 826b c1bd e53b eabc cad8 89be 3855 ce3e
00000350: fb04 753e ae48 463e 6733 733e 0773 1cbd
00000360: 94d2 0b3e edb3 06bf 9fa8 6bbd c741 033c
00000370: 0af4 9cbc 1000 733e ee82 a0bd 661a 2d3d
00000380: d330 2ebc bff2 adbc 6317 83be cdd2 adbe
00000390: 9568 08be 96ff e6bd 7cc3 033e efaf d8bc
000003a0: 3b34 a8bc e42e 71be 056d 6ebe 8909 b7bc
000003b0: f018 9e3d 1608 083f 8f68 00be 0220 b13d
000003c0: edcd e8bd 4222 723d 78d0 e8bc c3a0 4dbe
000003d0: a88d 4fbe 980f a03d 514b 013e cc2d 3bbd
000003e0: aa55 9bbe b55c 8abe 070a 283f e165 bc3d
000003f0: cfee aa3e 718d 143e 1c57 583e 3f9d 993e

model.0.bias f4 [125]
-0.028800441 -0.034192286 0.07714898 0.086816564 -0.0047364505 0.22984922 -0.012596045 0.0612025
0.052311063 -0.021671403 0.015256095 -0.017160123 0.008787646 0.060100805 0.05127066 -0.050160076
-0.056956835 -0.047848865 -0.0020459085 0.08128247 -0.020431014 0.013787307 0.004954433 -0.016378975
-0.03193552 0.046982497 -0.0007845049 -0.014525977 0.035258982 0.027975516 0.019583821 0.009380765
0.18946162 -0.022391994 -0.037203923 -0.07436461 -0.0046721115 -0.036250588 0.0099942945 -0.042715505
-0.00033184097 0.027393067 0.04890988 0.008433822 -0.011241956 0.025112124 0.056807067 -0.021055384
0.04108038 0.0046639475 0.041679755 0.008984218 0.054730732 -0.002154485 0.009289921 -0.010775679
0.009142802 0.056160413 0.02012799 -0.0002938269 0.018994685 -0.023946695 0.013232207 -0.047706302
0.005758781 0.016811814 0.023914441 0.0008465004 0.09970653 -0.01153836 -0.017126832 -0.067527875
0.00091704214 0.028425315 -0.06362603 0.037227623 -0.021643199 0.122288 -0.04221909 0.021077856
0.013293687 0.05454616 0.11474139 0.163819 0.026498144 -0.030293344 -0.020253487 -0.008129486
0.0120158745 0.015401656 0.09181402 0.0121274665 -0.027520157 0.027418286 0.09591375 -0.009330493
-0.0071236202 0.008545581 0.044279084 0.17105909 0.04251863 -0.0074308123 0.08199524 0.08064017
0.10257489 0.052186362 0.01290055 0.15830728 -0.045500606 -0.091050275 0.039677054 0.08641158
0.048255093 -0.018175347 0.012412904 0.029478688 -0.05362881 0.20461012 0.076237455 0.044625524
-0.024504978 0.00417381 0.03935184 0.021813136 0.047687132
00000000: e7ee ebbc 360d 0cbd 4900 9e3d e2cc b13d
00000010: 3a34 9bbb 985d 6b3e a45f 4ebc 79af 7a3d
00000020: 2044 563d 3a88 b1bc b3f4 793c 6393 8cbc
00000030: 0ffa 0f3c 432c 763d 2f01 523d a774 4dbd
00000040: 924b 69bd 2cfd 43bd a614 06bb 6c77 a63d
00000050: f15e a7bc 28e4 613c cc58 a23b 332d 86bc
00000060: d2ce 02bd b870 403d 3ca7 4dba 5dfe 6dbc
00000070: b96b 103d e92c e53c 406e a03c c8b1 193c
00000080: 3a02 423e 6a6f b7bc 2463 18bd 794c 98bd
00000090: 8318 99bb 7f7b 14bd 1cbf 233c 74f6 2ebd
000000a0: f1fa adb9 6d67 e03c ba55 483d 032e 0a3c
000000b0: 2e30 38bc f1b7 cd3c 87ae 683d 577c acbc
000000c0: e743 283d 07d4 983b 64b8 2a3d 8b32 133c
000000d0: 552d 603d 4332 0dbb c134 183c 798c 30bc
000000e0: b1cb 153c 7608 663d 74e3 a43c c70c 9ab9
000000f0: be9a 9b3c dc2b c4bc e6cb 583c af67 43bd
00000100: 28b4 bc3b eeb8 893c 38e8 c33c aee7 5d3a
00000110: f032 cc3d 640b 3dbc 924d 8cbc 0e4c 8abd
00000120: a865 703a 35dc e83c 5d4e 82bd fe7b 183d
00000130: 144d b1bc 2272 fa3d eded 2cbd 78ab ac3c
00000140: c4cd 593c cb6b 5f3d 89fd ea3d 2bc0 273e
00000150: a312 d93c bf29 f8bc a4ea a5bc 8931 05bc
00000160: 3bde 443c 3a57 7c3c fd08 bc3d 48b2 463c
00000170: f471 e1bc 509c e03c 6e6e c43d edde 18bc
00000180: 426d e9bb c402 0c3c fc5d 353d 1d2a 2f3e
00000190: 0428 2e3d 2c7e f3bb 1fed a73d ac26 a53d
000001a0: c912 d23d 5ec1 553d d45c 533c 4e1b 223e
000001b0: d85e 3abd 9178 babd 6884 223d 8ef8 b03d
000001c0: 22a7 453d 77e4 94bc 7e5f 4b3c 4a7d f13c
000001d0: e2a9 5bbd 5185 513e 6222 9c3d 41c9 363d
000001e0: aabe c8bc 75c4 883b 652f 213d 76b1 b23c
000001f0: 9553 433d

model.2.weight f4 [5, 125]
-0.392106 -0.2805641 0.45905492 -1.0290793 -0.027848281 -0.6026913 -0.12273215 0.5340733
0.31008047 -0.04604108 0.051503874 0.0007775425 0.24835362 0.036183827 -0.07068616 -0.13238746
-0.012721316 0.016603032 0.06547108 0.06916619 -0.53946286 0.0067225713 0.05262603 -0.14963086
-0.051035855 0.26917344 -0.12114902 0.06559199 0.15284814 0.14293607 -0.058156416 0.09411146
-0.40658903 -0.38837 -0.10946755 0.009374445 -0.0827507 -0.12850264 0.083687976 -0.20724122
0.110124886 0.11120238 0.008242675 0.12921335 -0.36469004 -0.09535035 0.0052882135 0.25917286
0.009920478 0.45861197 -0.007778195 -0.04525345 0.27362132 0.0037236423 0.14519185 0.06818752
-0.002631713 0.23509064 0.1466183 0.10020185 0.047165915 0.08647576 -0.09287235 -0.07498432
-0.032287642 -0.08653809 -0.1274305 0.09623443 0.2538192 0.01264137 -0.030462045 -0.17075211
0.054239146 0.16050255 -0.296808 0.055089172 -0.056531236 0.25800106 -0.1642432 0.14656188
-0.29493645 -0.095571466 -0.31959406 -0.9461958 0.033770293 0.027702691 -0.101700686 -0.0073067434
0.1893231 -0.25230452 0.4273643 0.056336384 -0.15073492 0.09990001 0.042132262 -0.014196055
0.14055693 0.109762415 0.1221845 -0.39211988 0.3365513 -0.19372633 0.0030268978 0.24967058
0.33138222 0.64501756 0.025285935 -0.62351096 -0.21262977 -0.14289837 0.36201423 -0.24332574
-0.08464253 -0.04019196 0.8337271 0.003834811 -0.09106762 -0.44008872 -0.022543851 -0.043837022
-0.20338644 -0.30461434 0.08398409 0.1592141 -0.14614825 0.08136772 -0.3868118 0.12750262
0.10369934 0.23751524 -0.3329303 -0.113979384 -1.1437025e-05 0.15160295 -0.025409635 -0.0936786
0.08183268 0.12349364 -0.031269353 0.36232528 0.24582672 0.13751845 0.17204686 0.1318689
-0.17128493 0.11178785 0.11392664 0.009391269 0.47758478 -0.059399325 0.18976247 -0.17082398
-0.017471256 0.069598295 -0.1313282 0.04331772 0.12611492 -0.1810415 0.047430616 -0.14745846
0.09495808 0.11793111 -0.081985995 0.07708317 0.14740643 0.21184841 0.11102696 -0.11102056
-0.17317083 0.32992688 -0.26323822 -0.030940274 -0.015906963 0.04952407 -0.68882966 0.25205857
0.064067736 -0.10721265 -0.01855518 -0.13949148 0.0193473 -0.04632472 -0.13503873 0.044660825
0.098801985 0.12443425 -0.24381715 -0.028357297 0.06405188 -0.06146989 -0.017585617 0.2556574
-0.054071516 -0.33409798 0.025162863 0.030690404 0.29760835 0.030063558 -0.068230316 0.4267073
-0.13503829 0.10831284 -0.38951132 0.028276006 0.14891548 0.22077838 -0.15900934 -0.083399
0.15996823 -0.50797534 0.3171667 0.059457816 0.08356352 -0.13250458 0.43509713 0.08302441
0.13364124 0.15694323 -0.048712574 0.07651829 0.113945395 -0.06461044 0.004340208 -0.07129832
-0.17887123 -0.027740797 -0.18614565 -0.3085121 -0.10823661 -0.2737303 -0.47080702 -0.054297086
-0.06347333 0.37906826 0.49122643 -0.28847378 -0.21223596 -0.2911444 0.14598534 -0.044464633
0.17231362 0.16116732 -0.11174825 0.017349957 -0.45806843 -0.110337235 -0.013538739 0.031354927
0.05761033 -0.28883997 0.09349436 0.44063556 -0.3653599 -0.28301346 -0.7133781 0.27262422
00000000: 1ec2 c8be 19a6 8fbe 3f09 eb3e dfb8 83bf
00000010: 1422 e4bc fa49 1abf fe5a fbbd 07b9 083f
00000020: dec2 9e3e 9295 3cbd baf5 523d fed3 4b3a
00000030: 6950 7e3e 7e35 143d e8c3 90bd 9490 07be
00000040: 116d 50bc 1503 883c b415 863d 01a7 8d3d
00000050: 3d1a 0abf 0449 dc3b 648e 573d d538 19be
00000060: f90a 51bd 1ad1 893e fa1c f8bd 1855 863d
00000070: 3984 1c3e d55d 123e 6c35 6ebd 82bd c03d
00000080: 702c d0be 6fd8 c6be 8630 e0bd 4697 193c
00000090: 3379 a9bd 3296 03be 9a64 ab3d 0b37 54be
000000a0: 2889 e13d 13be e33d 490c 073c 8150 043e
000000b0: a7b8 babe 0b47 c3bd c048 ad3b 4eb2 843e
000000c0: 8089 223c 30cf ea3e 3be0 febb ae5b 39bd
000000d0: 1818 8c3e 5a08 743b 2cad 143e e6a5 8b3d
000000e0: d178 2cbb 9abb 703e 1c23 163e a136 cd3d
000000f0: 0c31 413d 341a b13d dc33 bebd 6191 99bd
00000100: 0c40 04bd e23a b1bd 247d 02be 8f16 c53d
00000110: 97f4 813e c01d 4f3c 8a8b f9bc a4d9 2ebe
00000120: de29 5e3d c85a 243e 38f7 97be 2fa5 613d
00000130: 4c8d 67bd b718 843e 5f2f 28be 5114 163e
00000140: e901 97be f9ba c3bd d5a1 a3be e339 72bf
00000150: b852 0a3d c1f0 e23c 7348 d0bd 686d efbb
00000160: eadd 413e 0f2e 81be 7ecf da3e fbc0 663d
00000170: 415a 1abe 6098 cc3d e192 2c3d 9296 68bc
00000180: 28ee 0f3e 1ecb e03d de3b fa3d f0c3 c8be
00000190: 7450 ac3e 3260 46be eb5e 463b a5a9 7f3e
000001a0: eeaa a93e df1f 253f 7324 cf3c 6a9e 1fbf
000001b0: 9ebb 59be f353 12be ee59 b93e 622a 79be
000001c0: 1059 adbd 53a0 24bd 246f 553f 7451 7b3b
000001d0: a981 babd 4f53 e1be e2ad b8bc 738e 33bd
000001e0: 8944 50be 69f6 9bbe daff ab3d 0509 233e
000001f0: e3a7 15be 1fa4 a63d 320c c6be 0c90 023e
00000200: 5260 d43d 3237 733e d775 aabe 066e e9bd
00000210: a6e1 3fb7 ce3d 1b3e de27 d0bc 91da bfbd
00000220: e497 a73d 3cea fc3d 4b14 00bd b382 b93e
00000230: 00ba 7b3e a3d1 0c3e 0d2d 303e a408 073e
00000240: 5165 2fbe 07f1 e43d 5f52 e93d d6dd 193c
00000250: fe85 f43e b54c 73bd 1851 423e 7bec 2ebe
00000260: e11f 8fbc 8d89 8e3d e67a 06be ec6d 313d
00000270: 4524 013e f162 39be 9b46 423d 5aff 16be
00000280: 6279 c23d de85 f13d 46e8 a7bd c8dd 9d3d
00000290: b6f1 163e caee 583e 1a62 e33d bf5e e3bd
000002a0: b253 31be 2dec a83e 29c7 86be 7576 fdbc
000002b0: 524f 82bc c0d9 4a3d 2457 30bf d20d 813e
000002c0: f235 833d 4e92 dbbd 0801 98bc dbd6 0ebe
000002d0: 3b7e 9e3c fdbe 3dbd 9847 0abe 45ee 363d
000002e0: b258 ca3d 62d7 fe3d 34ab 79be 904d e8bc
000002f0: a22d 833d dac7 7bbd b60f 90bc 87e5 823e
00000300: 187a 5dbd e40e abbe 5922 ce3c 716a fb3c
00000310: 1f60 983e da47 f63c 56bc 8bbd 6179 da3e
00000320: 7a47 0abe 1fd3 dd3d 076e c7be 15a3 e73c
00000330: 4d7d 183e ba13 623e 58d3 22be 18cd aabd
00000340: b6ce 233e ac0a 02bf ac63 a23e 0a8a 733d
00000350: 5a23 ab3d 48af 07be 0dc5 de3e b408 aa3d
00000360: 40d9 083e bab5 203e d686 47bd 9fb5 9c3d
00000370: 345c e93d 7a52 84bd 4e38 8e3b db04 92bd
00000380: 052a 37be ab40 e3bc f79c 3ebe 4cf5 9dbe
00000390: 28ab ddbd 6126 8cbe 9e0d f1be 9f66 5ebd
000003a0: 4efe 81bd 3c15 c23e 0882 fb3e d6b2 93be
000003b0: 6254 59be e110 95be 2e7d 153e 8c20 36bd
000003c0: fb72 303e 0c09 253e 44dc e4bd 7f21 8e3c
000003d0: f287 eabe 7df8 e1bd 96d1 5dbc 066e 003d
000003e0: cff8 6b3d d5e2 93be f979 bf3d fc9a e13e
000003f0: 7410 bbbe 24e7 90be f29f 36bf 6795 8b3e

model.2.bias f4 [5]
0.023132024 -0.091024175 -0.06546449 0.015325639 -0.030553319
00000000: 5f7f bd3c e26a babd 3f12 86bd 6418 7b3c
00000010: f44a fabc
