BRCA/models/4/C1.pth (torch, 5110 bytes, 2 tensors)

clf.0.weight f4 [5, 200]
00000000: 4b8b 33bc 6804 fcbd 4e1e 6ebe 1786 87bd
00000010: ac40 153c b0c3 d23d 2b64 a9bc 90a5 3cbe
00000020: b9f7 c13c 7612 2abd eedb df3d 02c6 cc3d
00000030: eade 673d 64cb 60bd d11f 1b3e 7d6a 1ebd
00000040: 70a4 07bd 6d89 48be 4a44 b13d 3689 4f3d
00000050: 9bd5 72bc e6dd 31bd 7c85 21bd 2a5c 78bd
00000060: 44a9 d63b 1a98 b3bd 6545 0b3d 62b7 973d
00000070: db29 96bd 83ea ec3d 6fec adbd 73c2 a8bd
00000080: 941e 14be 2b3d 20be 364f 253e 23cc f53a
00000090: 51ad 063d c778 14bd 06a6 4f3d 2150 f93d
000000a0: 63bb 0d3d e054 9e3a 50f1 ab3d 6fc4 943d
000000b0: 28cf 24bc e186 c5bd dc3b 4ebd ea3b 113d
000000c0: cefa 1e3e 9135 e7bd 2e1a 60bc f170 0c3e
000000d0: 395d b7bd 8bd7 df3d c14b 19bd e083 1bbc
000000e0: 837a c7bd 5396 96bd 8745 35bd efa2 d6bd
000000f0: de47 b1bd 6db5 51bd e99b 123c 2cab 193d
00000100: 39b9 913c 3489 833d 5a8f b6bd 8cb4 afbd
00000110: e52a 3ebe 8a9d 683d 1ba7 7a3d 9e4c b5bc
00000120: 0a1a 2ebe 6e42 dbbd 9fc5 383e 15a0 85bd
00000130: 87ba ecbc d33d 00be e924 dc3d 7804 d73d
00000140: 2510 0f3e fc78 573d 6b05 f8bc ec5d 073c
00000150: e21b b2bd a223 d7ba 2c48 303d dca0 1f3d
00000160: 92ea 783d bf5a b1bc 667d 3abd 60cc 213e
00000170: 4c1c f53c f546 283d b00f 20bd dc54 68bd
00000180: 2c46 94bd c7d6 283c 1ebd f6bc 4d0e 4c3e
00000190: e2bb a83d b729 023d 4716 a43d ae26 da3d
000001a0: 58ed 60bd 5fcb 64bd 19cc 473d 32cc d2bd
000001b0: f9ae 34bd 74ab 4bbd 09f5 14bd 09d7 d3bd
000001c0: 7a55 b4bc 1382 b33d 03c4 8fbd ad21 853d
000001d0: 9450 3e3d d8d7 24be 40e6 bb3d 201e f5bd
000001e0: 1abf aebc 25a6 99bc 81bf 48bd 2d5f dfbd
000001f0: a3a1 863c 2ed5 603d 2e40 5bbc 0017 e9bb
00000200: ba95 b4bc 201c e53b e6dd 30be eeb1 d63b
00000210: 00d6 3fbc 09a2 1d3e 24ff 47be 9c77 863d
00000220: 7e6a c43d 7bd1 863e 72ba 07be c669 40be
00000230: 733e 253e 0998 44bd 9ef6 11bd 9d35 453d
00000240: a338 08be 2d85 e6bd 0283 27bd d189 06bd
00000250: 731e 4ebd 210b 1dbe 9c67 05be 880e a0bd
00000260: 0806 81bd 60f9 b6bb 73d2 a4bd b6cd 74bd
00000270: 56c6 0d3e bd64 e3bd 8279 993c ef6d cfbd
00000280: 5372 9bbd 465b 183d 48c3 c53c 18ef 6abc
00000290: a1da 283d 0b80 ba3d ede4 163e 4f1b 44bd
000002a0: bb39 263d 60f8 42bb f74c 7f3d 22d9 933d
000002b0: 3fe8 c1bd 6a9c f93c 4259 54bc e0c2 fdbd
000002c0: 429c 52bd 5f03 7e3d b026 45bb 900a 61bd
000002d0: c414 03bc ae64 7a3e e1a6 77bd f69b aebc
000002e0: 16aa ed3d 17f8 273d 24a1 17be a712 ff3c
000002f0: 62b5 a7bb 66a2 f43d 5262 aa3d 26b4 2e3e
00000300: 0fd4 353d 36e4 1cbc 6d8f 39be 931e 6d3d
00000310: 3ccd 48be 40dc 3abd 48e3 9bbc 93fb 953d
00000320: cd0e b6bc 6d64 bd3d 4ff1 013d 8e4d f2bd
00000330: c2e7 293d 3686 543e db0c 1d3d e91f c3bc
00000340: c3d6 933c 6938 043e 9eac 063e 09f1 693d
00000350: 0a68 603d a314 d33b 4ca5 cc3d 394d 333b
00000360: a9ad 083d c72e 813d d2ee 0a3d a6bf 4b3e
00000370: cec0 073c 4979 81bd 23e9 91bd 0660 13bd
00000380: 2fbb 0b3e 49ec 7e3d 2cdb 1dbd 075b c63c
00000390: f8ee 443c 0fb8 94bd cc59 a13c 901c 023e
000003a0: 9a71 57be 7e58 babd 907b b33d 7e44 58bd
000003b0: a210 41be 6eeb 273e 2357 153d b98f aabd
000003c0: 14a3 4cbd 8f73 863d df61 a03d 41e2 b53d
000003d0: 4857 d53c 6bf6 033d 2ece 88bd d997 a53d
000003e0: df73 b8bd d74a 0c3e b2eb 14bd cb22 6c3e
000003f0: 14f3 b2bd 6df3 0f3e bc7d 03bd 77ce 23be
-0.010958503 -0.12305528 -0.23253748 -0.066173725 0.009109657 0.10291231 -0.020677647 -0.18422532
0.023677694 -0.041521512 0.1093062 0.099987045 0.05660907 -0.05488147 0.15148856 -0.038675774
-0.033115804 -0.19583674 0.08655603 0.050667964 -0.014821435 -0.04342451 -0.03943394 -0.06063477
0.0065509398 -0.087692454 0.034001727 0.07408024 -0.07332202 0.11568167 -0.08492362 -0.08240213
-0.1446479 -0.15648334 0.16143498 0.0018752854 0.03288013 -0.036247995 0.05069544 0.121734865
0.034602534 0.0012079738 0.08395636 0.07264029 -0.0100591555 -0.09644867 -0.050350055 0.03545753
0.15525362 -0.11289514 -0.013678117 0.13714959 -0.08953328 0.109297834 -0.03742576 -0.009491891
-0.09740164 -0.07352891 -0.04425576 -0.10480296 -0.08656286 -0.05119841 0.008948305 0.037516758
0.017788516 0.06422654 -0.08914061 -0.085793585 -0.1857105 0.056790866 0.06119452 -0.02213126
-0.1700212 -0.1070603 0.18044136 -0.06524674 -0.028897537 -0.12523584 0.107492276 0.10498899
0.13971002 0.052605614 -0.030276021 0.008262139 -0.086967245 -0.0016413818 0.04303758 0.038971767
0.06077058 -0.021649716 -0.045529746 0.15800619 0.02992072 0.041083295 -0.03907746 -0.056721553
-0.07239947 0.010305113 -0.030119475 0.1992733 0.08238961 0.031778064 0.080120616 0.10651909
-0.05491385 -0.055858012 0.048778627 -0.102928534 -0.04411218 -0.049724057 -0.036366496 -0.10343749
-0.022013415 0.08765044 -0.07019808 0.06500564 0.046463564 -0.16097963 0.09174776 -0.119686365
-0.021331359 -0.018755982 -0.049010757 -0.10906825 0.016434496 0.054890804 -0.013382001 -0.0071133375
-0.022044051 0.006991878 -0.17272148 0.0065519726 -0.011708736 0.15393843 -0.19530922 0.065657824
0.09590624 0.26331696 -0.13254717 -0.1879035 0.16137104 -0.047996555 -0.035635583 0.048146833
-0.13302855 -0.1125587 -0.040896423 -0.032846276 -0.050322007 -0.15336277 -0.13027805 -0.078152716
-0.062999785 -0.005583927 -0.080479525 -0.059766494 0.1384519 -0.11103199 0.018734697 -0.1012839
-0.07590165 0.03719642 0.024140969 -0.014339231 0.041224126 0.091064535 0.14735766 -0.047877606
0.0405824 -0.0029750094 0.06232926 0.07219149 -0.094681256 0.030470092 -0.012960734 -0.12390685
-0.05141855 0.062014934 -0.0030082874 -0.054941714 -0.008000556 0.24452469 -0.060461883 -0.021314602
0.11604707 0.04100808 -0.14807564 0.031136824 -0.005118058 0.119450375 0.08319534 0.17060909
0.044391688 -0.009575894 -0.18121119 0.057890486 -0.1960954 -0.045620203 -0.019029275 0.073233746
-0.022223854 0.0924767 0.03172427 -0.11831199 0.041480787 0.20754322 0.038342338 -0.023818927
0.018046742 0.12912144 0.13151786 0.057114635 0.05478672 0.006441669 0.099924654 0.002735926
0.03336874 0.0630775 0.033919163 0.19897327 0.008285714 -0.063219614 -0.071245454 -0.035980247
0.13645624 0.062237058 -0.038539097 0.024213327 0.012019865 -0.07261669 0.019696139 0.12706208
-0.2103943 -0.0909891 0.08763802 -0.052799694 -0.18854001 0.16398403 0.036460053 -0.08328194
-0.04996021 0.0656501 0.078311674 0.08881045 0.026042596 0.032217424 -0.06679951 0.08085603
-0.09006476 0.13700424 -0.03635759 0.23060147 -0.0873777 0.14057703 -0.03210233 -0.15996729

clf.0.bias f4 [5]
00000000: 07eb fabc a309 81bd 1474 8bbd 0540 723d
00000010: 682b 28bd
-0.030629648 -0.06300666 -0.068092495 0.059143085 -0.04105702
