BRCA/models/3/C1.pth (torch, 5112 bytes, 2 tensors)

clf.0.weight f4 [5, 200]
000000 e1 10 d7 bc 5f b0 c8 3d 47 26 1d 3d 9d 54 54 bc
       -0.026253166 0.09799265 0.038366582 -0.0129596265
000010 b0 f6 47 bd 0f cb 0b be 14 ad 9a 3d 7c b3 9d bd
       -0.048819244 -0.1365168 0.07552543 -0.077002496
000020 2d 5c 4e 3e e4 f1 b8 bd ab 05 79 3d ae 10 cb 3d
       0.2015235 -0.09030512 0.06079642 0.09915291
000030 25 17 1a bc 25 78 ff ba a6 54 34 3e 61 3b bf bd
       -0.009404932 -0.0019490762 0.17610416 -0.093374975
000040 d7 b8 69 bd a0 b9 52 3b f9 36 89 bd 0f 6d 55 be
       -0.057061043 0.0032154098 -0.06699938 -0.20842384
000050 6b 8b ae bd 76 bf 89 3d ba fd 0a be 65 79 02 3c
       -0.085226856 0.067259714 -0.13573352 0.007963513
000060 c2 3c e2 3c a8 c8 99 bc 8e 86 1a 3c b5 2f e7 bc
       0.027616862 -0.018772438 0.009431494 -0.02822099
000070 01 7f 43 3e d7 93 32 be 2e 29 e3 bd 0c 1e d8 bd
       0.19091417 -0.17439209 -0.11091839 -0.10552606
000080 2e 4f 0e 3b a0 4d 2c bd 59 7f 0a be 0b 5c ad bd
       0.0021714675 -0.042066216 -0.13525142 -0.084648214
000090 34 da ce bc df fd 12 3e 5e 37 fb 3c 9c 1f f2 bd
       -0.025250532 0.14354657 0.03066605 -0.11822435
0000a0 0f 27 3e 3c 3c 01 5c bd dc 4a 88 bd 27 f8 20 bd
       0.011605992 -0.053712115 -0.06654903 -0.039299157
0000b0 e6 98 8c be 15 4a 89 bd 93 f7 35 3d 01 b6 66 bd
       -0.27460402 -0.06703583 0.04442556 -0.056325916
0000c0 3f 01 ac 3c a4 bd 86 bd 3c 1b 82 3c 55 a4 4b bd
       0.020996688 -0.0657914 0.015882127 -0.049717266
0000d0 0d 75 12 be 55 e3 bb 3d 2e 2f 13 3d 05 ae 9e 3d
       -0.14302464 0.091742195 0.035933666 0.07748035
0000e0 a6 e0 91 ba e9 5c 2c 3e d7 47 11 3e d7 a4 e7 3d
       -0.0011129573 0.16832317 0.14187561 0.113107376
0000f0 8f 39 8a bd d4 3a db 3c 5c a7 d3 3c 57 43 17 3d
       -0.0674926 0.02676145 0.02583664 0.036929455
000100 19 a6 90 bd 30 19 91 3c 38 04 9b bd f0 ed 44 3d
       -0.070629306 0.017712206 -0.07569164 0.048078477
000110 f5 18 65 be af 8d 4c bd ee 11 55 bc 9a 81 1a 3d
       -0.22372802 -0.049939808 -0.013004763 0.037721254
000120 e5 8c 9e 3d 47 00 87 bd 6e ed 3e bc 57 cf 43 bd
       0.07741717 -0.0659185 -0.011653287 -0.047805157
000130 e1 67 0b be 70 3c 9e 3c bf 8a 80 bc 52 3b ac 3d
       -0.13613845 0.019315928 -0.01569116 0.08409752
000140 2a 7c 18 bd 43 2f 5f bd ab b6 3a bc 58 8e fd bd
       -0.037227787 -0.05448843 -0.0113960905 -0.123806655
000150 b7 cf b4 3d 2c 3d 95 3d 5d 56 a3 be c9 7d d2 3b
       0.08828681 0.07287058 -0.31901827 0.006423686
000160 51 05 72 3c 1e b3 7f 3d 47 56 f8 bd 36 e6 d6 3d
       0.014771775 0.06242668 -0.12125831 0.10493128
000170 17 d5 83 3d 64 31 19 3e 56 99 f8 3d 4b 59 4b 3e
       0.06437128 0.14960247 0.121386215 0.19858281
000180 5e 8b 2e 3b bc c9 21 3d 4a b7 67 bd 65 75 dd bd
       0.0026633362 0.03949903 -0.056571282 -0.10813407
000190 96 8b 97 3c 37 2d 29 be c3 cf 5b bd 8d f2 2b bc
       0.018499177 -0.16521154 -0.053664934 -0.01049484
0001a0 e5 3b 33 3e 5f 13 9e bd 00 0c 02 3d 72 2a eb 3c
       0.17503317 -0.077185385 0.031749725 0.028706763
0001b0 d4 b3 9a 3a d0 91 c4 bd 70 d5 a7 3d 70 86 36 3e
       0.001180286 -0.09598124 0.08195007 0.17824721
0001c0 58 4f de 3d 29 e5 ca 3c 29 4d 95 3d 9b 70 24 bd
       0.10854977 0.024767475 0.07290108 -0.04014645
0001d0 22 c4 12 bb 49 44 58 bd d9 ca bf 3d 2a c6 1d 3d
       -0.0022394736 -0.052799497 0.09364862 0.038519062
0001e0 69 9e a7 bd 65 f6 14 3e b2 9a 3d ba 44 ed 77 3d
       -0.08184511 0.14547117 -0.0007232829 0.06052901
0001f0 82 33 a9 3b 65 dc 04 bc 60 23 0e 3e 8a d6 7c 3d
       0.005163611 -0.008109187 0.13880682 0.061728038
000200 cd b4 0b be fd 0d ad 3d e9 1d f2 bd bc 8b 10 3c
       -0.13643189 0.08449934 -0.11822111 0.008822378
000210 2a a9 b1 3d 98 92 06 3e ef 2f 35 3d f9 c1 30 bd
       0.086748436 0.13141859 0.044235166 -0.043153737
000220 69 6d d5 bc 8a 02 17 3d a8 f9 ed bc 8a 13 5a 3c
       -0.026053147 0.036867656 -0.02904971 0.013310323
000230 61 68 09 3c 2f f8 72 3c 5b 19 08 be d6 6a f2 bd
       0.008386702 0.014829679 -0.13290922 -0.118367836
000240 02 c1 67 bd 18 1f 98 bd f0 f0 e5 3d 90 45 b9 3d
       -0.05658055 -0.07427806 0.11227596 0.09046471
000250 2b 7b 45 3c ea 76 df 3d a8 21 81 bd 26 18 8f 3b
       0.012053291 0.10911353 -0.063052475 0.0043668924
000260 81 93 44 bc 36 c5 ba bd 95 11 83 bc 06 84 79 3b
       -0.011998058 -0.09119646 -0.015999595 0.0038073077
000270 d8 9d c6 3c da b3 63 3d e3 f9 36 bd 70 cd 25 be
       0.024245188 0.05559144 -0.044671904 -0.1619165
000280 6f d3 68 3a c6 86 04 bd 35 73 cd 3d 41 12 a7 bd
       0.0008881604 -0.032355092 0.100317396 -0.081577785
000290 c8 dd 6d 3e 59 ab aa bd 2e a6 8a 3d 10 af 79 bd
       0.23229134 -0.08333463 0.067699775 -0.06095797
0002a0 bf 38 2d bd 1d cf d2 bd aa cc 89 3c 1d 62 12 bd
       -0.042290445 -0.1029341 0.016821224 -0.0357381
0002b0 e8 f6 5a 3d 1c 2c b6 bc f7 52 61 bc 51 f5 ee bd
       0.053458124 -0.02223783 -0.0137526905 -0.11667884
0002c0 c1 cb c0 bd db e2 f3 bc 7d c3 d2 3d 03 de b0 bd
       -0.09413863 -0.029771259 0.10291193 -0.086360954
0002d0 be 2c 9c 3d 01 af 10 be 29 8d 87 3d 11 4b cc 3d
       0.076257214 -0.14129259 0.06618721 0.09975255
0002e0 73 89 a2 3b 49 60 43 bd 93 24 f3 bd 06 ac 01 be
       0.004960233 -0.047699247 -0.1187221 -0.12663278
0002f0 25 85 b9 3d 92 ea 9a bd 69 57 35 bc 26 b8 40 bd
       0.090585984 -0.07564272 -0.0110682035 -0.047050618
000300 ad ef 23 be 3e d8 78 bc 09 11 22 bd 7a 9a 1e bd
       -0.16009398 -0.015188275 -0.039567027 -0.03872154
000310 f4 08 a7 3e 55 e4 e1 bd fb 3f 06 3d 36 bc 2d 3c
       0.32624018 -0.11029879 0.03277586 0.010603955
000320 f0 5a e3 3d fa d4 77 3d b8 aa ef 3b 27 a5 08 3d
       0.11101329 0.060505845 0.0073140524 0.033360627
000330 d3 c9 f9 3c 10 ea 00 be 22 c0 b7 bd 3c 62 04 3e
       0.030491745 -0.12589288 -0.08972193 0.12928098
000340 16 9c 22 3d 5c 22 19 be 0a 5a 18 3e 22 72 1a 3e
       0.039699636 -0.14954513 0.14878097 0.150826
000350 11 ed 2e be 53 d4 b9 3d d6 0c 09 bc 82 bc a1 3d
       -0.17082621 0.09073701 -0.008364877 0.07897283
000360 d3 b9 b7 bd 7d 45 08 bd fc 42 84 be f4 69 ed 3c
       -0.0897099 -0.033269394 -0.25832355 0.028981186
000370 fa b3 ce bd df ef ad bc c9 4e 28 bc 09 1a 55 bd
       -0.100929216 -0.021232544 -0.01027269 -0.052026782
000380 2e 90 f0 3a 92 6f de bd 09 77 35 3e 2c cb 2a bd
       0.0018353516 -0.10861124 0.1772119 -0.041697666
000390 96 73 b3 3d c4 85 92 bd 81 b2 a3 bd d1 bd 38 3e
       0.08762281 -0.0715442 -0.07993031 0.18041159
0003a0 1f e5 42 3e 45 cf ba bd e4 1a 62 3d 02 2f 4b 3b
       0.19032715 -0.09121565 0.055201426 0.003100336
0003b0 9e eb 1d bc 0f 7f 13 be 4b fa e6 3d 19 6c f7 bd
       -0.009638695 -0.14403938 0.11278208 -0.12081165
0003c0 7d 3f 75 3e a7 30 14 3c 3a a3 c2 bd 29 9f 27 bd
       0.2395 0.009044803 -0.09503789 -0.04092327
0003d0 2f ed e2 bd 60 15 14 3e 1b c4 32 3e dc 44 96 bb
       -0.110803954 0.14461279 0.17457621 -0.0045858454
0003e0 dd 3a d3 bd fc 74 a8 3d 4b 52 08 3e 93 41 a8 bd
       -0.10313962 0.08225438 0.13312642 -0.08215632
0003f0 c0 2e c5 3d 45 d0 9d 3d 10 84 09 bd 82 b7 52 bc
       0.096280575 0.0770574 -0.03357321 -0.0128611345

clf.0.bias f4 [5]
000000 1d e3 0d bd 16 21 a6 bd d6 04 35 bd 1f 49 38 3d
       -0.03464042 -0.081117794 -0.044194065 0.04499161
000010 e1 1b bb bc
       -0.022840442
