BRCA/models/3/C2.pth (torch, 5111 bytes, 2 tensors)

clf.0.weight f4 [5, 200]
0.0012798097 0.06365107 0.086477175 -0.18593289 0.14385568 0.0322293 -0.0883406 0.02898403
0.15819192 0.085980155 0.013295262 -0.19416057 -0.16662408 -0.055505566 -0.031868357 -0.09465027
-0.09594463 0.10889767 -0.061147522 -0.09065329 -0.03265195 -0.083058715 0.06701306 -0.060777266
-0.07093649 -0.026825756 -0.02316655 -0.031613182 -0.009996881 0.085935414 0.10633774 0.057703063
0.01944677 -0.03102504 0.011932442 0.01204698 0.19838637 0.05203063 0.08845779 0.13118033
-0.21644503 -0.19144993 -0.2899847 0.17447698 0.06660736 -0.047048796 0.020075519 0.08261032
0.028069189 -0.0074760923 -0.16246195 -0.13649392 -0.028493648 0.011895969 -0.046194162 -0.09416001
0.085466854 0.089692734 0.08922921 0.04894506 -0.076736934 -0.028268991 -0.028816998 0.030162925
-0.052835084 -0.08336247 0.036792137 -0.20553668 0.043574195 0.10375446 -0.16456117 0.0022462541
-0.049448468 0.05661876 -0.01069659 -0.030769045 -0.028310763 0.00052554876 -0.034467757 -0.04606586
0.087502725 -0.16033304 -0.13262902 -0.053616848 0.028786177 0.070296474 -0.011453219 -0.123226665
0.06508365 0.14029454 -0.11146774 0.09793467 0.14039733 -0.0019213264 -0.07471236 -0.05767191
0.029569509 -0.019366002 -0.008918122 0.03013935 -0.022134466 -0.086448945 -0.08083258 0.046076432
0.012351847 0.06286666 0.051209662 -0.16426617 -0.042120833 0.039037544 -0.028082632 -0.08952397
0.020164307 -0.12636977 0.026262276 0.06234247 -0.0061670523 0.009488442 0.08233114 0.105357885
0.043386847 -0.2583925 -0.028194511 0.025770698 0.028857484 -0.052565765 -0.136009 -0.094345085
0.043812376 -0.05254779 -0.2020302 -0.21087945 -0.02123074 -0.012496078 0.054113146 0.05040178
0.040418193 0.16133498 0.002655461 -0.03843812 -0.09091004 -0.036224548 -0.05722439 -5.4638863e-06
-0.078084596 0.111061186 0.0074258205 0.19696657 0.03270273 -0.0494469 -0.1057393 -0.06883648
0.07475912 -0.034470502 0.059173375 -0.08572572 0.16404994 -0.11846182 0.042545885 0.09768177
-0.18623619 -0.21384634 -0.1325658 0.027596027 0.016624039 -0.06778285 0.06753771 -0.093876496
-0.03883143 0.096848585 -0.0042477925 0.050250944 -0.17800066 -0.06399376 -0.029628905 -0.04975342
0.011173213 0.10267127 -0.024258176 -0.16074558 0.025477214 -0.052574497 0.06345452 0.16811234
0.07086552 -0.07148735 -0.03585357 0.0012985059 0.08531484 0.091231056 -0.037573777 -0.10471358
-0.026422272 0.05624966 0.22117105 0.09540538 0.04358674 -0.0011610332 -0.072601296 0.045622025
0.046556436 0.07857178 0.028869433 -0.0696882 0.13422723 -0.026566138 0.12407975 0.04924623
0.04783993 0.019382594 -0.006381452 -0.18370782 0.020584108 -0.060790293 -0.026174974 0.08651904
0.113394246 -0.012609419 -0.16316923 -0.010237411 -0.020575203 -0.07807216 -0.0554101 0.16228323
-0.045540296 -0.046022963 -0.04785221 0.11307245 -0.042431958 0.103376776 0.1341051 -0.012684661
0.050575152 0.020661198 -0.0049535353 -0.02929231 0.16094124 -0.16650732 0.12751031 -0.025210503
-0.092089 -0.16551726 -0.068981014 -0.11001166 0.021848558 0.12253622 -0.010666734 0.15563552
-0.12542923 0.079268195 -0.07678309 -0.07863696 -0.0010526257 0.07897674 -0.04078161 0.03407642
00000000: 4abf a73a 7e5b 823d f21a b13d 3165 3ebe
00000010: e74e 133e df02 043d ebeb b4bd eb6f ed3c
00000020: 10fd 213e 5d16 b03d 5fd4 593c 07d2 46be
00000030: 819f 2abe ce59 63bd 6588 02bd 00d8 c1bd
00000040: 9e7e c4bd be05 df3d d375 7abd 6fa8 b9bd
00000050: 0dbe 05bd b01a aabd 253e 893d 95f1 78bd
00000060: 2747 91bd b0c1 dbbc c7c7 bdbc d37c 01bd
00000070: f5c9 23bc e8fe af3d 9ac7 d93d 0c5a 6c3d
00000080: d54e 9f3c 3a28 febc 4a80 433c b260 453c
00000090: cc25 4b3e 121e 553d 5c29 b53d 2354 063e
000000a0: c4a3 5dbe 730b 44be e078 94be 18aa 323e
000000b0: 7169 883d 3db6 40bd 6a75 a43c 992f a93d
000000c0: 5bf1 e53c 02fa f4bb 6d5c 26be 10c5 0bbe
000000d0: 836b e9bc 4fe7 423c 1736 3dbd f7d6 c0bd
000000e0: 3f09 af3d d3b0 b73d cebd b63d 9e7a 483d
000000f0: 4128 9dbd 5f94 e7bc a011 ecbc 3d18 f73c
00000100: 9a69 58bd f1b9 aabd 5ab3 163d 3578 52be
00000110: db7a 323d 387d d43d b982 28be e435 133b
00000120: 7a8a 4abd 13e9 673d c040 2fbc 5d0f fcbc
00000130: f9eb e7bc fbc4 093a 102e 0dbd 8eaf 3cbd
00000140: a134 b33d 582e 24be e7cf 07be 579d 5bbd
00000150: fdd0 eb3c 99f7 8f3d 48a6 3bbc 435e fcbd
00000160: 944a 853d 5fa9 0f3e 3349 e4bd f991 c83d
00000170: 51c4 0f3e 04d5 fbba cb02 99bd 6139 6cbd
00000180: c13b f23c 73a5 9ebc 511d 12bc cce6 f63c
00000190: 5753 b5bc 250c b1bd 8d8b a5bd a4ba 3c3d
000001a0: 675f 4a3c 3cc0 803d 39c1 513d 6435 28be
000001b0: e586 2cbd d5e5 1f3d 8c0d e6bc 5858 b7bd
000001c0: 9e2f a53c 1467 01be fc23 d73c d15a 7f3d
000001d0: fc14 cabb 6975 1b3c 3b9d a83d e0c5 d73d
000001e0: 68b6 313d 064c 84be 2df8 e6bc 121d d33c
000001f0: 8866 ec3c 334f 57bd f145 0bbe ff37 c1bd
00000200: 9b74 333d 5a3c 57bd 01e1 4ebe c8f0 57be
00000210: 17ec adbc 5abc 4cbc bfa5 5d3d 1972 4e3d
00000220: 8c8d 253d ff34 253e 3e07 2e3b 4a71 1dbd
00000230: 0b2f babd 3160 14bd 1f64 6abd 6d56 b7b6
00000240: d1ea 9fbd 0c74 e33d 4c54 f33b 9bb1 493e
00000250: 4cf3 053d d588 4abd d98d d8bd 24fa 8cbd
00000260: 4f1b 993d f130 0dbd c85f 723d f790 afbd
00000270: b5fc 273e 1c9c f2bd 9844 2e3d 610d c83d
00000280: b3b4 3ebe 89fa 5abe 54bf 07be 1011 e23c
00000290: 232f 883c bcd1 8abd 3651 8a3d 5242 c0bd
000002a0: b50d 1fbd 8d58 c63d 1131 8bbb efd3 4d3d
000002b0: ce45 36be 290f 83bd 51b8 f2bc 3eca 4bbd
000002c0: da0f 373c 5145 d23d 15b9 c6bc 7d9a 24be
000002d0: 97b5 d03c 5b58 57bd 72f4 813d a425 2c3e
000002e0: f121 913d f667 92bd 31db 12bd a132 aa3a
000002f0: 8cb9 ae3d 59d7 ba3d f6e6 19bd 1374 d6bd
00000300: 8573 d8bc 0b66 663d aa7a 623e e563 c33d
00000310: 0288 323d cf2d 98ba fdaf 94bd 29de 3a3d
00000320: f6b1 3e3d 3eea a03d 977f ec3c b0b8 8ebd
00000330: dd72 093e 3ba1 d9bc 861d fe3d 6ab6 493d
00000340: cdf3 433d 3fc8 9e3c 801b d1bb e71d 3cbe
00000350: 01a0 a83c 3eff 78bd e66c d6bc e530 b13d
00000360: 3e3b e83d bd97 4ebc d615 27be d0ba 27bc
00000370: 548d a8bc 4ce4 9fbd b3f5 62bd 932d 263e
00000380: 7688 3abd 9382 3cbd ae00 44bd 8792 e73d
00000390: 22cd 2dbd 34b7 d33d d952 093e 53d3 4fbc
000003a0: e427 4f3d ac41 a93c 4451 a2bb 6df6 efbc
000003b0: c8cd 243e e580 2abe 1092 023e 4286 cebc
000003c0: 2899 bcbd 5b7d 29be eb45 8dbd cb4d e1bd
000003d0: bffb b23c 45f4 fa3d 86c3 2ebc eb5e 1f3e
000003e0: 8570 00be 5d57 a23d 7440 9dbd 6a0c a1bd
000003f0: 42f8 89ba 8fbe a13d 9e0a 27bd b793 0b3d

clf.0.bias f4 [5]
-0.04794677 -0.053769432 -0.05909637 0.06061409 -0.038199335
00000000: d563 44bd 563d 5cbd 090f 72bd 7b46 783d
00000010: e876 1cbd
