BRCA/models/3/C3.pth (torch, 5110 bytes, 2 tensors)

clf.0.weight f4 [5, 200]
00000000: bb9d dcbd 361f 5bbe 5803 63be d24c ad3d
00000010: 7c4b 1fbe 108b 95be 746c 6b3e bc94 18bc
00000020: c87d 5b3d 4bd6 e83c a689 393e df05 7dbc
00000030: 7f47 6d3e ab43 f9bc f6aa 593e 56c7 08bc
00000040: 47f2 7ebe c4c4 7e3d fed8 c33c 5859 523d
00000050: 5dfb c53d 0f65 0bbe 588c b43d 457e 133e
00000060: d714 9fbd d748 f83d cb8f af3d 12c3 6cbd
00000070: 770c 663d ff72 4abe 482d 10bc 41bf 393e
00000080: 980a 23bc fef1 8e3d c9f1 c3bb 344f 9bbd
00000090: 7f05 e3bc 83fc 513d 7adb f63c 9adc 53bd
000000a0: 11bd b53d 23c9 aabc d5b6 8d3d 3ff5 a63c
000000b0: eb62 143d 9baa 213e ff6d b43c b295 233e
000000c0: f860 833d ea51 163e 87a1 f5bd 3045 cebd
000000d0: 51b6 763d 7c9c 033e 54a1 7c3e 9139 9b3b
000000e0: f9e3 cabd f9e7 1ebe 871e a3bc 7a2c 463d
000000f0: 8eed 273d f030 b9bc d5c9 51be b789 983c
00000100: 64c3 b13d 8beb 6bbe 885b a33b cd87 d9be
00000110: e1b9 1f3e 1e7d e23d c878 073e bae7 b7bd
00000120: 0771 ff3d 764a 633e e564 e2bd d58e bcbb
00000130: de58 4d3d eb98 473e 9c30 c8bd 342e 90bd
00000140: 0259 9ebe 630f b63c 42f7 363d 8ed5 7c3e
00000150: d9f3 4cbe 03b6 59be fef4 923d 16a6 e73d
00000160: 8b75 45bd 966a fc37 4efd 9cbd 8a09 453e
00000170: e6ab 6e3d 5e13 f13d 3427 a33d 7b72 7cbe
00000180: 0edd 21be 1595 9f3c 7482 94bc 6a1f b93d
00000190: 67d0 e6bd b303 153e 59f0 423e 0f98 4f3d
000001a0: 9cc6 483e c322 513e 4c70 29bd 3164 073d
000001b0: b191 ad3c 4ee3 e5bd c626 08bc 3cee 4ebe
000001c0: 86cf 8cbd 99bc 8dbe e424 1dbe 2b0b 36be
000001d0: 72bc 84bc 4d5a ac3d 006a b73d 74ea ea3d
000001e0: 61f1 d43d bec0 c53d b47f 333e a713 18bd
000001f0: 669e 7c3d a5e8 d63d 9d51 923e 27a6 a9bd
00000200: 24ec a7bd b484 dd3d f686 dcbc 29ce cf3d
00000210: f2e0 313d f09b 4f3d 3c77 cbbd fd27 553d
00000220: 5f7d 4bbd 145c 6a3e f09e bd3d 7961 0ebe
00000230: 8697 7a3d 03da 2c3e 3265 603d d4b9 1fbe
00000240: 1568 11be 4c8c 19bd 5a5f 2e3e e2e3 a9bd
00000250: af5e f83d 1ee9 9f3d b196 473d a8e9 3b3d
00000260: 3a7b e33d 9eb3 8e3d 9f7e f23d 057d 393d
00000270: 43c6 b43d 5116 373d c657 28be 4856 29be
00000280: 7c6d 493e a8a2 2bbe 95c2 1abd a0c2 e1bd
00000290: c939 a7be 39ba 38ba e524 253e c5d3 213d
000002a0: 6b3c 2c3d 8c95 37be e5d6 babd 69b6 7a3d
000002b0: 17d7 9c3b e474 45bb 041c 9fbd 3492 633b
000002c0: 1762 6e3d 5989 4e3c c4ed aabd d8bd b63d
000002d0: 5027 eb3b 40a8 dbbe 8e1b ec3d 635d abbb
000002e0: 10a0 64bd 9805 993d dd96 553d b48b 843c
000002f0: 838f 99be bf59 cebd e535 15be 8225 443d
00000300: 2b7c 363d 6e8c 213e 7e47 fb3d 099e e9bd
00000310: 42ac 2a3e cd09 233d a32d 1cbe 3a8c c8bd
00000320: 2d5a 8dbb 01c3 80be 30d5 98be e554 063e
00000330: 1bf1 26be 1620 3ebe 7799 903d af96 313c
00000340: 57ca f53d b8ca c5bd f6a2 13bd 9fcd 01bc
00000350: 756d a83d b5b1 a5bc b596 163d 7dd7 a43d
00000360: 1acd ba3d f625 b9bc 2a6c c83d 7bb8 d43c
00000370: 229e c33d 07ef 353e 5362 193e f6b4 0c3d
00000380: ebd9 743e 9546 8e3d b867 2cbe 8727 36be
00000390: 80f4 1ebd 67c0 7abd 7c69 1d3c fe34 3f3e
000003a0: 319c 013d da38 8dbd 809d 863d 6bb5 393e
000003b0: 96d9 803e b39a ecbc e5d5 56be 185b 173d
000003c0: 7492 41be f693 04be 5300 a8bd 0380 38be
000003d0: 496b 483d d5e8 bebe 0dd5 383e d664 e13c
000003e0: 67a3 5b3e 899d 003d 3d4d 0e3e 4385 1b3e
000003f0: bff7 813d b04e f83d 8ab4 c9bd 12da 0b3e
-0.10772272 -0.21398625 -0.22169244 0.08461918 -0.15556139 -0.2920766 0.2299059 -0.009312805
0.05358675 0.028422495 0.18118915 -0.015443294 0.23171805 -0.030427774 0.21256623 -0.008348307
-0.24897109 0.06219937 0.02390718 0.051354736 0.09667084 -0.1361277 0.08815831 0.14403637
-0.07767647 0.12123268 0.08572348 -0.05780322 0.05616423 -0.1977043 -0.008799858 0.18139364
-0.009951256 0.0697975 -0.005979751 -0.07583466 -0.027712582 0.051266205 0.030133951 -0.051724054
0.08873952 -0.020847863 0.06919638 0.020380614 0.036227148 0.15787737 0.022025106 0.15975073
0.0641498 0.14679685 -0.119936995 -0.1007179 0.060232464 0.12852663 0.24670917 0.004737087
-0.099067636 -0.15518178 -0.019912018 0.04838226 0.040998034 -0.022606343 -0.20487149 0.018620355
0.08679846 -0.23039071 0.0049852766 -0.4248642 0.15598251 0.110590205 0.13229668 -0.08979745
0.1247273 0.22196373 -0.110544 -0.0057543316 0.05013358 0.19491927 -0.097748965 -0.070400625
-0.30927283 0.022224134 0.044669397 0.2469084 -0.20014895 -0.21260838 0.07175635 0.11310975
-0.0482078 3.0090374e-05 -0.076655015 0.1924192 0.058269404 0.11771272 0.07966462 -0.24653046
-0.15806982 0.019480268 -0.018128611 0.09039195 -0.11270218 0.14552192 0.19036998 0.050682124
0.19607013 0.20423417 -0.04136686 0.033054534 0.021187635 -0.112249956 -0.008310026 -0.20208067
-0.068755195 -0.2768295 -0.15346104 -0.17777698 -0.016203139 0.08415661 0.08955765 0.114705
0.10397602 0.09655903 0.17529184 -0.037128117 0.061674498 0.10493592 0.2857789 -0.08283644
-0.08199337 0.10816327 -0.026919823 0.10146744 0.043427415 0.050685823 -0.099348515 0.05204009
-0.04968011 0.22886688 0.092588305 -0.1390437 0.06117966 0.1688004 0.054784007 -0.15598232
-0.1419986 -0.037487313 0.17028561 -0.08295418 0.121274345 0.078081354 0.048727695 0.04587713
0.11107488 0.06967853 0.11840557 0.045285244 0.08826878 0.044699017 -0.16439733 -0.1653682
0.19670671 -0.16761267 -0.037783224 -0.1102345 -0.32661274 -0.00070467923 0.16127355 0.0395086
0.042049807 -0.17928141 -0.09123019 0.061209116 0.004786383 -0.0030129487 -0.077690154 0.0034724595
0.058199015 0.012605988 -0.083461314 0.089229286 0.0071763173 -0.42901802 0.11528693 -0.0052296384
-0.05581671 0.0747177 0.052145828 0.016179897 -0.29992303 -0.100757115 -0.1457134 0.047887333
0.04455201 0.15776226 0.122694954 -0.11407096 0.16667274 0.03980427 -0.15251784 -0.09792371
-0.0043137283 -0.25148776 -0.2985015 0.13118322 -0.16302912 -0.18566927 0.07060521 0.010839148
0.12001484 -0.09657806 -0.036044084 -0.007922559 0.08224002 -0.020226339 0.03676482 0.08048914
0.09121151 -0.022601109 0.09786256 0.025966873 0.09551646 0.17766963 0.14978914 0.034352265
0.23911254 0.06947056 -0.1683644 -0.17788516 -0.038807392 -0.061218645 0.009607669 0.18672559
0.031643096 -0.06895609 0.065730095 0.18135612 0.25166005 -0.02888236 -0.20980032 0.03695211
-0.18903524 -0.12947068 -0.08203187 -0.18017583 0.04893044 -0.37287012 0.18050022 0.027513903
0.21449052 0.031400237 0.13896652 0.15187554 0.06346082 0.121243834 -0.09848888 0.13657406

clf.0.bias f4 [5]
00000000: 176e 6bbd 330a 7abd 30f0 7ebc 628e 283d
00000010: 77c6 94bb
-0.057478037 -0.061044883 -0.015560195 0.04115141 -0.0045402604
