ROSMAP/models/1/C1.pth (torch, 1911 bytes, 2 tensors)

clf.0.weight f4 [2, 100]
000000 3c 34 34 be 77 14 94 be 45 c2 82 3e 84 30 43 bd
       -0.17598051 -0.28921863 0.2553884 -0.04765369
000010 9e c1 54 3e 59 d8 ba ba 19 5e 51 3c ff be 4f 3e
       0.20776984 -0.001425515 0.012778782 0.20287703
000020 e5 6e 03 3e ea 78 ab 3c b7 74 79 be a4 c2 57 3d
       0.12835272 0.02093168 -0.2436093 0.05267586
000030 d4 f8 71 be 91 0c e0 bd 88 1f 21 bb a3 65 f9 bd
       -0.23630077 -0.10939897 -0.0024585444 -0.12177589
000040 46 f7 42 be 25 cb 51 be 42 84 4a 3e 2f 69 80 3d
       -0.1903964 -0.2048765 0.19777015 0.06270062
000050 7c 54 84 3e cc ad 3d 3e ee c7 54 3c 93 08 ba 3e
       0.25845706 0.1852333 0.01298712 0.36334667
000060 3a 0d ad be 8c f7 37 3e 9e c8 21 bf c9 63 0b 3c
       -0.33799154 0.17965525 -0.6319674 0.008507677
000070 9d 3c d9 3e 89 4b fe be eb 23 95 3e 2f 35 1e 3e
       0.42429057 -0.49667004 0.29128966 0.15449975
000080 18 09 82 be ec ec be be d4 70 2a 3e db 83 34 3e
       -0.25397563 -0.37290132 0.16644603 0.17628424
000090 ec 61 30 be b1 99 a4 3d e8 2e 46 3e aa 71 1f be
       -0.17224854 0.08037127 0.19353831 -0.15570703
0000a0 61 cb f9 3b 9c ab 23 be df d9 08 3d 11 a8 d3 3d
       0.0076231216 -0.15983433 0.033410903 0.103347905
0000b0 16 05 4b bd d7 be 8e bd 90 8f af 3d d8 ac 0d bb
       -0.049565397 -0.069699936 0.08572304 -0.0021617915
0000c0 f4 64 7d be cd 8d b4 be ba d2 51 3e e3 0d 03 3e
       -0.24745542 -0.35264435 0.20490542 0.12798266
0000d0 6e c3 c6 3c a8 6e 0e bf 38 55 22 3e 61 7b 4b be
       0.02426311 -0.556376 0.15852821 -0.19871284
0000e0 f2 85 f0 bd 30 2a a8 3e 42 16 ca be 06 2e 54 be
       -0.11744298 0.32844687 -0.39470106 -0.20720682
0000f0 37 31 97 3d 41 9a ce bd 09 cb 0a 3e 6a 5d b6 3e
       0.07382434 -0.10088015 0.13554014 0.35618144
000100 69 8c 69 be 94 be ef bd 93 98 51 be 72 46 4c 3e
       -0.22807468 -0.11706272 -0.20468359 0.19948748
000110 9c a7 63 3e ce 74 01 3e b6 1f b0 3e 75 8d 5e be
       0.22231907 0.12642214 0.34399194 -0.21733649
000120 0d 25 a6 3e 44 68 ab 3d 3a 9a 9a be 16 01 be 3d
       0.32450143 0.083694965 -0.3019579 0.09277551
000130 4b ed c4 be 74 22 e1 3d ae 54 cb 3e 4d 9c 52 be
       -0.3846229 0.109928995 0.39713043 -0.20567437
000140 a3 ea a1 3e 37 9c a8 be e7 de ee 3d fe 5f a5 3e
       0.31624326 -0.32931682 0.11663609 0.322998
000150 2d 53 30 3c cb 94 d8 3e 09 ae e8 bd ab 24 92 3d
       0.010762018 0.4230102 -0.113613196 0.071359
000160 68 b7 09 3f 1f bb 89 3e 29 94 c8 3e 2f ec 2e be
       0.5379548 0.26900575 0.39175537 -0.17082284
000170 87 f8 0d 3e 25 53 77 be 94 49 56 3e 80 74 2f be
       0.13864337 -0.24152811 0.20926505 -0.17134285
000180 57 1e 86 3e 21 32 91 3e b2 d7 89 3e 9e 33 d9 3d
       0.26195022 0.28358558 0.26922375 0.10605548
000190 ce 0f 83 3e e6 8a 6c 3e f4 df 84 be 19 5d 44 3e
       0.25597996 0.2309986 -0.25952113 0.19176139
0001a0 08 b2 b1 3c cb 22 ab be 3a 71 85 3e b7 5a dd bd
       0.021691337 -0.33424982 0.26062948 -0.10808318
0001b0 b3 89 79 be cf 02 9b bd c1 64 87 3c 4d 4c db be
       -0.24368934 -0.07568895 0.016527535 -0.4283165
0001c0 40 d6 9c 3d 96 73 75 3e 43 c7 1e 3e 09 91 e8 3d
       0.076580524 0.23969874 0.155057 0.11355788
0001d0 09 83 9f 3e 9b 57 b6 3e 80 8f e4 ba dc a0 4f be
       0.3115466 0.35613713 -0.0017437786 -0.20276207
0001e0 0e 89 1a 3d ad d6 77 be f1 f2 9a be 6e ad 56 be
       0.03772836 -0.24202986 -0.30263475 -0.20964596
0001f0 e9 48 1b 3e f4 1f c9 bd 88 18 90 3d bb d1 a9 3e
       0.15164532 -0.09820548 0.07035929 0.33167824
000200 4e c2 46 be ff 32 70 3e 82 b1 a4 3d 91 4f 82 be
       -0.19410059 0.23456953 0.080416694 -0.2545133
000210 09 6a 47 3e 1b f9 02 3e b5 d7 5f 3d 13 27 71 3d
       0.19474043 0.12790339 0.054649074 0.058875155
000220 62 6f b9 3d 5a a5 de 3e 10 3e 5e be 65 1e fe 3d
       0.09054448 0.43485528 -0.21703362 0.12408141
000230 01 fe 9d be bc 36 56 3e 91 41 a1 be b2 90 b1 be
       -0.30857852 0.20919317 -0.31495336 -0.34680706
000240 d8 8a 9e 3e b6 c6 60 3e 4e cc 81 be 4c 03 85 be
       0.30965304 0.21950802 -0.25351185 -0.25979078
000250 8c 7c 59 3e 8a 22 7e 3e 24 8d 3d be b8 5c 1e be
       0.21238917 0.24817863 -0.18510872 -0.15465057
000260 4e b4 3e be 78 99 a1 3e 8c 24 18 be c5 cc 26 3e
       -0.18623468 0.315624 -0.14857692 0.16289051
000270 26 53 bd 3d ae 9a db bd 87 7b 20 3e 3b 4e 76 3e
       0.09244375 -0.10722862 0.15672122 0.2405328
000280 95 73 4b be 07 9a 4e 3e 9b 5d 9d bd 7f 6e 54 be
       -0.1986831 0.20175944 -0.076838695 -0.20745276
000290 81 ec 6c 3e db 76 72 3e dd 28 a7 3e a6 69 ab be
       0.23137094 0.23678152 0.32648364 -0.3347904
0002a0 da a2 9d be 37 25 0a bf 99 85 db be b2 ce 47 3e
       -0.30788308 -0.53963035 -0.42875364 0.19512442
0002b0 1d 3f 8d bd 1b fd 8f be 79 cd 4c 3e 62 12 d9 bd
       -0.068968035 -0.28122792 0.20000257 -0.10599209
0002c0 68 45 18 3e d0 ea b0 bd e3 36 57 be 37 8a 00 3e
       0.14870226 -0.08638537 -0.21017031 0.12552725
0002d0 58 34 77 bd 8a 39 bc 3e 3d 10 37 be 07 c1 28 bd
       -0.060352653 0.3676265 -0.17877288 -0.04119971
0002e0 51 8f fb 3e 0e 8f a1 bd 68 f8 86 3e 68 56 24 be
       0.4913278 -0.07888614 0.26361394 -0.16048586
0002f0 66 5e 73 be bc 77 92 be 42 f2 bd bd d3 51 0c 3e
       -0.23766479 -0.28606975 -0.09274723 0.13703088
000300 b6 9a 51 be db c7 88 3d 62 91 65 be 63 6c 67 3e
       -0.20469174 0.066787444 -0.2241874 0.2259994
000310 a9 92 6b be a1 ef 83 be 08 96 5c be 17 33 e6 bd
       -0.23005165 -0.2576876 -0.21541607 -0.11240213

clf.0.bias f4 [2]
000000 ea b4 d6 bc 31 b6 d6 3c
       -0.026209313 0.026209923
