ROSMAP/models/1/C3.pth (torch, 1909 bytes, 2 tensors)

clf.0.weight f4 [2, 100]
000000 14 a1 a7 bd 57 ea 2f be 61 c1 c3 bd 2e 41 71 be
       -0.0818502 -0.17179237 -0.095583685 -0.2356002
000010 53 a8 8b bd 41 bc 7e 3d 74 55 fc bd e9 59 84 bd
       -0.06819215 0.06219125 -0.123209864 -0.064624615
000020 81 82 5a be 07 61 be 3e e3 bf 13 3e 3d 14 07 be
       -0.21338846 0.371834 0.14428668 -0.13191314
000030 33 9c ff 3d d0 22 80 3e e9 ea 0f 3e c5 5e 5a 3e
       0.124809645 0.2502656 0.14054455 0.21325214
000040 2c 4e 48 be 61 ea 82 3e ec e0 1c be 3a db d1 3d
       -0.1956107 0.25569442 -0.15320176 0.10246892
000050 4c 37 1c bd bc 3e 50 3d 0f c3 15 be c6 05 29 be
       -0.038138673 0.05084108 -0.1462519 -0.16506109
000060 fc fe a0 bd 2c 3e 45 3e c8 23 70 be fb 20 3e be
       -0.078611344 0.19261998 -0.2345115 -0.18567269
000070 bd 80 ba bd f5 76 3f 3e a1 14 e5 bd 50 92 5d be
       -0.09106586 0.18697722 -0.11185575 -0.21637845
000080 38 69 d6 bd 30 49 8a be 35 d9 8c 3c 6a 94 36 3e
       -0.10469288 -0.27008963 0.017193416 0.17830053
000090 09 ba 2b be 29 c4 15 be c2 8f 3e 3e 46 5b a0 3d
       -0.16770186 -0.1462561 0.18609527 0.07829909
0000a0 c2 e9 c2 bd 43 12 d6 bd 70 60 28 3d e9 f8 b2 bd
       -0.09517242 -0.10452702 0.041107595 -0.08738882
0000b0 a2 0e 80 3e 54 ab 8d 3d a0 b1 90 be 3d b2 4e 3c
       0.25011164 0.06917444 -0.28260517 0.0126157375
0000c0 31 f0 83 be 63 04 0d 3e f0 b1 ee bd ee ec 15 be
       -0.2576919 0.13771205 -0.11655033 -0.14641163
0000d0 6e 1b 3c be 39 d4 96 3d f1 7c 77 3e cd 58 1a be
       -0.18369839 0.07364697 0.24168755 -0.15072937
0000e0 2d d2 4a 3e c0 01 a8 bd dd 39 29 be a1 0a b0 3d
       0.19806738 -0.08203459 -0.1652598 0.08595777
0000f0 29 22 40 3e 54 95 98 be 6f 9d 81 be 9c 1e cc 3d
       0.18763031 -0.29801428 -0.25315425 0.09966776
000100 c5 f2 ac 3d e6 c1 07 bc c3 43 40 bd d0 23 98 be
       0.08444742 -0.008285975 -0.046939623 -0.29714823
000110 55 e2 af bd 8e 1f 5f 3d 77 c2 d9 3c 05 e9 aa bc
       -0.08588091 0.054473452 0.026581986 -0.020863065
000120 56 b0 9e bc 4a f7 7b 3e d8 f3 72 be 7e 5b d8 3c
       -0.019371193 0.24606052 -0.23725832 0.026410814
000130 71 5b cd 3e 60 8c fe bd 51 2e 2e bd 59 4b 11 be
       0.40108827 -0.12429118 -0.04252464 -0.14188899
000140 e4 87 8b 3e 2d 2e b4 bd 04 f5 86 bd 50 ff 02 be
       0.27252114 -0.0879787 -0.06589702 -0.12792706
000150 35 a0 40 3d c1 2d 28 3e cf 2d 47 be 9b ec 15 bd
       0.047027785 0.16423704 -0.19451068 -0.036602598
000160 74 98 13 3e 89 9a 51 be 76 dd e6 3d b8 83 14 3e
       0.14413625 -0.20469107 0.11272709 0.14503372
000170 e7 d5 2f 3d e9 8d 08 be 2c b7 60 bb 76 31 64 3b
       0.042928603 -0.13335384 -0.0034288866 0.003481952
000180 9c 90 b5 bb 19 d3 23 3d 68 cb e8 bd 93 b5 35 be
       -0.0055409204 0.03999624 -0.11366922 -0.17745046
000190 12 45 57 3d 8b 4a a6 3c 85 33 a1 3d 1b 54 b6 3d
       0.052556105 0.020299217 0.07871155 0.089027606
0001a0 53 f4 3a 3d b6 40 82 3e 7d 2b ac 3c 71 fb ac 3d
       0.045643162 0.25439996 0.02101683 0.08446396
0001b0 75 08 02 3e ec 1e b8 3a a3 65 54 bd fe e5 22 3d
       0.12698539 0.0014047301 -0.05185474 0.03977012
0001c0 06 57 17 bd 4e d8 bb 3d b7 f4 0a be 5c cf 86 be
       -0.036948226 0.09172116 -0.13569914 -0.26330078
0001d0 58 0c 4e 3d df ea b4 bb 40 0e 7c 3e ac b7 99 be
       0.05030474 -0.005521163 0.24614811 -0.30022943
0001e0 fa 77 c6 bd da b7 a0 bd 0d b3 88 3e 93 0f 29 bc
       -0.096908525 -0.07847567 0.26699105 -0.010318655
0001f0 07 23 29 3e cf 71 75 be c4 39 af bd 99 7e 66 3e
       0.16517268 -0.23969196 -0.0855594 0.2250923
000200 04 fa c3 3d 44 e4 1b 3c 94 83 61 3e 54 70 82 3e
       0.09569171 0.009514872 0.2202285 0.25476325
000210 b2 d1 67 be 9c 38 05 be e7 e3 f2 bd 60 20 a1 3d
       -0.22638586 -0.13009876 -0.11859875 0.07867503
000220 a4 c7 3b 3e 06 d2 bf 3d ab e9 77 be c7 c3 a0 3d
       0.18337876 0.09366231 -0.24210231 0.078498416
000230 41 5e 3c 3e 83 d4 03 3e dd b1 9d be 45 f0 36 3e
       0.1839533 0.12874036 -0.3079976 0.17865093
000240 0c 36 d1 bd 57 62 16 3e 9c a1 46 3e 3d 90 20 3e
       -0.10215387 0.14685951 0.19397587 0.15680023
000250 8f c4 a5 3d 29 aa af bd b1 5d 9e be ce 83 94 3e
       0.08094131 -0.08577377 -0.30930856 0.2900681
000260 64 38 0e 3e c5 b2 bb bd 86 98 ac bd 88 be 99 3d
       0.13888699 -0.09164957 -0.08427529 0.07507044
000270 09 75 32 be 90 f1 a3 3d d8 18 59 3d 09 2d 88 bd
       -0.17427458 0.08005059 0.05300221 -0.06649215
000280 73 c1 b7 be 11 8f e1 bd ea 08 65 3d 48 1b a3 3e
       -0.35889778 -0.11013616 0.055916704 0.3185675
000290 94 f9 1f be 0a 92 49 be 0f 85 30 3e bb 9b ba bc
       -0.1562255 -0.19684616 0.17238258 -0.022779336
0002a0 2a c1 9d be 38 39 0a be 5c c6 0f 3e 39 bc 85 3e
       -0.30811435 -0.1349839 0.14040512 0.26120165
0002b0 9e be 4f 3e 82 f3 a3 bd c6 bb 95 3d 2b 22 46 3e
       0.20287558 -0.0800543 0.073112056 0.19348972
0002c0 74 35 d4 3d 70 c9 96 bd c5 6a 51 3d 9c 8b 79 3d
       0.10361758 -0.0736264 0.051127214 0.060924158
0002d0 71 05 14 be 34 89 11 3d 73 4f 01 3e 0d c4 a0 3d
       -0.144552 0.035531238 0.12627964 0.07849894
0002e0 ba 25 39 3e a6 45 2d be 6d e4 49 3b 2a a9 a9 3e
       0.18080798 -0.169211 0.0030806318 0.33136874
0002f0 c0 c6 42 3d b9 26 2b 3d f8 db 61 bd 63 22 09 be
       0.047552824 0.041784976 -0.05514142 -0.13392024
000300 ae 86 ca bd 29 6d 00 be c5 cf e6 3d fb 5c 80 3e
       -0.09888969 -0.12541641 0.11270098 0.25070938
000310 4a ca 64 3b 53 93 42 3e 26 87 6c 3e 3b 9f 38 3e
       0.0034910613 0.19001512 0.2309843 0.18029492

clf.0.bias f4 [2]
000000 26 bf 6f 3b 4d b3 6f bb
       0.003658244 -0.0036575377
