ROSMAP/models/1/E1.pth (torch, 404227 bytes, 6 tensors)

gc1.weight f4 [200, 200]
00000000: 28a0 dbbd 5dee f03d cea9 48bd bf4c d0bd
00000010: d771 1c3d 8446 09be fa07 0ebd 0dba 34be
00000020: b4a2 8c3d e55a 183e 31da dabd 1831 c5bc
00000030: 1560 133d 4fd3 083d e7c6 0fbe 0391 4fbd
00000040: d92f fdbd b3d5 843d 2e4d c3bd d5ee 533d
00000050: ece6 d43c 0760 34be d056 bebd 550b 183c
00000060: e8db 14be 4230 3cbe 3907 bbbc 4395 62bd
00000070: a531 57bd dd71 0fbc 4bdd 603d 09a4 343c
00000080: f8d1 303e 08dd e2bd 3652 f63d c288 e7bd
00000090: 6b99 ed3d c063 70be fb25 883e 2786 7f3e
000000a0: b9e7 5e3d 2f89 83be f043 eebd 9305 16be
000000b0: e94d a5bd e41c 01be 0cc0 c6bd cc4c 28be
000000c0: e3d8 03be 161b 48be af25 3ebc abf7 b5bd
000000d0: 56a2 463d da14 1abd 5d6f 373e 56bd 033e
000000e0: 3a50 3dbe fbbf ce3d c3bf f0bd ebd0 5cbd
000000f0: 2c3f 483d 7ed1 cfbc 9de1 0c3e a471 9cbd
00000100: 35d3 fcbc 6bd8 37be b64e 963c 689e 343e
00000110: 573b 013e af8f 39bd 55b0 033e 7cf5 1dbe
00000120: 9012 843d 7dfc 5ebd f4c3 0d3e 7779 d5bc
00000130: bb29 d2bc 2164 fc3c 1198 8bbc e20a 08be
00000140: 0327 25be 714d 72be 52f5 09bb 7ae7 20bd
00000150: 7455 d53c 05f4 0cbe dbba 5f3e 29b6 273e
00000160: 43e5 47be 0cd4 e9bd 0e0f 4fbe 11bf a0bd
00000170: c5d6 29bd 3e93 1b3e cec0 7ebe 95d5 bd3d
00000180: aed3 f4bd bd81 46be 1b5a 423d 07b6 803e
00000190: f520 3e3d ea59 803e af82 0f3e 8dc2 5b3e
000001a0: e791 333d a5e9 e43d 4400 05be 42f2 56bd
000001b0: a2e6 27bd 1d4a 613c 406b 2fbe 685e ac3c
000001c0: d53b d73c af29 01bb a9d4 28bd 5f93 06be
000001d0: 0883 04be e3eb 103d a349 b73d 91fe 80bc
000001e0: 6ce5 3a3d 3f2a 363e 3fad 723d a46a bfbd
000001f0: 317b 3f3d 5407 b83d f42a f7bb 0888 38be
00000200: 3290 00be caaa 30bd 941c 13be 809f ae3d
00000210: 77f8 16be 3e72 febd d08b 263e 443d f0bd
00000220: 14c0 63bd bd5b 253b 211e 3f3e 5105 14be
00000230: 1c90 463e a5bd dbbd a613 debd ce8c 9e3d
00000240: 4508 413e e509 15bd 3e06 1d3d 7299 e03d
00000250: f26d f13c 7054 cbbd 071f e7bd 0e12 d9bd
00000260: 42b9 d9bd e93f fa3d 3f77 973d 1c7b 223c
00000270: b24a b93d cdac 473d 0a06 383e d882 42be
00000280: b090 08bd e4b9 91be 5751 853d 963b 39be
00000290: 8bc1 26bc 3957 3bbd 1f60 933d b92f 903d
000002a0: ef31 f63d 88d0 b9bd 396d 04bd a9d7 a03d
000002b0: 4910 a93d 6de6 3dbe d372 90bc c527 0d3e
000002c0: 74a7 3a3c 235d 28bd 0f47 903e b1e7 14be
000002d0: 68ef b03d 5534 e53d bc1c 923d fa77 98bd
000002e0: 10f7 31bd 74b2 653c 9f8e df3c a7a3 283d
000002f0: 6cc9 e2bd 03e3 9a3e b7f9 8c3a 4961 413e
00000300: 0728 dcbc 63bd a6bc bfa9 8b3d 8b86 c4bd
00000310: c655 7cbd fdc7 1bbe 8192 4ebd d308 843e
00000320: 090d 85be fffb 033e c464 1c3d 0f5c 463d
00000330: 48fa b03c 2298 34be 774d 8b3d f3dc 05bd
00000340: d707 5c3d 33b0 253d 969c 8cbe 99fa a4bd
00000350: 4ddc 5fbd bcba 743d 17ca 2fbe dac3 50bd
00000360: 1a14 8a3c 27af cb3d 9177 42be ddb0 bb3d
00000370: 08b0 68bd 749a 313d 18e7 3ebe 2bde c2bd
00000380: 51f3 bdbd f532 09be a7ee fa3d a530 a8bd
00000390: 5fea 123e a9a7 063e 8ba8 7b3c a3af 28bd
000003a0: 17e3 433e 02dc 5abe 6a1f 423c 8ba8 2a3d
000003b0: bc04 b83d f457 06be 9961 523d 0604 86bb
000003c0: c067 463e 1f4e 38be 4e73 8bba 2c80 e4bd
000003d0: 45d0 c2bc 293e 873c f997 e6bd 353e 85be
000003e0: ee22 4b3c 00c6 2cbe 740d 0f3c 6f9b 25bd
000003f0: 1248 5abd c824 36bc 9a7e d73d 5658 723e
-0.10723907 0.11764214 -0.048990063 -0.10170888 0.038194504 -0.13405806 -0.034675576 -0.17649098
0.06866971 0.14878424 -0.10686148 -0.024071261 0.035980303 0.033404645 -0.14040719 -0.050675403
-0.12362642 0.064860724 -0.09536205 0.05174144 0.025989018 -0.17614757 -0.09293902 0.0092800455
-0.14537013 -0.18377784 -0.022830592 -0.05531813 -0.05253758 -0.008755174 0.05489854 0.011025437
0.17267597 -0.110773146 0.12027399 -0.11305381 0.11601528 -0.23475552 0.26591477 0.24953519
0.054420207 -0.256906 -0.11634052 -0.14650564 -0.08071501 -0.12608677 -0.09704599 -0.16435546
-0.12875704 -0.19541582 -0.011605664 -0.088851295 0.04849466 -0.03761754 0.17913575 0.12865195
-0.18487635 0.10095211 -0.11755326 -0.053910177 0.04888837 -0.025368448 0.1375794 -0.07638863
-0.03086243 -0.1795365 0.01834808 0.17638552 0.12620293 -0.045303043 0.12860234 -0.15425676
0.06448853 -0.05444001 0.13844281 -0.026058896 -0.025654664 0.030809464 -0.017040284 -0.13285401
-0.16128163 -0.23662354 -0.0021050763 -0.039283253 0.026041724 -0.13764961 0.21848623 0.16378082
-0.1952105 -0.11417398 -0.20220587 -0.07848943 -0.041464586 0.15192887 -0.24878237 0.09269253
-0.11954437 -0.19385429 0.047449213 0.25138876 0.04641815 0.250686 0.14014696 0.21460934
0.043840315 0.11177377 -0.12988383 -0.05247713 -0.040991433 0.01375058 -0.17130756 0.02104111
0.026273647 -0.0019708683 -0.041218434 -0.13142155 -0.1294061 0.03538121 0.08949592 -0.015746387
0.04562895 0.17789553 0.05924725 -0.09346512 0.046748344 0.08985773 -0.007542962 -0.18020642
-0.12555006 -0.043131627 -0.1436637 0.08526516 -0.1474322 -0.12424134 0.16264272 -0.117304355
-0.0556031 0.0025231682 0.18663837 -0.14455153 0.19390911 -0.10729531 -0.108435914 0.077417
0.18850811 -0.03638639 0.03833603 0.10966767 0.029471371 -0.099282146 -0.11285215 -0.10599147
-0.10631038 0.12219221 0.07395791 0.009917047 0.0904745 0.04874878 0.17971054 -0.18995225
-0.03334111 -0.28462136 0.06509655 -0.18089136 -0.01017798 -0.04573748 0.07196068 0.070403524
0.12021243 -0.09072977 -0.032330725 0.07853634 0.08255059 -0.18544932 -0.017632877 0.13784702
0.011392463 -0.041104447 0.28179213 -0.14541508 0.08639413 0.11191622 0.07134387 -0.07444759
-0.043448508 0.014019597 0.027289687 0.041171696 -0.110735744 0.3025132 0.0010755573 0.18884768
-0.026874555 -0.020353978 0.06819486 -0.095959745 -0.061605237 -0.15213008 -0.050432686 0.25787982
-0.25986508 0.12889098 0.038182035 0.048427638 0.021603718 -0.17636159 0.068018846 -0.032681417
0.053718414 0.04045124 -0.27463216 -0.0805561 -0.054653455 0.059748396 -0.17166935 -0.05096803
0.016855288 0.09945517 -0.18990923 0.09164593 -0.0568085 0.04336019 -0.18642843 -0.095150314
-0.092749245 -0.13398345 0.122525506 -0.08212403 0.14347218 0.13149895 0.015360008 -0.041183125
0.19129597 -0.21372989 0.01184831 0.04166464 0.08985278 -0.13119489 0.051362608 -0.004089835
0.19375515 -0.17998551 -0.0010639222 -0.11157259 -0.023780951 0.016509132 -0.11259455 -0.26024023
0.012398465 -0.16872406 0.008731235 -0.040431436 -0.053291388 -0.011117168 0.10522194 0.2366651

gc1.bias f4 [200]
00000000: b968 053c 52d9 6ebc 4119 e03b c8be 21bc
00000010: 160e 6e3b a8cb c23c 0f3f a13c b704 6d3c
00000020: 6461 b23b f667 91ba 3e0b e23b 2bca 26bb
00000030: 8682 4d3a 56c5 1ebc a2b6 843c 3cc6 4bbb
00000040: 5ab7 c0bb 40fb 36bb bd5e 3e3c e62a a03c
00000050: 5631 a4bb 24bf 5f3c 968c 1b3c 5feb 09bc
00000060: 3e49 0cbc 8571 9d3a 1a1f 673b 999a cb3a
00000070: 4406 1d3c 3705 b3bc a2e6 35bc b716 3cbb
00000080: 00bf 1a3b a59d 993c 75d5 3d3c 1684 0e3c
00000090: 6394 aebc 38e3 1d3c f52c d13b bbe3 b73c
000000a0: 1b18 a23c 21f5 883b 4734 dc3b 14be 013c
000000b0: c33c 8d3c 3b45 013d 362c cbbb 1025 673c
000000c0: 9c05 3dbb c835 73bc 607b d938 7dd7 a83c
000000d0: 9271 c4bb aec3 dcbc 02d7 8a3c 9ed8 023c
000000e0: e4f3 223b 7134 dbba 65cb a33b 8898 01bd
000000f0: 2c42 033d f837 1bba 88c1 ec3b 7bbe 0a3b
00000100: 5c29 173c f9b3 13ba f749 69bb 7dcd ae3b
00000110: 9ad7 e83b da8d ac3b 4523 533c 5b86 eebc
00000120: 51f7 463c fd8c 89bc c284 0d3a 93ee 243b
00000130: 469d e7bc cf8a 4abb 3a4b cdbc 6590 d3bb
00000140: be7d 403c fed0 293c 8620 483b b3cc a43c
00000150: b741 b3bb dde9 b43b 3d47 893c 1347 bb3c
00000160: 8660 43bb d9b4 c1bc 164f f4bb eba5 c03a
00000170: 37a1 35bb e255 b8ba d979 a53c da43 c53b
00000180: 0b13 4d3c dc27 7a37 9d3e e7bc 6f16 afbb
00000190: 20dd 5dbc 904c 073c 3272 253c 5cb9 803c
000001a0: 48c0 5abb e1f1 4dbc 69f9 28bc 811a 753c
000001b0: bb70 4437 f762 993c 753a 6d3c d9ee da38
000001c0: fa0c 9f3b ab65 4d3c 4ea7 de3b d3e8 a33c
000001d0: b59c 5dbc c144 1c3b eb47 c93c 4c9e bc3b
000001e0: 527a 4cbb 300d 023c b26f 25bb e1a6 5c3c
000001f0: d4fb e4bb 9939 093c 1fd8 8ebc b5f9 6c3a
00000200: 7cdb 9d3c b3f8 8dbc c94a f8bb 3fb0 9aba
00000210: 7216 52bc c1dc 303c 13f4 b1bc 51f0 853c
00000220: 904c 5cbc 4338 323c a31f 67bc 71cf 7cbc
00000230: b038 a33c ff0c 643b 9367 9dbb 681c b13c
00000240: 9d87 5fbb bb43 653b 76f1 1fbc d12f 883b
00000250: 779e 303b efb1 39bc af84 af3c ff97 02bc
00000260: 27fb ac3c 8a7a cebb 4d62 1d3b 2f6f c0ba
00000270: d6ea a5bc 2652 e6bb 30a0 95ba b849 8e3c
00000280: a2ce a93c efa6 9a3b 164c 96bb 20d3 6dbc
00000290: 3511 26bc 2165 0bbc 0ffc b83c cfa9 3abc
000002a0: 24a5 f83c 6ef0 0cbc e0b2 593c b2c4 9d3c
000002b0: af42 623c 5f7c 643c 8992 753c 7721 7e3b
000002c0: 61cf ae3b 77c4 d9b6 4d51 473c 45ad d6ba
000002d0: 93a8 633c 34a0 5eb8 58e4 b43c e9fb 1aba
000002e0: 30f2 d33b 733a 94bb 8409 943b 1577 703a
000002f0: ab3a 87bc 6203 43bc 6533 2a3b 6b71 943c
00000300: 3554 79bc 51de 973c 7f98 1d3c c47a 38bc
00000310: 975b 8c3a 0da6 29bc 0359 97bb 8d16 3e3c
0.008142644 -0.01457818 0.006838948 -0.009872146 0.0036324314 0.023778751 0.019683389 0.014466456
0.005443739 -0.0011093605 0.006898313 -0.0025450091 0.0007839579 -0.009690603 0.016200367 -0.0031093499
-0.005881232 -0.0027920753 0.011619267 0.019551706 -0.005010764 0.013656411 0.0094939675 -0.008417933
-0.008562384 0.0012011981 0.003526634 0.0015533745 0.009584013 -0.021853073 -0.01110235 -0.0028700063
0.002361238 0.018751929 0.011586537 0.008698484 -0.02131099 0.009636693 0.006383533 0.022447458
0.019786885 0.0041796123 0.006720099 0.007918853 0.017240888 0.031560164 -0.0062003387 0.0141079575
-0.0028842455 -0.014844365 0.00010370347 0.020610565 -0.005994984 -0.026948776 0.016948227 0.007986216
0.0024864608 -0.0016724003 0.0049986118 -0.031639606 0.03204553 -0.0005921121 0.007225219 0.0021170664
0.009226169 -0.0005634423 -0.0035597065 0.0053345547 0.00710578 0.0052659335 0.012886827 -0.0291168
0.012143926 -0.016790861 0.00053985056 0.0025166615 -0.028273236 -0.003090549 -0.025060285 -0.006456422
0.011748729 0.010364769 0.0030536964 0.02011714 -0.0054704803 0.0055210427 0.016757602 0.02286104
-0.002981217 -0.023645805 -0.007455717 0.0014697885 -0.00277145 -0.0014063681 0.020199703 0.0060200514
0.012516747 1.4910442e-05 -0.028228099 -0.0053432505 -0.01354149 0.008258 0.010098027 0.015713386
-0.0033378769 -0.012569875 -0.01031337 0.014959932 1.17087575e-05 0.018723948 0.014479269 0.00010439539
0.004853842 0.012536447 0.0067948466 0.02000848 -0.013526131 0.0023844691 0.024570426 0.005756175
-0.0031200838 0.007937714 -0.0025243578 0.013467521 -0.006988028 0.008375549 -0.017437039 0.0009039895
0.019269697 -0.017330503 -0.0075772745 -0.0011801793 -0.012822734 0.010794819 -0.021722829 0.016349943
-0.013445988 0.010877672 -0.014106664 -0.015430317 0.019924492 0.0034797785 -0.004803607 0.02161999
-0.0034107931 0.0034982997 -0.009762159 0.004156091 0.002694992 -0.011333927 0.021425573 -0.007970809
0.021115853 -0.006301229 0.002401489 -0.0014681573 -0.02025358 -0.007028836 -0.0011415537 0.017369136
0.020728413 0.004719607 -0.004586707 -0.014515668 -0.010135938 -0.008507998 0.022581128 -0.011393025
0.030352183 -0.008602245 0.013287276 0.01925883 0.013809844 0.013945668 0.01498855 0.003877727
0.00533478 -6.4899755e-06 0.01216538 -0.0016378543 0.013895172 -5.3078125e-05 0.022081539 -0.00059121713
0.00646808 -0.0045235693 0.004517736 0.0009173018 -0.016507467 -0.011902662 0.0025970575 0.018120488
-0.01521783 0.018538626 0.009618877 -0.011259738 0.0010708448 -0.010354531 -0.0046187653 0.011602056

gc2.weight f4 [200, 200]
00000000: ba12 eb3d 7b44 debd 6a3b c6bc db22 b3bd
00000010: b82a c0bd 9ef3 943b 5a8a b4be 379a bd3d
00000020: 3738 523d 65a4 08be 2a03 fd3d 6d43 db3d
00000030: dcc6 703e 1f1e 393d a513 13bd 7e79 20bc
00000040: 02e0 f93d 8612 13bc 5542 92be 4280 f03d
00000050: 0be7 a0bd 586f 493d 3aca 443d 4be0 db3c
00000060: 716c 78bd 096e 9f3c 8d81 a0bc 06e8 a43e
00000070: b6c6 6b3d 9a68 9ebd ed3a 133e aa3a 01be
00000080: b86f 083e de96 843d 7e54 c23e fca7 10be
00000090: 34ea 983c ce76 b13b 9491 793e 8f5e ecbd
000000a0: e3e8 26be 07ce 373e 2f2b 193e b038 dd3c
000000b0: 3653 8a3c 282a c43d 7038 0a3d 3b1b ac3b
000000c0: bca8 c0bc e7c6 15bb 8229 2b3e 89bb 5f3e
000000d0: 8ed8 39be 240d 62bc f44c 88b9 b765 753c
000000e0: 23e0 333d 0f50 bf3d 8710 08be 3a3b a2bd
000000f0: a566 6abc 43dd 3b3c 983c df3d 8738 3e3e
00000100: a963 bf3d 83a6 bbbd 86d7 553e 7dca 7a3e
00000110: 2d0f 543a 17b8 703d cbe3 edbd 0d70 033d
00000120: 0307 18bc 12f5 dd3d 7985 0c3e 101c a5bc
00000130: e711 5a3e f369 9ebd 80d8 34bd 9b7a 3d3d
00000140: 3f28 483b 1f42 1cbc 1798 c03d 44af 9dbd
00000150: c9ed 883d fb6a 783d 83e7 213d 9184 d43d
00000160: 1b88 023e b764 da3d 8c5c 2cbc fa16 6b3d
00000170: ef15 0e3e 5078 3b3e 780f 053e de26 6abd
00000180: c917 393e a443 b63d 1337 c2bc a2ed 5d3e
00000190: 42dc 403e 688e b4bb 6cd4 1e3e 08ce f53d
000001a0: d687 25bb 38c8 84bd 9a66 093e 825c 1dbd
000001b0: 042e 863c b99d 91bd 2dc5 8ebd e53b 8e3d
000001c0: 843c ceba 6d32 483b 469f 113d ed7e 47bd
000001d0: a9fd a0bd 3f16 70bc cb1e 55be 06a3 ce3d
000001e0: 6630 0fbe db2a 92bc f9fa 5b3d e35d f2bc
000001f0: 0c4c a3bc baf8 183c e4db 8fbb aa26 473c
00000200: bd60 05bd f725 073e 244f ee3d d676 863e
00000210: 15da 55bc a2ac 883d d012 853e 72f6 a0bc
00000220: 05cc 5e3e c8f1 463d 1631 e2bc d4a1 b3bd
00000230: b7d6 4b3e a972 12be b067 3c3e db3a 103e
00000240: d82c eb3c 8a94 9cbd be65 583e df03 8d3c
00000250: 0f71 133d 2a18 6bbd f1d7 fa3d b1ef 363e
00000260: 7f02 303e 2b9c 543e 0386 143e 3b89 053d
00000270: db15 88bc 7d43 963e 9a46 903d 1cd9 5d3d
00000280: 912f 07be 4bfc 3c3e 2fe6 393c 5ca9 eebd
00000290: f44e acbd e730 39be f795 833e 61b4 003e
000002a0: c2fc 593d 26d6 6fbc 0508 dabd 122e 6e3e
000002b0: e608 29bd bd89 bf3d a418 ce3c 1b78 a8bd
000002c0: 2ab3 9fbc d9ea c83d 8d25 bb3c b338 2fbe
000002d0: 7e30 0b3e 2ebb 073e 41cc bebd 1549 a1bd
000002e0: 54ec 043d e0f1 923b 28cd 173e b1e5 e1bc
000002f0: a881 f1bd 1010 8d3e a965 ea3d dbf9 063e
00000300: afa1 533e 506d 713e 36e2 98bd e909 033d
00000310: fe40 6f3e 68b6 013c 6b79 123d c243 c2bc
00000320: d1bc 103d 6c75 9a3d 82fd 24bd c7a9 233d
00000330: 4755 dbbc b40d dbbd 250c fdbc 599e dc3c
00000340: 6eab 363d 67c2 d33d 8aab 223d 654d b83d
00000350: 0666 a4bc 55e0 95bd 2942 32bd e99a d73d
00000360: 2b25 923c 239c a63d 589c a33d d473 4b3b
00000370: e3df f6bc 333f d23b 92a7 a5bd 0e6a 2bbd
00000380: f019 333e f2e7 b3bc d009 8dbe 824b d3bd
00000390: 0ab8 043e fe27 0bbe 6b0f 063d c86f 5c3c
000003a0: ffef ee3c 1b56 8f3c 5fdc 7dbd 4dce afbd
000003b0: adb6 b1bd fdee 21bd fa77 f43d da11 52bd
000003c0: 5a93 8d3c dcfd a13d a92f 27bc 7047 c8ba
000003d0: 097e 6bbd f978 cfb9 5f4a 213c 4e82 77bc
000003e0: fa94 863c 4b64 93bd 5b25 70bb a425 1ebe
000003f0: 01f0 e7bd b0ed d53d b7f5 a0bb 687f 0fbe
0.11478181 -0.10852905 -0.024198253 -0.087468825 -0.09383148 0.004545643 -0.35261804 0.0925793
0.051323142 -0.13343962 0.12354119 0.1070622 0.23513359 0.04519474 -0.035907406 -0.009794591
0.12200929 -0.008976584 -0.28566232 0.11743213 -0.07856568 0.04917845 0.04804442 0.02684035
-0.060650293 0.019461649 -0.019593025 0.3220827 0.057562552 -0.07734795 0.14377947 -0.12620035
0.13323867 0.06474088 0.37955087 -0.14126581 0.018666364 0.005415774 0.2437194 -0.11541473
-0.16299777 0.17949687 0.1495788 0.02700457 0.016885381 0.09578353 0.03374523 0.0052522696
-0.023517959 -0.002285415 0.16715053 0.21848883 -0.18149015 -0.013797078 -0.00025997276 0.014977864
0.043914925 0.09341442 -0.13287555 -0.07921453 -0.014306699 0.011466327 0.10900229 0.18576251
0.093451805 -0.09162619 0.20882997 0.24491306 0.00080894196 0.05876931 -0.11615714 0.03208928
-0.0092790155 0.10837759 0.13722791 -0.020154983 0.21295892 -0.07735052 -0.044151783 0.046259504
0.0030541567 -0.009537249 0.09404009 -0.07699445 0.06685979 0.0606489 0.039527427 0.103768475
0.12747233 0.10663741 -0.010520112 0.05739496 0.13875555 0.18307614 0.12994182 -0.057165973
0.1807548 0.0889962 -0.023707902 0.21672681 0.18834022 -0.00551014 0.1551072 0.12002188
-0.0025257966 -0.06483501 0.13418046 -0.0384183 0.016379364 -0.07110161 -0.06971202 0.06945018
-0.0015734588 0.0030547634 0.035552286 -0.04870503 -0.07860882 -0.014653741 -0.20812528 0.10089688
-0.13983306 -0.0178427 0.053706143 -0.029585784 -0.019933723 0.009336645 -0.0043902267 0.012155214
-0.03256296 0.13198076 0.116361886 0.2626254 -0.013052483 0.06673552 0.25990915 -0.019648764
0.21757515 0.048570424 -0.027611297 -0.08771101 0.19906126 -0.14301552 0.18398929 0.14084952
0.028707907 -0.07645519 0.21132562 0.01721376 0.035996493 -0.05739609 0.12248219 0.17864873
0.17188452 0.20762698 0.14504246 0.032601576 -0.016611984 0.29348364 0.07044716 0.05416213
-0.13201739 0.18455617 0.011346384 -0.116533965 -0.084134966 -0.18085061 0.25700352 0.12568809
0.053219564 -0.014638459 -0.10646061 0.23259762 -0.04126825 0.09352443 0.025158234 -0.08226033
-0.019494612 0.09810419 0.022845054 -0.17111473 0.13592717 0.13254997 -0.09316302 -0.078752674
0.032451943 0.0044844 0.14824355 -0.027575346 -0.11792308 0.27551317 0.114451714 0.1318125
0.20667146 0.23576856 -0.07465021 0.031991873 0.23364636 0.007917024 0.035760324 -0.02371395
0.03533632 0.07541928 -0.040280826 0.039956834 -0.026774062 -0.10695973 -0.03088958 0.026930975
0.04459708 0.10339814 0.039714374 0.08999137 -0.02006818 -0.073181786 -0.043520126 0.10527594
0.017839989 0.081352495 0.079888046 0.003104438 -0.030136054 0.0064162253 -0.08088602 -0.04184919
0.17490363 -0.021961186 -0.2754655 -0.10317136 0.1296083 -0.13589475 0.032729547 0.013454385
0.029167173 0.017497113 -0.06197774 -0.085842706 -0.08677421 -0.039534558 0.11936946 -0.051286556
0.017282177 0.07909748 -0.010204234 -0.0015280079 -0.057493243 -0.00039572248 0.009844392 -0.015106751
0.01642846 -0.07196864 -0.003664336 -0.15444046 -0.11325074 0.10445726 -0.004912104 -0.14013445

gc2.bias f4 [200]
00000000: 239d 703a f84c 32bd 382f e53a cc17 da3b
00000010: 6e39 533b 8ec9 60bc 7e70 2ebc ce45 ccbc
00000020: 0fd0 b3bd 4347 ffbc 7a11 59bd 53c8 91bd
00000030: 90f4 63bc 0594 afbc 5032 3d3b 0470 8fbc
00000040: 89cc 66bc 5080 76bc 6d02 6cbb f311 f9bc
00000050: 5fd7 35bd 8331 a83c ef70 183d 0681 6a39
00000060: 76e0 fa3c 1ad6 cebb d039 113d dca5 363a
00000070: 30d7 5fbd d1ec 11bd d4c7 543c 1a85 8eb9
00000080: e0d5 87bc 9771 2cbc 80f0 03bd b99f cebc
00000090: 1767 3d3b 341a 45bb 9f0c 8abc 90a3 edbc
000000a0: 6d5d 2dbd 4e34 b5bd 9d17 17bd 6152 b5bc
000000b0: a3a2 19bc 6aed eebb 3f0e eebc 362d 29bc
000000c0: 3d44 22bd 5159 b33b d472 7abc 86fa d8bc
000000d0: a68a edbb cc37 7abd 3e05 a7bc 7b16 9fbc
000000e0: a72c 08bc 3300 1bbc fe15 32bd 2916 92bb
000000f0: 60f7 b9ba 7fd1 843a 3037 d6bc 64a4 a8bb
00000100: 8ca4 18bd 4c8d 02bd f789 bebc 50cb e0bb
00000110: 4f23 c2bc 50f5 3dbd 4341 29bc 1923 9bbb
00000120: e444 17bd 6ad3 0cbd 087d 0abd 59f7 13bd
00000130: 43f8 563c f2a3 45bc dbe3 9ebc e723 6ebd
00000140: 21eb 10bd 7c9e 42bd af72 7c3b a94f 4bbd
00000150: 0896 23bc 5ff9 d7bb 2e62 e1bc 432b a9bc
00000160: a23a 5fbd b9e3 0cbd 73bb 43bc 1ab0 bbbc
00000170: a0f7 a5bc 8950 6bbd 1f39 4dbd 0194 e8bc
00000180: e382 dfbb 879c bfbb 4592 693c 4a5d 8ebc
00000190: bab9 a4bb 2a2a 143b 9247 0f3c 9b6e 2b3c
000001a0: dfcb 0cbd b1a9 06bd 64c9 19bc f002 cfbc
000001b0: 8e48 bf3a d32a 0dbd 32ef 44bc 89d8 14bd
000001c0: 562f 32bd 2c12 debc dd82 76bd ae1b d1bc
000001d0: f9c9 8dbc b1b2 54bd a904 e3bb fc23 70bc
000001e0: df1b 2ebd 2ba2 6fbc 3ce2 bebc 074b 44bd
000001f0: ec07 d2ba dfe4 d93c e3d7 cabc 5f52 ccbc
00000200: 8a22 0fbd ce75 f1bc 8abb 03bd 5bcf 99bc
00000210: 67fd 55bd 7da4 06bd ee71 ba3b 2001 7939
00000220: a2e5 9d3b 72db 503c 34ed f8bc 637c 0abd
00000230: e5d1 81bc 9659 4cbc d3f2 76bc 76bf aebd
00000240: c0e5 89bd 8051 16bd 5164 dfba 4024 95bc
00000250: 20ad 9abc c823 16bd c8b9 2bbc 8cee 223b
00000260: 54f9 21bc d306 02bc 7f4f b23c 6b70 98bb
00000270: cd42 75bb 2cdc 08bb 47c1 303c 1c0b 64bc
00000280: 3313 3cb6 f6f6 35bd d8c7 eabb 92d7 b8bb
00000290: b7a1 c2bc cc7b cabc 4fbe 7abc 1e37 43bc
000002a0: dc09 31bb c2e2 be3c 2459 e0bb 17c6 4c3b
000002b0: 4df8 38bd ae4b 43bc 14a1 d13b afd8 e53c
000002c0: 4ef2 f2bc bb3e efbb 3476 e1bc 3dea a23c
000002d0: cc99 83bc 8d1e b6bc d130 bcbc 9869 0639
000002e0: 3ed9 8f3b c239 ddbb bc88 9ebc 28a9 cf3c
000002f0: e91a a9bc 06fd 8abb d1d4 34bb 44a2 20bb
00000300: 8177 5abd 8bd2 2bbd e780 2a3c 56f4 d9bc
00000310: 5fe6 84bc 4d6c a1bc 3663 b33c d7cb dfbb
0.00091786886 -0.043530434 0.0017485386 0.006655669 0.0032230276 -0.013719929 -0.010646937 -0.02493563
-0.087799184 -0.03116191 -0.052995183 -0.07118287 -0.013913289 -0.021432886 0.00288691 -0.017509468
-0.014086851 -0.0150452405 -0.0036012188 -0.030404067 -0.044394847 0.020531422 0.037217077 0.00022364044
0.03062461 -0.006312144 0.035455525 0.0006967464 -0.05464858 -0.035626236 0.012987096 -0.0002718352
-0.016581476 -0.010525129 -0.03221178 -0.025222646 0.0028900558 -0.0030075433 -0.016851721 -0.029008657
-0.042325426 -0.08847867 -0.036887754 -0.022134008 -0.0093771545 -0.0072914856 -0.029059527 -0.0103257205
-0.03961586 0.005473294 -0.015286166 -0.026486646 -0.007249194 -0.06108837 -0.020388242 -0.0194199
-0.008311427 -0.009460497 -0.043478005 -0.004458208 -0.0014188103 0.0010133235 -0.026149362 -0.00514655
-0.0372663 -0.031873032 -0.023259146 -0.0068601742 -0.023698477 -0.046376526 -0.010330501 -0.0047344086
-0.036930934 -0.034381308 -0.033810645 -0.03612456 0.013120714 -0.012063013 -0.01939576 -0.058139708
-0.035380486 -0.047514424 0.0038520505 -0.049636517 -0.009984501 -0.0065910066 -0.027512636 -0.020650512
-0.054499276 -0.03439686 -0.011946547 -0.02291112 -0.020259678 -0.05744985 -0.050103303 -0.028390886
-0.006821023 -0.005847517 0.014256065 -0.017378468 -0.005027023 0.002260814 0.008745091 0.010463382
-0.034374114 -0.032876674 -0.009386394 -0.025269955 0.0014593767 -0.03446467 -0.012019919 -0.036339317
-0.043502174 -0.027108274 -0.060183395 -0.025525894 -0.017308222 -0.051928226 -0.006928046 -0.014657017
-0.04250705 -0.014626066 -0.023301236 -0.047923114 -0.001602409 0.026598392 -0.024761146 -0.024941621
-0.03494505 -0.029475119 -0.032161273 -0.018775633 -0.052243616 -0.032871712 0.005689851 0.0002374691
0.004818634 0.012747632 -0.030386545 -0.03381003 -0.015847156 -0.012472531 -0.015072542 -0.08532612
-0.067332745 -0.03669882 -0.0017043446 -0.018205762 -0.01888138 -0.036655217 -0.010481305 0.0024861423
-0.009886105 -0.007936197 0.021766422 -0.004652073 -0.003742385 -0.0020883186 0.010788268 -0.013918664
-2.8025358e-06 -0.044424973 -0.0071649365 -0.0056409324 -0.023758752 -0.024717234 -0.015304162 -0.011914996
-0.0027013933 0.023301486 -0.006846564 0.0031246 -0.045158673 -0.011919899 0.006397376 0.028057424
-0.029656556 -0.007301179 -0.027522184 0.019887084 -0.016064547 -0.022231365 -0.022972496 0.00012818573
0.004389911 -0.00675127 -0.01935231 0.025349215 -0.020642715 -0.0042415885 -0.0027592669 -0.002451078
-0.053336624 -0.041948836 0.010406709 -0.026605766 -0.01622313 -0.019704962 0.021897893 -0.0068297195

gc3.weight f4 [200, 100]
00000000: 26cb ce3d ae7d c5bb c327 f13d a84e 803d
00000010: f9bf ff3d a19f 973d ca47 143e 16c2 15be
00000020: 994f 143e 7f2c a63d dc9b 0d3e 89c9 0d3e
00000030: 60c4 403d a8ee 673e 7c45 a8bd fe8c 81bc
00000040: 9fbc 143e 9cca cfbc f77b efbd 1b97 ad3d
00000050: 79b4 183e bab1 373d 8dca 603c 66bb 9c3d
00000060: 185b 5f3d 5667 5c3c ea47 c73c 68db 973d
00000070: 089f 31bd 6d2c ae3c d4ea 80bd 1652 c0bd
00000080: 1c9f bdbd 2e4f 043e 193c 25be cf09 833d
00000090: 6ee6 473e 9844 0fbe 3bc7 2b3c a492 ed3c
000000a0: ae2b bd3c dca1 523d 1dfe 36bc 6263 a839
000000b0: 7448 d3bd 41be 6c3d 24de efb9 987b 563d
000000c0: 7d37 253e 5e65 41bd f8a2 97bd 64ba 45bc
000000d0: 4b65 6dbd c66a 04bd bd00 a03d 0f20 123e
000000e0: a0a8 35be 7039 cfbc f21f 9abd 95cb cb3c
000000f0: d0a5 d8bd 9ec4 d33d c878 0b3e 1a9d a9bd
00000100: c898 873d ebac 3cbe f172 c4bc 6ac0 2bbd
00000110: 45af 03be eb89 b83c e60e 1e3e d4e9 683e
00000120: 84d9 4dbc db35 9abd ef7f 58bc 1b60 fa3c
00000130: 3061 72bd 21ea b03d 5db4 923d bfdd fcbb
00000140: 71b4 d23d 91d7 823d a49b 063e 8183 ed3d
00000150: dbb3 f53d bbdf a83d 048d 36bd 9d26 ac3d
00000160: f480 673d 6ec0 5fbd 7dd4 4c3d 1900 2bbc
00000170: cbe0 acbd 9218 d13d d5d4 883c 3df9 cebd
00000180: 584f 3abd 1911 9f3d ad49 cfbd c50c 1cbd
00000190: 8b75 3dbe 7de0 c7bc 4c1d 1b3b 627d b6bd
000001a0: 21fd 363b 833d d7bd 4d6c 99bd 61e7 aa3d
000001b0: 4d2d 01be f2da c9bd b1b3 68bd a4aa 97bd
000001c0: b561 ae3d e090 66bd a2bd 92bd fe75 83be
000001d0: 0cda 893d 9392 14bc d58c c73c b875 71be
000001e0: 532d 023e 42ae 53bc 4bc3 1c3c 9bd4 e83c
000001f0: b4dd 28be 8af0 03be 9eb1 3f3e dfbe 92be
00000200: 5267 1ebe 67be cd3b 169f 6abd d454 58bd
00000210: 3135 873c 2902 40bc 98c3 34be 815e 4b3c
00000220: 1420 30be 402c 953b 5dde edbb b302 e1bb
00000230: 4247 e3bd 6b1d 6abe 650c d1bd f9be 0e3d
00000240: 786f f23d a158 74be 771f 39bc b6a6 83bc
00000250: 04f7 e2bd 44f0 cdbd c9dd 27be 4b6a 4c3d
00000260: 86b3 3b3d 2a77 213d 1762 35be 2b73 97bd
00000270: 2d88 4b3c d578 11be 14cc 35bd d663 c1bb
00000280: 51a4 40bd bc1a d9bc ad8d 3a3e 616c 18be
00000290: bba6 22be 7183 03be 3b71 ee3d ea83 aabd
000002a0: 61e7 cdbd 89a6 15be 6a67 57bd e799 08be
000002b0: 029b 253d d1e5 bc3c 0cb3 89bb 1234 cc3c
000002c0: 6eb1 ac3d d092 3ebd fc62 383c c8f8 c23d
000002d0: 1916 eebb 2dd0 50be 7344 bcbc 7f68 aa3d
000002e0: f801 bebd 8e09 82bb 84b1 8c3d 2399 603e
000002f0: 64a3 1cbe 803a 5f3c b021 e53d 2e08 21be
00000300: 7db8 4dbd a024 d6bd 86de 0d3c 9360 90bd
00000310: 0c73 92bc 71e5 0d3d 1396 27be 6db6 283e
00000320: c176 febd 13d9 b33d b98f 33bd 5095 353d
00000330: dc83 65bd a04c 1cbe ee5a a0bd 9c3c 91bd
00000340: cf28 0fbe d34d 973c c801 31be 50de 97bd
00000350: ed5f c83d 6008 20bd d15b b6bc 9fd4 80b9
00000360: 6fbc 9e3c a2d4 7c3d e891 18be aff3 46bd
00000370: 34a4 22bd 8835 ba3d a1b8 13bc a281 9ebc
00000380: 7880 e03c ad74 88bd 9aad 843c eafa 15be
00000390: eaf8 c1ba 55e5 ef3d ef4d be3c f4b7 f23b
000003a0: fd25 2e3d 1166 0d3c f684 763d 70bd 74bd
000003b0: 4b87 0c3c 6507 31bd f933 92bc 3f5f 913d
000003c0: f75f 143d f51f 01bd f2ab 3ebd e473 62be
000003d0: 1210 703e a7c0 65be 5f36 29be 3e6a 05bd
000003e0: 630e f13d c42f 453e 6d89 20be 22b7 ce3d
000003f0: 7c66 92bd 8e3b 8b3d b81b 38be 41f5 593d
0.10097341 -0.006026945 0.11775162 0.062650025 0.12487788 0.07403494 0.1448051 -0.14624819
0.14483489 0.08113956 0.13828987 0.13846411 0.047062278 0.22649634 -0.08216378 -0.0158143
0.14525078 -0.025365166 -0.11693566 0.08476087 0.14912595 0.044847228 0.013720167 0.07652931
0.054530233 0.013452372 0.024326283 0.07414895 -0.043364555 0.021261418 -0.0629479 -0.09390657
-0.09258863 0.1292083 -0.16136207 0.06398355 0.19521496 -0.1399101 0.010484512 0.029000588
0.023092117 0.051423892 -0.011168984 0.00032117503 -0.10316554 0.057798628 -0.0004575114 0.052363962
0.16134448 -0.047215812 -0.07404131 -0.012068365 -0.05795793 -0.03232839 0.07812641 0.14270042
-0.17740107 -0.025295943 -0.07525624 0.024877349 -0.10578501 0.10340236 0.13620293 -0.08281918
0.066209376 -0.18425338 -0.02398059 -0.041931547 -0.12859829 0.022526702 0.15435371 0.22745448
-0.012564067 -0.07529803 -0.0132140955 0.030563405 -0.059174716 0.086384065 0.07163308 -0.007716864
0.10288323 0.06388772 0.1314531 0.11597348 0.11997195 0.08245798 -0.044568077 0.084058024
0.056519464 -0.054626875 0.050007332 -0.010437035 -0.08441313 0.102097645 0.016703049 -0.10106132
-0.045485824 0.07766933 -0.101214744 -0.038098115 -0.1850187 -0.024399037 0.0023668585 -0.089106336
0.0027921873 -0.10509779 -0.0749136 0.08344913 -0.12614937 -0.09856214 -0.056811992 -0.07405594
0.0851473 -0.056290507 -0.07165076 -0.25675958 0.06731042 -0.009068149 0.024359146 -0.23580062
0.12712602 -0.012919964 0.009568046 0.02842169 -0.16490823 -0.12884727 0.187201 -0.28661248
-0.15469101 0.0062788012 -0.057280622 -0.052815273 0.016504856 -0.011719265 -0.17652738 0.012412668
-0.17199737 0.004552394 -0.007259174 -0.006866777 -0.11097576 -0.22862785 -0.10207442 0.034850094
0.11837667 -0.23861934 -0.011299006 -0.016070705 -0.11082271 -0.10055593 -0.16393198 0.049906056
0.045825504 0.039420284 -0.177132 -0.073950134 0.012422604 -0.1420625 -0.044384077 -0.005901794
-0.047031704 -0.026502006 0.18218108 -0.14885093 -0.15883915 -0.1284311 0.11642691 -0.08325942
-0.10053898 -0.1461431 -0.052588858 -0.13339959 0.04043103 0.023058804 -0.0042022523 0.024927173
0.084322795 -0.04652673 0.011254068 0.095201075 -0.007265818 -0.20391913 -0.022981858 0.08320712
-0.09277719 -0.003968424 0.06869796 0.21933417 -0.15296704 0.013624787 0.11188066 -0.15725777
-0.05022477 -0.104562044 0.008659011 -0.0704967 -0.017877124 0.03464264 -0.16365843 0.1647584
-0.12424994 0.08781638 -0.043838236 0.04433185 -0.056033954 -0.15263605 -0.078298435 -0.070916384
-0.13980411 0.018469727 -0.17285836 -0.074154496 0.097839214 -0.039070487 -0.022260578 -0.00024572478
0.019376962 0.06172622 -0.14899409 -0.04857224 -0.039707378 0.090922415 -0.009016187 -0.019348923
0.027405009 -0.06662879 0.01619606 -0.14646497 -0.0014798914 0.117136635 0.023230521 0.007407183
0.042516697 0.008630292 0.060185395 -0.059750974 0.008577178 -0.043219943 -0.017847048 0.07098245
0.03622433 -0.031524617 -0.0465507 -0.22114521 0.2344363 -0.22436772 -0.16524647 -0.032572024
0.11770322 0.19256502 -0.15677424 0.100935236 -0.071484536 0.067984685 -0.17979324 0.053212408

gc3.bias f4 [100]
00000000: 4963 3f3d af9e 44bd 1e40 adbc 0efd de3c
00000010: 3e58 4ebb 07f3 8dbc 8837 103d 0077 4cbb
00000020: 7c68 9bbc 6027 ebbc b3aa 153d c2c5 92bc
00000030: 85c2 6f3b 2c55 0bbd c5d0 24bb 39da 4b3d
00000040: cc20 d2bc 9e6b fabc 514c 0abd 9715 bebb
00000050: 5467 663b 7edf 08bd 4478 a1bc c302 debc
00000060: 4a9b 3ebb 6c92 04bd 26b2 383c fee2 563d
00000070: f9d1 4f3c ba92 96bc f683 20bd be42 04bd
00000080: 8180 3cbd a822 31bd 7812 263c 0b83 03bd
00000090: 07ca 213d 259a 7cbc a8d0 1cbc e8da 0fbd
000000a0: 51f9 02bd 476d dd3c b710 dcbc bc30 debb
000000b0: 6d3e 28bd af98 4f3d 9e8a 8bb8 fbf5 c4bc
000000c0: 37f8 e5bc f052 c6bc 4dda 90bc 4c09 9abc
000000d0: 1a65 05bd 7d3b c1bc 8287 9bbb c35b a4bc
000000e0: b3e5 01bd ccd3 0bbd d68a 43bb 13c9 4fbd
000000f0: ae8f 90bc 83ec 473d 4ef2 f2bc e2e6 18bc
00000100: d9fb 573d 0f01 3abd bea6 22bd a934 a9bc
00000110: dc82 91bb f25e 87bc a068 8ebc 88fa 3a3d
00000120: cdcb 81bb 1f18 30bd a89e abbc 62f5 14bd
00000130: f5e2 18bd 1015 22bd 94c7 b0bc 742b 9bbc
00000140: 1b85 61bc 1be4 60bc 3931 87bc 7273 01bb
00000150: 3b76 893d 1a6d 03bb b935 30bd df8d b73b
00000160: d3d3 2bbc d305 41bb 2c11 9abc 7a3f 4e3d
00000170: fe97 01bd 54d0 293d cadc b9bc e1fa 30bd
00000180: 6e9a 033b 2beb 67bc 9f6d 59bc aba8 50bc
0.046725545 -0.048002895 -0.021148738 0.027220275 -0.0031485702 -0.017327799 0.03520921 -0.003119886
-0.01897072 -0.028705299 0.036539745 -0.017916564 0.0036584449 -0.034016773 -0.002514885 0.04976866
-0.025650404 -0.030568894 -0.033764187 -0.0058009136 0.0035156803 -0.033416264 -0.019710667 -0.027100926
-0.0029084259 -0.0323662 0.011272943 0.05246257 0.012684339 -0.018380512 -0.039188348 -0.032290213
-0.04602099 -0.04324594 0.010136239 -0.032107394 0.03949931 -0.01541761 -0.009571232 -0.035120875
-0.031976048 0.027029647 -0.026863439 -0.006780712 -0.04107516 0.05068272 -6.653856e-05 -0.024043074
-0.02807246 -0.02420947 -0.017682219 -0.018803261 -0.03256712 -0.023587937 -0.0047463784 -0.020063287
-0.0317132 -0.034137532 -0.0029837391 -0.05072887 -0.017646637 0.04880954 -0.029656556 -0.0093323905
0.052730415 -0.045411166 -0.0397098 -0.020654993 -0.0044406485 -0.016524766 -0.017383873 0.04564908
-0.0039610625 -0.042991754 -0.020949677 -0.036366828 -0.037325818 -0.039570868 -0.021579541 -0.018941619
-0.013764645 -0.01372626 -0.016502963 -0.0019752649 0.06712004 -0.0020054043 -0.043019984 0.005601629
-0.010487515 -0.0029452934 -0.018807016 0.050353505 -0.03163909 0.041458443 -0.022688288 -0.043208007
0.002008106 -0.0141551895 -0.013270765 -0.012735526
