ROSMAP/models/1/E2.pth (torch, 404229 bytes, 6 tensors)

gc1.weight f4 [200, 200]
0	0x3dd4a0db	0.10382243
1	0x3d78f2f7	0.060778584
2	0x3d07efb9	0.0331876
3	0xbdbcdbd5	-0.09221617
4	0x3d1dcac2	0.038523443
5	0xbd95d4ca	-0.07315977
6	0x3dbaf7e6	0.09129314
7	0xbd5c18eb	-0.0537347
8	0x3b90047b	0.0043950654
9	0x3d3febf0	0.046855867
10	0xbc490241	-0.012268604
11	0xbde5d7a5	-0.112227716
12	0x3e09b3d8	0.13447511
13	0x3dbb2379	0.09137625
14	0x3d4f292c	0.050576374
15	0xbd75ffed	-0.060058523
16	0x3d7320ba	0.059357382
17	0xbd3046e4	-0.043036357
18	0xbe079737	-0.13241278
19	0xbb91c037	-0.0044479626
20	0xbd7782b5	-0.060427386
21	0xbd0ee2ae	-0.034884147
22	0xbdb688b8	-0.08912796
23	0xbd7ec592	-0.062200136
24	0x3b96443d	0.0045857714
25	0x3df89966	0.121386334
26	0xbd010d72	-0.031506963
27	0x3d7d0fbc	0.061782584
28	0x3d10f165	0.03538646
29	0xbd97a77b	-0.07404991
30	0x3d4dc9c4	0.050241247
31	0x3c9ea9b0	0.019368023
32	0xbd310136	-0.043214045
33	0x3d625d33	0.055264663
34	0xbc9f3ef5	-0.0194392
35	0x3c0b8b93	0.008517164
36	0xbd8b5d21	-0.06804872
37	0xbcb3553f	-0.021891234
38	0x3cd7f744	0.026363023
39	0xbcc83721	-0.02444035
40	0xbcf10e3f	-0.029425738
41	0x3dc58ced	0.0964602
42	0xbde1722e	-0.11008106
43	0xbd99c14e	-0.07507573
44	0x3d58adda	0.052900173
45	0xbd295a8d	-0.04134612
46	0x3d07a73c	0.03311847
47	0xbd151370	-0.03639549
48	0xbd61495f	-0.055001613
49	0x3c53f4d5	0.0129367905
50	0x3d2a8ca7	0.041638043
51	0xbccf738f	-0.025323657
52	0x3e1ae723	0.15127234
53	0x3b06f811	0.0020594636
54	0x3cfc3f70	0.030791968
55	0xbd287601	-0.041128162
56	0xbdaf3a2f	-0.085560195
57	0xbd6d0ad6	-0.057871662
58	0x3cb1c04e	0.021698143
59	0x3d8fa80e	0.07014476
60	0x3df756a6	0.12077074
61	0x3d914cb0	0.07094705
62	0xbc8fce7c	-0.017554514
63	0xbdda6dd8	-0.10665482
64	0xbaa6aea2	-0.001271684
65	0x3dde3591	0.10850061
66	0x3e2a562a	0.16634431
67	0xbd2463ca	-0.04013423
68	0xbbb00123	-0.0053712293
69	0x3cd3bf66	0.025848102
70	0xbc9b5a40	-0.018963933
71	0xbbc67a1f	-0.0060570384
72	0x3c247aa3	0.0100390045
73	0xbb8005e9	-0.0039069545
74	0x3bec7ef9	0.0072172848
75	0x3c32a7f7	0.010904304
76	0x3caa3d52	0.020781193
77	0xbd225b9c	-0.039638147
78	0xbc307a7a	-0.010771388
79	0x3d6eb1c6	0.058275007
80	0xbca6e57f	-0.020373104
81	0x3d8320de	0.06402753
82	0x3d1aab15	0.037760813
83	0xbe131759	-0.14364375
84	0xbddc4c93	-0.10756793
85	0x3b80c709	0.003929977
86	0xbcfdd78b	-0.030986568
87	0x3cb153f2	0.021646474
88	0xbd23d300	-0.039996147
89	0xbdf18abd	-0.1179404
90	0x3dddc7df	0.10829138
91	0xbd0cc183	-0.034364235
92	0x3d78a743	0.06070639
93	0x3d0f05b7	0.03491756
94	0x3d6d7af9	0.057978604
95	0x3d1c5530	0.03816718
96	0x3d8ff6a5	0.070294656
97	0x3c767231	0.015041874
98	0xbdd1dd3b	-0.102472745
99	0xbd5b3a78	-0.053522557
100	0xbd980ca2	-0.074242845
101	0xbd9bb379	-0.07602591
102	0xbdee3629	-0.11631424
103	0x3d9d6194	0.07684627
104	0xbdff2bf2	-0.12459554
105	0xbd84035a	-0.06445952
106	0x3d27c739	0.040961478
107	0xbb978aec	-0.004624715
108	0x3c452eb8	0.012035064
109	0x3e46c958	0.19412744
110	0xbd7d030d	-0.061770488
111	0xbd27deab	-0.040983837
112	0xbde22c3d	-0.11043594
113	0xbd955a0c	-0.07292566
114	0xbc92c7e6	-0.017917585
115	0xbde0fcd5	-0.10985724
116	0x3d4466a6	0.047949456
117	0xbdc5da94	-0.09660831
118	0x3d0b3c0a	0.033992805
119	0xbd6f2e58	-0.058393806
120	0xbda48b76	-0.080344126
121	0xbdcc764a	-0.09983499
122	0x3d49a3e9	0.049228583
123	0xbba2e58d	-0.0049712122
124	0x3d9461af	0.07245194
125	0x3e1d2828	0.1534735
126	0xbcc161d6	-0.023606222
127	0x3ca8fdbf	0.020628808
128	0x3dd408c1	0.10353232
129	0xbd873143	-0.06601193
130	0x3d0d4e4e	0.034498505
131	0xbd67f0ad	-0.05662601
132	0xbc7f7232	-0.015591191
133	0xbc701f3e	-0.014655886
134	0x3d10f5a3	0.035390507
135	0xbd66e976	-0.05637499
136	0xbcb1e90c	-0.02171757
137	0xbe0642ec	-0.13111466
138	0x3d89148d	0.06693373
139	0x3d4c4c1a	0.049877264
140	0xbde9b4f6	-0.11411469
141	0x3a580bde	0.00082415144
142	0xbd6a3d94	-0.05718763
143	0x3ce2a2c7	0.027665509
144	0xbbd53585	-0.006506624
145	0xbd7393ee	-0.05946725
146	0xbe0a263f	-0.13491152
147	0xbc9cb6be	-0.019130107
148	0xbe0b8575	-0.13625129
149	0x3d6ca5fc	0.057775483
150	0xbd937dd0	-0.07201731
151	0x3c0307d7	0.007997475
152	0x3b5b5300	0.003346622
153	0xbd46d751	-0.048545185
154	0x3daf4a44	0.08559087
155	0xbd4810a5	-0.048844
156	0xbd4b5dd3	-0.049650025
157	0xbdaefb7d	-0.08544061
158	0x3d3974e6	0.0452775
159	0xbd63e8d5	-0.055641968
160	0xbbab1f76	-0.0052222563
161	0x3d9a3cba	0.07531114
162	0xbb9852d1	-0.0046485444
163	0xbac77a5b	-0.001521896
164	0xbc9c0adf	-0.019048152
165	0x3d393a3a	0.045221545
166	0xbd33e3a7	-0.043918278
167	0x3d330552	0.043706246
168	0x3d84e4e4	0.0648897
169	0x3d2c786e	0.04210704
170	0xbde70620	-0.11280465
171	0x3dd75cc7	0.10515743
172	0x3c8a7acf	0.016904263
173	0xbd9279f6	-0.071521685
174	0xbc4372f7	-0.011929265
175	0xbd7a47ab	-0.061103504
176	0x3d29754d	0.041371632
177	0x3c706e7b	0.014674778
178	0x3c05db48	0.0081699565
179	0x3dbf238e	0.093329534
180	0xbe63669c	-0.22207111
181	0x3d7202ea	0.05908481
182	0x3e52e5c7	0.20595466
183	0xbceecbd6	-0.02914993
184	0xbd000d2d	-0.031262565
185	0xbc799d52	-0.015235262
186	0xbcb0638a	-0.021531839
187	0x3d5e66fb	0.05429743
188	0x3d5fd1e9	0.054643545
189	0xbcde7c44	-0.027158864
190	0xbdb7e93f	-0.08980035
191	0xbd814e07	-0.06313711
192	0xbd0ff87f	-0.035149094
193	0xbd257e15	-0.040403444
194	0x3aec7b24	0.001804207
195	0x3cd7e7ea	0.026355702
196	0x3d16cc5d	0.03681599
197	0x3d6774bd	0.056507815
198	0x3d087fb2	0.033324905
199	0x3dfa8e42	0.12234165
200	0xbd0c08e1	-0.034188155
201	0xbe07df15	-0.13268693
202	0xbd5945c9	-0.053045068
203	0x3d1e0aee	0.038584642
204	0xbdee0e61	-0.11623836
205	0x3d92ce8d	0.07168303
206	0x3d0b0251	0.033937756
207	0x3d946b89	0.07247073
208	0xbd53e5fd	-0.051733006
209	0xbdeba6fd	-0.1150646
210	0x3dd0a5c1	0.10187865
211	0x3d334b9f	0.04377329
212	0x3e613164	0.21991497
213	0xbbb0f4d6	-0.0054002805
214	0xbdf93606	-0.12168507
215	0x3ce0619e	0.027390298
216	0xbcfb4018	-0.03067021
217	0xbdfce748	-0.12348801
218	0xbd31a844	-0.04337336
219	0xbc73f267	-0.014889336
220	0xbdd1e14a	-0.102480486
221	0x3e347f0d	0.17626591
222	0x3d357008	0.044296294
223	0x3c6814bb	0.014165099
224	0x3d5b4f3a	0.053542353
225	0x3dcb9013	0.09939589
226	0xbda74323	-0.08167102
227	0x3d855e14	0.065120846
228	0x3c7fee62	0.0156208
229	0x3da5d700	0.080976486
230	0x3cec2c1e	0.02882963
231	0x3da34358	0.07971829
232	0x3dbfa421	0.09357477
233	0xbb69f7da	-0.003570071
234	0xbb08a992	-0.0020853025
235	0x3beba0a4	0.0071907807
236	0xbba50728	-0.0050362535
237	0x3cfbc6cb	0.03073444
238	0xbd9dcc59	-0.07704992
239	0x3d55a71b	0.052161317
240	0xbd293fc0	-0.041320562
241	0x3c82df8e	0.01597574
242	0x3d849bb4	0.064750105
243	0xbba0ec8b	-0.0049110106
244	0x3d91bd14	0.07116142
245	0xbd0cdded	-0.034391332
246	0x3d494843	0.04914118
247	0xbc689409	-0.014195451
248	0x3d5848d2	0.05280382
249	0x3e07a508	0.13246548
250	0x3d7aa9cb	0.061197083
251	0x3dac09f9	0.0840034
252	0xbd4c6048	-0.04989651
253	0x3d79cb4d	0.0609849
254	0xbbdbc6cf	-0.0067070494
255	0xbd68a5b1	-0.05679864

gc1.bias f4 [200]
0	0xbc6d146a	-0.014470199
1	0x3c2bff17	0.01049783
2	0xbb0c7cdd	-0.002143673
3	0x3abf524c	0.001459667
4	0xbc1b0a15	-0.009462853
5	0xbc903d8f	-0.017607478
6	0x3cbf927f	0.023385284
7	0xbcb22b15	-0.021749059
8	0x3c947628	0.018122748
9	0x3c743e57	0.014907441
10	0xbbd57142	-0.0065137455
11	0xbc138bb9	-0.00900548
12	0xbc17c098	-0.0092622265
13	0x3bc0ee3f	0.005887776
14	0xb9c54f40	-0.00037633814
15	0xb8a51f5f	-7.8736564e-05
16	0x3d01b4eb	0.031666677
17	0xbc594998	-0.013262175
18	0xbaebbece	-0.0017985941
19	0xbbf6bd36	-0.00752988
20	0xbc5c626d	-0.013451201
21	0xbc44b176	-0.012005201
22	0xbc4d7060	-0.012538999
23	0x3ba5c7d8	0.0050592236
24	0xbc80fd77	-0.015745861
25	0x3bb7876d	0.005600861
26	0x3c54e318	0.0129935965
27	0xbc516621	-0.012780697
28	0x386c563e	5.6347104e-05
29	0x3ccedd03	0.025251871
30	0xbc83cde9	-0.016089397
31	0xbc073937	-0.008253387
32	0xbc3e99b1	-0.011633323
33	0xbbd0d73d	-0.0063733147
34	0x3b23e8d1	0.0025010596
35	0xbbb9b547	-0.005667362
36	0x3be0044c	0.0068364497
37	0xbc8ee4e0	-0.01744312
38	0x3c9e951f	0.019358216
39	0xbc4f77a1	-0.012662799
40	0x3c2cd607	0.010549075
41	0x3bd50a87	0.006501499
42	0xbc1d4b61	-0.009600491
43	0xbcb1830c	-0.021668933
44	0xbb08adde	-0.0020855586
45	0xbc6c9de6	-0.014441943
46	0xbbbc797e	-0.0057517877
47	0xbbcdc11c	-0.006279124
48	0xbc0de83d	-0.008661327
49	0xbc58af51	-0.013225392
50	0xbb540c30	-0.0032355897
51	0x3b0adb71	0.0021187926
52	0x3be5a6f9	0.00700843
53	0x3c16743f	0.009182989
54	0x3c4c169e	0.012456564
55	0xbc6c735b	-0.0144318
56	0xbc31971d	-0.010839251
57	0x3aa24ba1	0.0012382158
58	0xbbb0656e	-0.005383185
59	0xbc0cc06f	-0.008590802
60	0x3a6d51de	0.00090530317
61	0x3b386190	0.0028134324
62	0xbbe85279	-0.0070899096
63	0xbb92053d	-0.004456191
64	0xbc499478	-0.012303464
65	0xbb94a188	-0.0045358576
66	0xbc83a2bc	-0.016068809
67	0xbbe8b6b4	-0.007101858
68	0xbb2a5378	-0.0025989693
69	0xbc4352b7	-0.011921576
70	0xbd021941	-0.031762365
71	0xbcbd7c04	-0.023130424
72	0x3ca06ecf	0.019584088
73	0xbb41bd67	-0.0029562355
74	0xbc53d802	-0.012929918
75	0x3a8528ec	0.001015929
76	0xbc596478	-0.0132685825
77	0xba37e13b	-0.0007014458
78	0xbcd6ab09	-0.026204603
79	0xbb134c6c	-0.002247597
80	0xbbc2d6a0	-0.0059459955
81	0xbb14adaf	-0.0022686531
82	0xbc683fce	-0.0141753685
83	0xbc521719	-0.01282289
84	0xbc8bc31d	-0.01706081
85	0x39c016fe	0.00036638224
86	0xbc697650	-0.014249399
87	0x3b50c4ea	0.0031855651
88	0x3cead20d	0.028664613
89	0xbbc55a34	-0.006022716
90	0xbb2454bc	-0.002507492
91	0xbbdd7e66	-0.0067594526
92	0x3bc381d6	0.0059664054
93	0x3aded687	0.001700119
94	0x3c2ce4fe	0.010552643
95	0x3b0050f7	0.0019579509
96	0xbc9f6c0e	-0.019460704
97	0x3b6e427a	0.003635554
98	0xbcacb711	-0.021083387
99	0xbcbcb38d	-0.023034835
100	0xbcd457be	-0.025920745
101	0xbc919f49	-0.017776148
102	0x3c7f8cd9	0.015597546
103	0x3b1a7a03	0.002357126
104	0xbbda547a	-0.0066629024
105	0xbc11e406	-0.008904463
106	0xbc402a9f	-0.011728912
107	0x3baedf54	0.0053366814
108	0x3c6c3e76	0.014419189
109	0xbc1c3899	-0.009534978
110	0xbc0c5988	-0.008566268
111	0xbc85253f	-0.016253112
112	0xbc5b5846	-0.013387745
113	0xbca5344b	-0.020166537
114	0xbb89f72a	-0.0042103725
115	0xba2e0854	-0.0006638814
116	0x3bc26b98	0.0059332363
117	0xbcd6af44	-0.02620662
118	0xbc4a72f2	-0.012356507
119	0x3d233b90	0.039851725
120	0xbc5f70bd	-0.013637719
121	0x3b22141c	0.0024731224
122	0x3b8ae010	0.004238136
123	0xbc1ed3f7	-0.009694091
124	0xbcbd7295	-0.023125926
125	0x3b5c49a9	0.003361324
126	0x3c606e10	0.013698116
127	0xbb82d254	-0.003992358
128	0xbae051d3	-0.0017114229
129	0xbb1de0c3	-0.0024090267
130	0x3cb06919	0.02153449
131	0xbbe4b736	-0.0069798483
132	0x3b6faec3	0.0036572672
133	0x3c8948bb	0.016758313
134	0xbb9f9806	-0.0048704175
135	0xbba22e1b	-0.004949344
136	0x3bd0a11e	0.006366863
137	0xbbe11eea	-0.0068701403
138	0xbc31410c	-0.010818731
139	0xbc938cc5	-0.01801146
140	0xbc422f67	-0.011852122
141	0xbc3a9817	-0.0113888
142	0x3af590d9	0.0018735185
143	0x3d12388d	0.035698462
144	0xbbf0b85d	-0.0073461966
145	0x3cb7824b	0.022400996
146	0xbbfd2cb5	-0.0077262768
147	0xbc79f2cd	-0.015255642
148	0x3a224824	0.00061905594
149	0x3c9fadb4	0.019492008
150	0xbc773781	-0.015088917
151	0xbca12e5f	-0.019675432
152	0xbccb9767	-0.024852468
153	0xbca76e8e	-0.020438459
154	0xbc18b47c	-0.009320375
155	0xbcd89b41	-0.026441218
156	0xbb952e5a	-0.0045526447
157	0x3ca59986	0.020214807
158	0x3b2f7060	0.0026769862
159	0x3aedb949	0.0018136884
160	0x3c60d900	0.013723612
161	0xbc4968cb	-0.012293051
162	0xbc478428	-0.012177505
163	0xbb7d567a	-0.003865628
164	0xbce8441d	-0.028352791
165	0x3a9df19c	0.0012050155
166	0xbc8758f0	-0.0165219
167	0xbc143dfc	-0.009047981
168	0x3c5b276c	0.013376098
169	0x3ad9fe97	0.001663166
170	0x3cb764e9	0.022386985
171	0x3b45b354	0.0030166702
172	0x3cd387d5	0.025821606
173	0xbcf0284f	-0.029316096
174	0xbc58dd34	-0.013236333
175	0xbcb3dcb3	-0.021955824
176	0xbbb136b3	-0.005408132
177	0x3c14bcea	0.009078244
178	0xbbfd8a96	-0.007737468
179	0xbc693942	-0.014234843
180	0xbcc7fe7f	-0.024413345
181	0xbc6f1848	-0.014593191
182	0xbc083294	-0.00831284
183	0xbc452350	-0.012032345
184	0xbc1bdb2e	-0.009512706
185	0x3c6d8e39	0.014499241
186	0xbc213573	-0.009839403
187	0x3a9199a9	0.0011108416
188	0x3c403e20	0.011733562
189	0xb99cffaf	-0.00029945138
190	0xbc822ee8	-0.015891507
191	0xbc0d0ce8	-0.008609034
192	0xbc3a239a	-0.011361027
193	0xbc3c087f	-0.011476635
194	0xbb0d1b13	-0.002153103
195	0xb9278146	-0.00015974519
196	0xbc9c3ed9	-0.019072937
197	0xbc505dbd	-0.012717661
198	0x3b465f9a	0.0030269385
199	0xbcb0b1d3	-0.021569168

gc2.weight f4 [200, 200]
0	0x3cd402c8	0.025880232
1	0x3e069865	0.13144071
2	0x3d9ef13f	0.07760858
3	0x3d3e2ec9	0.046431337
4	0x3d024874	0.031807378
5	0x3d11a18d	0.035554457
6	0xbafce644	-0.0019294699
7	0xbdee4c58	-0.11635655
8	0x3d402479	0.046909783
9	0xbc84a4cd	-0.016191864
10	0xbd2e4e82	-0.04255534
11	0xbda3409b	-0.07971307
12	0x3c7f3eb0	0.015578911
13	0x3cbed296	0.023293775
14	0x3db2d28b	0.08731564
15	0x3b968a7a	0.0045941444
16	0x3bb3176a	0.0054654377
17	0x3d6c6c34	0.057720378
18	0xbd42d40b	-0.0475655
19	0x3c804890	0.0156596
20	0xbd817859	-0.063217826
21	0xbc5e9f91	-0.013587848
22	0x3dad5a31	0.08464468
23	0x3d5de4f0	0.05417341
24	0x3dc5821a	0.096439555
25	0x3c888855	0.01666657
26	0xbb218adb	-0.0024649415
27	0x3e3322e2	0.17493775
28	0xbd97c665	-0.07410888
29	0x398ad4f6	0.0002648008
30	0x3d16a621	0.036779527
31	0x3d810d0c	0.063013166
32	0x3dcf43ee	0.101203784
33	0x3d4206c4	0.047369733
34	0xbc2c5e8a	-0.010520587
35	0xbdde2390	-0.10846627
36	0xbc8ad8cb	-0.016949078
37	0xbd704989	-0.05866388
38	0xbde0bda0	-0.10973668
39	0xbd348c3a	-0.044079043
40	0x3db6fc76	0.08934872
41	0xbd3b3b1e	-0.045710675
42	0x3b8ae888	0.0042391457
43	0x3d0b3a8a	0.033991374
44	0x3d2929ea	0.041299738
45	0xbd4a5289	-0.049395118
46	0xbc59b8ee	-0.01328872
47	0xbd9104dc	-0.07081005
48	0xbe074b3a	-0.1321229
49	0x3d027b07	0.03185561
50	0xbadd1fa0	-0.0016870387
51	0x3ce6f0ee	0.028191056
52	0xbc82555d	-0.015909845
53	0x3cc1fd48	0.023680344
54	0x3d6ba4da	0.05753026
55	0x3d8eed49	0.06978852
56	0xbd86509f	-0.06558346
57	0x3daba128	0.083803475
58	0xbc9feb7b	-0.019521466
59	0x3c94b30e	0.018151786
60	0x3d0f514f	0.03498965
61	0xbe1ee6f0	-0.15517783
62	0xbd8bd815	-0.06828324
63	0x3d9cf5b4	0.07664052
64	0x3d5f2aa8	0.05448404
65	0xbca62c50	-0.020284802
66	0x3d3ac367	0.045596506
67	0x3e62f3ad	0.22163267
68	0x3d1708db	0.03687368
69	0xbd657fb9	-0.05603001
70	0xbdccdeb4	-0.10003415
71	0xbd1fffc5	-0.03906228
72	0x3d0de8c1	0.0346458
73	0x3e1fb0eb	0.15594833
74	0xb9af7406	-0.00033465045
75	0x3d004531	0.031315986
76	0x3e1ae3c9	0.15125956
77	0x3de52636	0.11188929
78	0xbad0af11	-0.0015921314
79	0x3dec66ad	0.11543021
80	0xbd3af641	-0.045645002
81	0xbd8f2f74	-0.06991473
82	0xbc0655df	-0.008199184
83	0x3da0e4d1	0.07856143
84	0xbd9d9165	-0.076937474
85	0x3dbf5ee0	0.09344268
86	0xbd52e1d2	-0.05148489
87	0xbc9ed24f	-0.019387392
88	0xbe009d28	-0.1255995
89	0x3d701a33	0.058618736
90	0xbdb8b56a	-0.09018977
91	0x3c22f369	0.009945729
92	0xbd259703	-0.04042722
93	0xbd05ba2d	-0.032648254
94	0x3c9f4e9e	0.019446667
95	0x3d2f9728	0.042868763
96	0x3c2c1d5b	0.010505046
97	0x3e1ca562	0.15297464
98	0xbda4a4b7	-0.08039229
99	0x3cf960ab	0.030441603
100	0x3dcbeca2	0.099572435
101	0x3e288f18	0.16460836
102	0x3e066038	0.13122642
103	0x3c186c8f	0.009303226
104	0x3dc68903	0.09694102
105	0xbcfa6a77	-0.030568345
106	0xbc9a19ac	-0.01881107
107	0x3d635148	0.055497438
108	0xbdc7e836	-0.097610876
109	0x3a769187	0.00094058405
110	0xbddf316d	-0.10898099
111	0xbdf83934	-0.12120286
112	0x3bbb8ecc	0.00572381
113	0xbd1eecee	-0.038800173
114	0xbd2c48c4	-0.042061582
115	0x3d0a855a	0.03381858
116	0x3c0e2238	0.008675151
117	0x3d8c4f5b	0.06851073
118	0xbd176180	-0.036958218
119	0x3de18be3	0.110130094
120	0x3e1f6a4d	0.15567894
121	0x3d230391	0.039798323
122	0x3c5e558e	0.0135702025
123	0xbccfb148	-0.025353089
124	0x3d9af7e6	0.07566814
125	0x3dc178b4	0.094468504
126	0xbc88f0d0	-0.01671639
127	0x3dffc175	0.12488071
128	0x3db57431	0.088600524
129	0xbd19f696	-0.03758868
130	0xba1abca9	-0.00059027463
131	0xbdbaa3b9	-0.09113259
132	0xbc313849	-0.010816642
133	0xbcad2c9c	-0.021139435
134	0x3be09094	0.0068531726
135	0x3bbf71ea	0.005842437
136	0xbd411e90	-0.047148287
137	0x3dd3682a	0.10322602
138	0xbe0373e5	-0.12837179
139	0xbd27f15a	-0.041001655
140	0xbd38bb23	-0.045100342
141	0x3dfbcc10	0.12294781
142	0xbc8ff0a1	-0.017570795
143	0x3d001e6b	0.03127901
144	0xbde0bdae	-0.109736785
145	0x3c3a8ed3	0.011386591
146	0x3d282451	0.04105026
147	0xbd4c1934	-0.049828723
148	0x3b9973bb	0.0046829856
149	0x3d0337c9	0.032035623
150	0xbd54b0c3	-0.051926386
151	0xba92cfd5	-0.0011200855
152	0xbddf38a2	-0.10899474
153	0x3c86941a	0.016428042
154	0xbbd5f4c7	-0.006529424
155	0x3c358599	0.011079215
156	0xbd7c87ea	-0.061653055
157	0x3cccecd7	0.025015278
158	0x3be4bd2d	0.0069805593
159	0xbd3f51d7	-0.046708908
160	0xbdce5a6e	-0.10075842
161	0x3e4fdee8	0.20299876
162	0xbd06b4eb	-0.03288738
163	0xbc2f5981	-0.010702492
164	0xbe042027	-0.1290289
165	0x3d7834f0	0.06059736
166	0x3d53e3fd	0.0517311
167	0x3d1a45c3	0.037664186
168	0x3ce333f1	0.027734729
169	0xbd58b501	-0.052906994
170	0x3dcb6e3f	0.09933137
171	0x3dbae201	0.09125138
172	0x3dc0c045	0.094116725
173	0x3dc7beac	0.09753165
174	0x3d73dd65	0.05953731
175	0x3d95eb30	0.07320249
176	0xbd456ca7	-0.048199322
177	0x3da347ee	0.07972704
178	0x3c733ed8	0.014846526
179	0x3d99e8dc	0.075151175
180	0xbccd95e6	-0.025095891
181	0xbd5c0b54	-0.05372174
182	0xbd3fbe66	-0.046812437
183	0x3cabb397	0.020959659
184	0x3ca640db	0.020294597
185	0x3c2ddca6	0.010611689
186	0x3d6c3452	0.057667084
187	0x3dc2ba3e	0.09508179
188	0x3e0c69a6	0.13712177
189	0xbd4be2c1	-0.049776796
190	0x3da346e4	0.07972506
191	0x3cdc5e11	0.026900323
192	0x3d2437eb	0.04009239
193	0x3bb6e24f	0.0055811773
194	0xbcd7b093	-0.026329314
195	0xbc63a587	-0.013894445
196	0xbd89151c	-0.066934794
197	0xbdcaafd9	-0.098968215
198	0xbd88ba1f	-0.06676125
199	0x3cb71b54	0.022351898
200	0xbdb52c3b	-0.08846327
201	0x3dd6af61	0.104826696
202	0x3c393786	0.011304742
203	0xbdbf5466	-0.093422696
204	0x3cff7531	0.03118381
205	0x3df1420a	0.11780174
206	0xbdacc92a	-0.084368065
207	0xbdaae6a7	-0.08344775
208	0x3ccf0f6f	0.025275914
209	0x3e1bcaff	0.15214156
210	0xbc91b792	-0.017787728
211	0x3d430610	0.047613204
212	0xbdd5b584	-0.10435012
213	0x3d80d981	0.062914856
214	0xbe6f3e6f	-0.2336366
215	0x3d6e9866	0.058250807
216	0xbc032b85	-0.008005981
217	0x3de92702	0.11384393
218	0x3d7f79a6	0.062371872
219	0xbd507ca7	-0.050900128
220	0xbb8ffaf5	-0.00439393
221	0xbcec8414	-0.028871574
222	0x3dba62d9	0.09100885
223	0x3d282cd6	0.041058384
224	0xbd15c8d2	-0.03656847
225	0xbccd540c	-0.02506449
226	0x3e0e3c88	0.13890278
227	0xbd2a0a2d	-0.04151361
228	0x3d5ed2c8	0.054400235
229	0xbd95db70	-0.07317245
230	0xbd43ed5f	-0.047833797
231	0xbb2abaf9	-0.0026051386
232	0x3d1034ac	0.03520648
233	0x3d92aa94	0.071614414
234	0xbd462be7	-0.048381712
235	0x3dd75d4b	0.10515841
236	0xbd4452a4	-0.047930375
237	0x3e00f125	0.1259199
238	0xbd0c6068	-0.034271628
239	0x3d3bee1b	0.045881372
240	0x3e1a1027	0.15045224
241	0x3da76a57	0.081745796
242	0xbccb342f	-0.024805157
243	0x3d33f6e6	0.043936633
244	0x3d92f53d	0.07175682
245	0x3da0af57	0.078459434
246	0x3d3ddb43	0.046351682
247	0xbc323c37	-0.010878614
248	0xbd1d22fa	-0.038363434
249	0xbdc8f564	-0.098124295
250	0x3d088721	0.033331994
251	0xbaf4b5bf	-0.0018669887
252	0x3cfecfe4	0.03110499
253	0x3cd2c75f	0.025729833
254	0x3ddf9e26	0.10918836
255	0x3d07a012	0.03311164

gc2.bias f4 [200]
0	0xbc352f95	-0.011058708
1	0xba44ca64	-0.0007506965
2	0xbd0c0b80	-0.034190655
3	0xbb9f56b2	-0.00486263
4	0xbc3d7944	-0.0115645565
5	0xbcc21d93	-0.023695743
6	0xbd04c868	-0.032417685
7	0xbd011c8e	-0.031521372
8	0xbc7b864d	-0.015351844
9	0xbcb8c9b4	-0.022557117
10	0x391e2cea	0.00015084786
11	0xbc56e124	-0.013115201
12	0xbc7b8d76	-0.015353551
13	0xbd1253bf	-0.035724398
14	0xbc0139b2	-0.007887291
15	0xbb34f633	-0.0027612566
16	0xbc8205cd	-0.015871907
17	0xbc8113f5	-0.015756587
18	0xbcc966cb	-0.024585148
19	0x3cccd64a	0.025004525
20	0x3aa6fb06	0.0012739606
21	0xbcc41324	-0.023934908
22	0xbc97e4f9	-0.0185418
23	0xbbf372b9	-0.0074294475
24	0xbbc3e3d8	-0.005978089
25	0xbd46938a	-0.048480548
26	0xbc6e58c4	-0.014547531
27	0xbcceba0f	-0.025235204
28	0x3c24b7fc	0.010053631
29	0xbc82a65e	-0.01594847
30	0x3ce2f29f	0.027703581
31	0xbc4792ca	-0.012180993
32	0xbcda76ad	-0.026667917
33	0xbcd654c8	-0.026163474
34	0xbba0ea1e	-0.0049107214
35	0x3c67fbbd	0.01415914
36	0xbd0bf5c9	-0.034169946
37	0x3a397770	0.00070749875
38	0x3d620cea	0.055188097
39	0xbc911091	-0.017708095
40	0xbc27c00c	-0.010238659
41	0xbc848320	-0.016175807
42	0x3b68e089	0.0035534224
43	0x3ab10fe2	0.0013508762
44	0xbcbfa79e	-0.023395356
45	0xbcca1696	-0.024668973
46	0x3d74d990	0.059777796
47	0x3d2c6458	0.042087883
48	0xbd15bc45	-0.0365565
49	0xbc76737f	-0.015042185
50	0xbcc5595b	-0.02409046
51	0xbc8860e9	-0.016647773
52	0x3b9989aa	0.0046856003
53	0xbce16aa3	-0.027516669
54	0x3b8f6ec4	0.004377218
55	0x3c846c72	0.016164992
56	0x3a81a79a	0.0009891868
57	0xbc2c51f7	-0.010517589
58	0xbcdc8f09	-0.026923673
59	0xbb9fba67	-0.004874516
60	0x3bd165ac	0.006390294
61	0xbcff2259	-0.031144308
62	0xbcef8f12	-0.029243026
63	0xbced3151	-0.02895418
64	0xbccb0d53	-0.024786627
65	0xbc19f061	-0.00939569
66	0x3b26bb3e	0.0025441195
67	0xbd2d468e	-0.042303614
68	0xbbdd0afd	-0.0067456947
69	0xbc8b744c	-0.017023228
70	0x3ab14cff	0.0013526975
71	0xba4b43d0	-0.00077539403
72	0xbc76e713	-0.015069741
73	0xbca813d4	-0.020517267
74	0xbc8ca450	-0.017168194
75	0xbc063e2f	-0.008193537
76	0xbc1e173c	-0.009649094
77	0xbca947fe	-0.020664211
78	0xbcc8f3fd	-0.024530405
79	0xbd1a2d49	-0.037640844
80	0x3caf8fa5	0.0214308
81	0x3c803b88	0.015653387
82	0xbd6d6c11	-0.05796439
83	0xbc62d022	-0.013843568
84	0xbca5b02c	-0.020225607
85	0xbc86f85d	-0.01647585
86	0xbd0d8b12	-0.034556456
87	0xbc389b80	-0.011267543
88	0x3d844791	0.06458963
89	0x3c918778	0.017764792
90	0x3d9ff279	0.0780992
91	0xbbbb751a	-0.0057207467
92	0x3cef4ced	0.029211486
93	0xbc7fb014	-0.015605945
94	0x3cef1e19	0.029189156
95	0xbc4bd552	-0.012440996
96	0xbbc30086	-0.00595099
97	0xbce52085	-0.027969608
98	0xbbe90370	-0.0071110055
99	0x3d37215f	0.04470956
100	0x3c513388	0.012768634
101	0xbce094e9	-0.027414756
102	0xbd329559	-0.04359946
103	0xbc6ec1a4	-0.014572535
104	0xbc7eb43e	-0.015545903
105	0x3b0927be	0.002092823
106	0xbcaebdd4	-0.021330751
107	0xbd0b40e7	-0.033997443
108	0xbcd91003	-0.026496893
109	0x3c205892	0.009786742
110	0xbc2237e5	-0.009901022
111	0xbbca2352	-0.0061687613
112	0xbc8a7b87	-0.016904606
113	0xbc9c234e	-0.019059803
114	0xbcada4f6	-0.021196824
115	0x3d169e78	0.03677222
116	0xbc98d899	-0.01865797
117	0xbca8587f	-0.02055001
118	0x3b3823c7	0.0028097497
119	0xbd08ea4a	-0.03342656
120	0xbbbd14a1	-0.0057702814
121	0xbc6bcb87	-0.014391786
122	0x3b86ff13	0.0041197627
123	0xbc4507d7	-0.012025795
124	0xbd13ac08	-0.036052734
125	0xbc905d48	-0.017622605
126	0xbcc2abb1	-0.02376351
127	0xbd70d25d	-0.058794368
128	0xbc9d459a	-0.019198228
129	0x3cc08e26	0.023505282
130	0x3d59cbd6	0.05317291
131	0x3cac6808	0.0210457
132	0xbcb0223c	-0.0215007
133	0xbd07b0a5	-0.033127446
134	0x3bfbc2a4	0.007683115
135	0xbca477bd	-0.020076627
136	0x3bd633bb	0.0065369285
137	0x3d272cd8	0.04081425
138	0xbd0a19f3	-0.033716153
139	0xbcd78c1e	-0.02631193
140	0xbd3b5c34	-0.04574223
141	0xbc02278d	-0.007944
142	0xbb011bb3	-0.0019700348
143	0x3aaf8680	0.0013391525
144	0xbba355b9	-0.004984584
145	0xbc93eabc	-0.018056266
146	0xbca27334	-0.019830324
147	0x3d9232f1	0.071386226
148	0xbc78faf4	-0.015196551
149	0xbca72430	-0.020402998
150	0xbbb22c3f	-0.0054374035
151	0xbc19952d	-0.009373945
152	0xbc94c1c7	-0.018158806
153	0xbd1c7a99	-0.038202856
154	0xbc47d33f	-0.012196361
155	0x3c312539	0.010812097
156	0xbac428db	-0.0014965789
157	0xbc3ecd6f	-0.011645659
158	0xbb910da2	-0.004426674
159	0x3baa5b36	0.0051988615
160	0xbca3aeff	-0.019980906
161	0xbc9495ac	-0.018137775
162	0x3b283877	0.0025668421
163	0xbd5e51e5	-0.05427732
164	0xbc338ca5	-0.010958825
165	0xbcee7fe6	-0.029113721
166	0xbc8773dc	-0.016534738
167	0xbc3e9964	-0.011633251
168	0xbc9eee64	-0.019400783
169	0xbcba1ca6	-0.022718739
170	0x3d856b18	0.06514567
171	0xbd1804ed	-0.037114073
172	0xbd1686b1	-0.036749545
173	0xbd1834d9	-0.037159774
174	0xbc26571c	-0.010152604
175	0xbc362aff	-0.0111186495
176	0xbd67b380	-0.05656767
177	0xbd20b582	-0.0392356
178	0xbcd0b285	-0.02547575
179	0xbcde2502	-0.027117256
180	0xbb743a96	-0.0037266365
181	0xbbbba31b	-0.005726231
182	0xbcb00328	-0.02148588
183	0xbca041bc	-0.019562595
184	0xba91d3ac	-0.0011125705
185	0xb94583f8	-0.00018836546
186	0xbbdd4623	-0.0067527457
187	0xbd20e562	-0.039281256
188	0xbd00ba9b	-0.03142796
189	0xbbb6db54	-0.005580345
190	0xbc4e372a	-0.012586394
191	0xbb93828c	-0.0045016464
192	0xbd4487cb	-0.047981065
193	0xbc7b5ace	-0.015341474
194	0x3c6c1785	0.014409904
195	0xbc9af1a4	-0.018914051
196	0x3ce718c3	0.02821005
197	0xbd55aa3a	-0.052164294
198	0x3c5d84cf	0.013520434
199	0xbd107774	-0.03527017

gc3.weight f4 [200, 100]
0	0x3cfcf989	0.030880706
1	0x3bc05ba0	0.0058702976
2	0x3d7ba40d	0.061435748
3	0x3d464b0b	0.04841141
4	0xbe239f6e	-0.15978786
5	0x3c109319	0.008824133
6	0x3e98bf76	0.29833573
7	0x3e6dc293	0.23218755
8	0x3e01fadc	0.12693352
9	0xbddbd2ff	-0.10733604
10	0x3dd7e5b5	0.1054186
11	0x3d925ce6	0.07146625
12	0xbb883175	-0.0041562864
13	0xbd92e518	-0.071726024
14	0x3cefa81e	0.02925497
15	0x3d7ec0ca	0.062195577
16	0xbb36eabb	-0.0027910906
17	0xbdc9bad5	-0.098500885
18	0xbe6794a4	-0.22615296
19	0xbd765ada	-0.060145237
20	0x3dff1407	0.12454992
21	0xbd854a1c	-0.06508276
22	0xbdd6b052	-0.10482849
23	0xbe030f99	-0.12798919
24	0xbb62a9bf	-0.003458604
25	0xbd2a95c4	-0.041646734
26	0x3d9e49c5	0.07728914
27	0x3dd2cd21	0.102930315
28	0x3d2e3fd5	0.042541344
29	0x3d4c7cb7	0.049923625
30	0x3d49624b	0.049166005
31	0x3d734ade	0.05939757
32	0xbe12f637	-0.14351736
33	0xbcc6bbc6	-0.02425946
34	0xbdbc29c0	-0.09187651
35	0x3d5295c8	0.051412374
36	0x3c4f0e47	0.012637681
37	0x3ca0d7e6	0.019634198
38	0x3bddd04e	0.0067692166
39	0xbd44c222	-0.048036702
40	0x3d4125f7	0.047155347
41	0x3d2ebad9	0.04265866
42	0xbd3b13f0	-0.04567331
43	0x3d1de799	0.038550947
44	0x3d8b6ab5	0.06807462
45	0xbd7be72c	-0.06149976
46	0xbdeee664	-0.11665037
47	0x3d8a4980	0.067523
48	0xbceee80f	-0.029163389
49	0xbd3a3c05	-0.045467395
50	0x3d8909b2	0.06691302
51	0xbd364667	-0.044500735
52	0x3df5a919	0.119951434
53	0xbd150ce4	-0.036389247
54	0x3e4ed3b4	0.20197946
55	0xbca4d8f2	-0.020122979
56	0xbd0629e3	-0.03275479
57	0x3d47c44c	0.048771188
58	0xbd4c77d8	-0.04991898
59	0x3dbce1a6	0.092227265
60	0x3e0b58db	0.13608114
61	0xbd6886d7	-0.05676922
62	0xbdbf7894	-0.0934917
63	0xbdab9df3	-0.08379736
64	0x3d8778f8	0.0661487
65	0x3d4acaff	0.04951
66	0xbd227e2a	-0.0396711
67	0xbd9dc19c	-0.07702944
68	0xbc4302d7	-0.011902533
69	0x3da7bf6a	0.08190806
70	0x3df632a7	0.1202138
71	0x3b15c385	0.0022852134
72	0x3d987e86	0.074460074
73	0x3db3dcfa	0.08782382
74	0xbd8b86ef	-0.06812846
75	0x3d616f99	0.05503807
76	0xbd9995b6	-0.07499258
77	0xbc3a3b0a	-0.011366615
78	0x3dcfdd47	0.10149627
79	0xbd6bfd90	-0.057614863
80	0xbcc73fe5	-0.02432246
81	0xbded1fd1	-0.11578334
82	0x3e2e28f1	0.17007805
83	0x3d9f1e99	0.07769508
84	0x3e1893cb	0.14900129
85	0x3ce53f20	0.027984202
86	0xbd11e328	-0.035617024
87	0xbd910439	-0.070808835
88	0xbb6c86d2	-0.0036091101
89	0xbd02b322	-0.031909116
90	0x3d159312	0.03651721
91	0x3e57d858	0.21078622
92	0x3dc3047f	0.09522342
93	0x3d226049	0.039642606
94	0x3e06f29d	0.13178487
95	0xbc2f0ed3	-0.010684687
96	0x3d9bcdd2	0.076076165
97	0x3d49061a	0.049078085
98	0x3c39af17	0.011333249
99	0xbcd6749b	-0.026178649
100	0xbc2346b0	-0.009965584
101	0x3cd20816	0.025638621
102	0x3c15eb57	0.009150348
103	0x3da196eb	0.078901134
104	0x3e0ef0c4	0.13959032
105	0xbd9204ac	-0.07129797
106	0x3dea1a66	0.11430816
107	0x3d8ba508	0.068185866
108	0xbbb17e86	-0.005416694
109	0x3d693cea	0.056942858
110	0x3b6661ea	0.0035153576
111	0x3dc5c0dc	0.09655926
112	0xbe16be56	-0.14721045
113	0x3d3c301b	0.045944314
114	0xbd7cb3e6	-0.061695002
115	0x3e246e8e	0.16057798
116	0x3ccbc194	0.024872579
117	0xbd51063a	-0.05103133
118	0xbe0562fc	-0.13026041
119	0xbc5fc462	-0.013657661
120	0x3d058e8c	0.032606646
121	0xbe07bd56	-0.1325582
122	0xbd700ed4	-0.05860789
123	0x3e0910bf	0.13385294
124	0x3d2a1368	0.041522413
125	0xbdb26193	-0.08710017
126	0x3c944b5f	0.018102346
127	0x3d10f30c	0.035388038
128	0x3e05db48	0.1307193
129	0x3da608f4	0.081071764
130	0x3d3203e5	0.043460745
131	0x3cc94098	0.024566934
132	0x3e1ddb0a	0.15415588
133	0x3d0fc106	0.03509619
134	0x3d93cafb	0.0721645
135	0xbc362f97	-0.011119745
136	0xbcd5e28b	-0.026109
137	0x3c4ee0bc	0.012626823
138	0xbdb504fb	-0.088388406
139	0xbc948f74	-0.01813481
140	0xbcaa5c44	-0.020795949
141	0xbcb41dcc	-0.021986865
142	0xbe37d30d	-0.17951603
143	0x3e06cad3	0.13163309
144	0xbce4a97d	-0.02791285
145	0x3db14421	0.08655573
146	0x3ce7535b	0.02823799
147	0x3e0217c1	0.12704374
148	0xbe527641	-0.20552923
149	0xbd254c1e	-0.040355794
150	0x3d0b8b3b	0.034068327
151	0xbd2aa785	-0.041663665
152	0x3db11760	0.086470366
153	0x3d8a2742	0.06745769
154	0xbe01ae69	-0.12664188
155	0x3cc111e6	0.023568105
156	0xbd2d8c11	-0.042369906
157	0x3e2666f1	0.16250207
158	0xbd3c56fb	-0.04598139
159	0x3d1ecc9d	0.038769353
160	0xbb81f9d9	-0.0039665517
161	0xbd31d0f0	-0.04341215
162	0xbd90f20b	-0.07077416
163	0x3d1ae461	0.037815455
164	0x3e6e9ef6	0.23302826
165	0x3dfa2c93	0.12215533
166	0x3d1e5e4f	0.03866416
167	0x3e13b832	0.14425734
168	0xbd821728	-0.06352073
169	0xbd9670ec	-0.07345757
170	0x3e4baa81	0.19889261
171	0xbe1ee6f5	-0.1551779
172	0x3d8028a6	0.06257753
173	0x3df1c8ab	0.118058525
174	0xbda3024d	-0.07959423
175	0xbcd5cf8d	-0.026099944
176	0x3d7f7884	0.062370792
177	0x3b1f5780	0.0024313629
178	0x3d88e17d	0.066836335
179	0xbd35b78f	-0.04436451
180	0x3d4d0e57	0.050062504
181	0xbd0880b2	-0.03332586
182	0x3dbfbfe4	0.09362772
183	0xbcfc543f	-0.03080189
184	0x3c5ea42a	0.013588944
185	0x3d4217d3	0.047386
186	0x3d2bbdd5	0.041929085
187	0xbdb62822	-0.088943735
188	0x3c7edae6	0.015555119
189	0x3d364d48	0.044507295
190	0x3df31caf	0.11870705
191	0x3cb99e62	0.02265853
192	0x3de9cf8f	0.11416542
193	0x3dbe461d	0.09290717
194	0x3d3d75fb	0.046255093
195	0x3e223f62	0.15844491
196	0x3d8013d6	0.062537834
197	0x3e2ea5a8	0.1705538
198	0xbdd49055	-0.10379092
199	0x3d13a726	0.036048077
200	0x3e2abf82	0.16674617
201	0x3daefe40	0.08544588
202	0xbe2e1fec	-0.17004365
203	0x3e19b067	0.15008698
204	0x3d99631e	0.07489608
205	0x3e05ac46	0.13053998
206	0x3d0be20b	0.03415112
207	0xbdc1edeb	-0.094692074
208	0x3a702dd3	0.0009162102
209	0x3e0cf5cb	0.13765638
210	0x3cbd8cab	0.023138365
211	0xbd836756	-0.06416194
212	0xbe2ef2b8	-0.17084777
213	0xbd236000	-0.039886475
214	0x3dc1bb30	0.09459531
215	0x3e0b2169	0.13586964
216	0x3e595a52	0.2122586
217	0x3dd44b23	0.10365894
218	0x3e3700f6	0.1787146
219	0x3e6df492	0.23237827
220	0xbd4efef2	-0.050536104
221	0x3e191c33	0.14952163
222	0x3dbc5215	0.091953434
223	0x3dfa37c7	0.1221767
224	0xbd070f6e	-0.0329737
225	0x3dcbda3b	0.099537335
226	0x3e264e4f	0.1624081
227	0x3d286cc0	0.041119337
228	0xbe75ec34	-0.24015886
229	0x3bcb8c49	0.0062117917
230	0xbdd1d751	-0.102461465
231	0xbe4392ae	-0.19098923
232	0x3e4e3d9b	0.20140688
233	0x3e34dfd5	0.1766351
234	0x3d420cc3	0.04737545
235	0x3e07f156	0.13275656
236	0xbe0bb3bd	-0.13642783
237	0xbe89e8c2	-0.26935393
238	0x3d420ae1	0.047373656
239	0x3e03b4bf	0.12861918
240	0x3e343591	0.17598559
241	0xbdc4e8f4	-0.09614745
242	0x3a1ccc49	0.00059813686
243	0xbe0fabc3	-0.14030366
244	0x3e50a69c	0.20376056
245	0xba8cbfd3	-0.001073832
246	0xbd84d16b	-0.06485256
247	0x3d4d2e57	0.05009302
248	0xbd82b7ec	-0.063827366
249	0x3d2a7029	0.04161087
250	0xbdb7c93f	-0.089739315
251	0x3e1948ab	0.14969127
252	0xbd62572d	-0.05525892
253	0x3dc8cdf6	0.09804909
254	0xbc8c97f1	-0.017162295
255	0x3e189069	0.14898838

gc3.bias f4 [100]
0	0xbd04eb55	-0.032450993
1	0xbd111f56	-0.035430275
2	0x39dfd2c2	0.000426909
3	0xbd2115d0	-0.039327443
4	0xbd13c053	-0.036072087
5	0x3d3e59c2	0.04647232
6	0xbd1fbed7	-0.03900036
7	0xbc4603a8	-0.012085833
8	0x3c79b3e0	0.015240639
9	0xbd096744	-0.033545747
10	0xbd1621e3	-0.03665341
11	0xbc9c0cd6	-0.01904909
12	0x3a8d12c2	0.0010763037
13	0xbd0e855e	-0.034795158
14	0xbd12e3cb	-0.03586177
15	0xbcd1e77d	-0.025623078
16	0xbc2416af	-0.010015174
17	0xbd2b9722	-0.04189218
18	0xbc3ec339	-0.011643224
19	0xbd4f7b68	-0.0506548
20	0xbca9a260	-0.02070731
21	0xbcbdbc61	-0.023161115
22	0xbcbb10ad	-0.0228351
23	0xbcdc2c24	-0.026876517
24	0xbc39f977	-0.011350981
25	0xbcff8d50	-0.031195313
26	0xbd190da4	-0.037366524
27	0xbcd5aab7	-0.02608238
28	0xbc70ce5c	-0.014697637
29	0xbc3e6524	-0.0116207935
30	0xbcbe9b23	-0.023267334
31	0xbc752f91	-0.014964954
32	0xbce1111e	-0.027473982
33	0xbd35727d	-0.044298638
34	0xbcae7ea8	-0.021300629
35	0xbd0dedd9	-0.034650657
36	0xbc524214	-0.012833137
37	0xbd1138db	-0.035454612
38	0xbcbf377e	-0.02334189
39	0xbd297eb5	-0.041380603
40	0xbd4d4795	-0.050117094
41	0xbce22908	-0.027607456
42	0x3d28f1c3	0.041246187
43	0xbd8802ea	-0.06641181
44	0xbd6b0a4b	-0.057382863
45	0x3ce970a7	0.0284961
46	0x3d1ca266	0.038240813
47	0xbd15b708	-0.036551505
48	0xbcb13a4f	-0.021634249
49	0x3ad2a013	0.0016069434
50	0xbce78665	-0.028262326
51	0xbd33f8fa	-0.043938614
52	0xbce74acf	-0.028233914
53	0xbd2bfa26	-0.041986607
54	0xbd0cc329	-0.034365807
55	0xbcc38870	-0.02386877
56	0xbcdf50c0	-0.027260184
57	0xbd10d13f	-0.035355803
58	0xbc62bb1e	-0.0138385575
59	0xbcc1441c	-0.023592047
60	0xbd1cecde	-0.03831183
61	0x3cffc808	0.031223312
62	0xbd012ffc	-0.031539902
63	0xbac41cef	-0.0014962236
64	0xbd41ea37	-0.047342505
65	0xbd1b1195	-0.037858564
66	0x3a820cfb	0.0009922081
67	0xbc2a9e69	-0.0104137445
68	0xbd4e4518	-0.05035886
69	0xbcb8eceb	-0.022573909
70	0xbc9147cf	-0.017734436
71	0xbcf92c8a	-0.030416746
72	0xbc39bab5	-0.011336018
73	0xbbf601eb	-0.007507553
74	0xbb5c7065	-0.0033636328
75	0xbd1b0d06	-0.037854217
76	0xbcd89bde	-0.02644151
77	0x3d27bf27	0.04095378
78	0xbd0c83d8	-0.034305423
79	0xbb968432	-0.0045933956
80	0xbd1be913	-0.038064074
81	0xbceb767d	-0.028743023
82	0xbcf63830	-0.03005609
83	0x3c812d2c	0.01576861
84	0xbbd131a3	-0.006384091
85	0xbccf5d29	-0.025312977
86	0xbc917039	-0.017753707
87	0xbd1747a7	-0.036933567
88	0x3b903164	0.004400419
89	0xbcb9e302	-0.022691254
90	0xbcf9bc12	-0.030485187
91	0xbcc8bda0	-0.024504483
92	0xbd08f8d5	-0.03344043
93	0xbb356dca	-0.0027683848
94	0xbc5f1e02	-0.013617994
95	0xbc99d987	-0.018780483
96	0xbcb027b3	-0.021503305
97	0xbc79ed46	-0.015254324
98	0xbcec865e	-0.028872665
99	0xbd2b819e	-0.04187166
