ROSMAP/models/1/E3.pth (torch, 404231 bytes, 6 tensors)

gc1.weight f4 [200, 200]
-0.06042777 -0.05461254 -0.128871 0.08218422 0.099987246 -0.041472193 0.026787013 -0.09551842
0.036213644 0.0069803144 -0.06299953 -0.15983982 -0.11715293 0.13219272 0.028589064 0.1562326
-0.03683505 0.012960591 -0.023338255 -0.078868635 0.16511787 0.02332959 0.123544335 -0.021689722
-0.017502515 0.037603136 -0.085400306 -0.036038917 0.0073565645 -0.14415327 0.13384311 0.009090781
-0.09510414 -0.047990266 0.0067800395 0.1304059 0.026272055 0.0051060077 0.07006588 0.0016773519
-0.037612222 0.0054205675 -0.056173354 0.016383283 -0.02965738 -0.05322883 0.22338597 0.030299056
-0.04569541 0.021662487 0.015340249 -0.068572246 0.10335206 -0.06833268 -0.0652987 0.03971103
-0.03653321 0.039930265 0.029731998 -0.05803413 0.018572764 0.04775562 0.02040869 0.004980579
0.12316638 -0.036413312 0.106356956 -0.06504763 0.0025466564 0.034830123 0.102035284 0.12431596
0.15890627 0.009214543 0.030049166 -0.061035782 -0.14895734 -0.08031462 0.03602304 -0.10062399
-0.06945495 0.009826827 0.010682527 -0.0069101485 -0.07042598 0.008951166 0.0008321053 -0.08137064
-0.10845553 0.043866612 0.0155679565 -0.028134916 0.026526483 0.08492815 -0.07384538 -0.0866811
0.10261616 -0.010143317 0.11984685 0.08620893 -0.021812845 0.034585625 0.02467625 0.045638256
0.03418645 0.13738029 0.12533017 0.016827974 -0.06183157 -0.023355732 0.012101011 0.036506005
-0.09858525 -0.06310326 -0.023683468 -0.02791512 -0.12193695 0.050812252 0.027303606 0.042380333
0.02264032 0.06981225 -0.09223792 -0.023256624 -0.0338802 -0.0024751956 0.06838227 -0.09082885
0.011871847 0.004327127 -0.14644653 -0.02202766 -0.0070562894 -0.00074928324 0.03610403 0.06550586
-0.06844661 -0.04570148 -0.023467563 0.1193596 0.013627861 -0.1764189 0.02739238 -0.036519952
0.04443518 -0.06810095 0.06691674 0.018632494 0.0859577 0.07705689 -0.08005735 -0.054081738
0.036567416 -0.08547761 -0.041285686 -0.06711271 0.089413226 -0.055961266 -0.010555789 0.0020028406
0.037928436 -0.064355895 -0.06199539 0.019552467 0.12161683 0.02532023 -0.067129076 -0.10516449
0.052346393 -0.08319418 0.0836464 -0.091109835 -0.11100852 -0.055163052 -0.015933938 -0.022244932
-0.059666906 -0.064006194 -0.14242397 0.06190459 0.123668194 -0.0019479019 0.09780627 -0.07111158
-0.07058304 -0.05436013 0.06314844 0.09903388 -0.04996144 -0.041242573 0.05321237 0.03590288
-0.04353526 -0.12036485 0.10372947 0.11484273 -0.022970079 -0.054740783 0.09803427 0.052830685
-0.07477769 0.024207419 -0.015818266 0.051094025 -0.072627105 0.01861968 -0.13227193 0.037205108
0.07312918 -0.04264534 0.0734393 -0.00038951368 -0.025549134 -0.023397919 -0.034234673 -0.029512687
0.0039196284 -0.017176872 -0.03188261 0.0409146 0.11777824 0.00062586553 -0.024133686 0.0015838174
-0.0069420096 0.013148117 -0.0053180135 -0.0077124457 0.009896171 -0.027215108 0.04351362 -0.152394
-0.091404356 -0.18671408 -0.052472044 -0.035960056 0.10048155 0.11591883 0.0082730185 0.08194627
0.05671008 0.09188274 -0.0016964042 -0.025895838 -0.09075242 0.01843974 -0.021865012 -0.023234086
-0.115073845 0.040296763 0.078274556 -0.019626413 0.10684199 -0.00086779875 0.073444195 0.04580862
00000000: 1c83 77bd 66b1 5fbd c2f6 03be 3350 a83d
00000010: 1dc6 cc3d bfde 29bd 7070 db3c 299f c3bd
00000020: c254 143d 1fbb e43b e605 81bd 0dad 23be
00000030: e0ed efbd 875d 073e 9d33 ea3c 70fb 1f3e
00000040: 59e0 16bd a958 543c de2f bfbc e185 a1bd
00000050: a914 293e b21d bf3c d004 fd3d a5ae b1bc
00000060: 6f61 8fbc bf05 1a3d 5be6 aebd 8b9d 13bd
00000070: 560f f13b ea9c 13be 2b0e 093e 80f1 143c
00000080: f6c5 c2bd 7191 44bd 182b de3b 2089 053e
00000090: 7e38 d73c 4c50 a73b b37e 8f3d 97da db3a
000000a0: 460f 1abd 049f b13b 0816 66bd 3c36 863c
000000b0: 09f4 f2bc 7906 5abd 4bbf 643e ba35 f83c
000000c0: 1c2b 3bbd 8775 b13c ab55 7b3c 9b6f 8cbd
000000d0: 3faa d33d 01f2 8bbd 53bb 85bd 08a8 223d
000000e0: d9a3 15bd eb8d 233d 8590 f33c 32b5 6dbd
000000f0: e925 983c 669b 433d 2030 a73c 2034 a33b
00000100: a83e fc3d 2026 15bd add1 d93d b137 85bd
00000110: cee5 263b 08aa 0e3d e0f7 d03d 5e99 fe3d
00000120: 53b8 223e 98f8 163c ab29 f63c a800 7abd
00000130: 4688 18be fe7b a4bd e58c 133d f313 cebd
00000140: 663e 8ebd b300 213c c405 2f3c 876e e2bb
00000150: 7f3b 90bd e9a7 123c a421 5a3a a6a5 a6bd
00000160: ef1d debd 7aad 333d be10 7f3c 327b e6bc
00000170: 114e d93c cfee ad3d 3f3c 97bd dc85 b1bd
00000180: 6c28 d23d 2830 26bc 4472 f53d 4f8e b03d
00000190: dab0 b2bc a8a9 0d3d d925 ca3c 2eef 3a3d
000001a0: 1707 0c3d 6bad 0c3e 8d56 003e d2da 893c
000001b0: 1a43 7dbd 8554 bfbc 5243 463c 5287 153d
000001c0: 10e7 c9bd 483c 81bd d503 c2bc 40ae e4bc
000001d0: 14ba f9bd 8220 503d d0ab df3c 0097 2d3d
000001e0: 3178 b93c baf9 8e3d 3ce7 bcbd ad84 bebc
000001f0: f7c5 0abd e436 22bb 010c 8c3d 7a04 babd
00000200: 2382 423c 92ca 8d3b 14f6 15be 5a73 b4bc
00000210: 7238 e7bb 8c6b 44ba d2e1 133d f027 863d
00000220: bc2d 8cbd 7a31 3bbd 0c3f c0bc ce72 f43d
00000230: 6447 5f3c 28a7 34be fc65 e03c f295 15bd
00000240: aa01 363d 8378 8bbd a50b 893d 2ca3 983c
00000250: 970a b03d 01d0 9d3d 1cf5 a3bd d084 5dbd
00000260: b7c7 153d e30e afbd 2e1b 29bd 6372 89bd
00000270: 481e b73d a437 65bd 30f2 2cbc 1742 033b
00000280: d95a 1b3d 06cd 83bd e1ee 7dbd 7f2c a03c
00000290: 3f12 f93d 5f6c cf3c f87a 89bd 7b60 d7bd
000002a0: 2c69 563d b661 aabd ce4e ab3d cb97 babd
000002b0: 6f58 e3bd a7f2 61bd e487 82bc 013b b6bc
000002c0: 4965 74bd ae15 83bd 97d7 11be ab8f 7d3d
000002d0: c045 fd3d be50 ffba a74e c83d f3a2 91bd
000002e0: d78d 90bd baa8 5ebd f853 813d 46d2 ca3d
000002f0: 5ea4 4cbd f9ed 28bd 37f5 593d e60e 133d
00000300: 0752 32bd d981 f6bd 1e70 d43d aa32 eb3d
00000310: bf2b bcbc df37 60bd 31c6 c83d fd64 583d
00000320: 0c25 99bd a34e c63c 4f95 81bc f847 513d
00000330: 85bd 94bd 4d88 983c 4b72 07be 6264 183d
00000340: c0c4 953d e1ac 2ebd 5867 963d a437 ccb9
00000350: 6b4c d1bc feac bfbc a839 0cbd 97c4 f1bc
00000360: 3a70 803b 83b6 8cbc 5797 02bd 1196 273d
00000370: b835 f13d 2011 243a 02b4 c5bc 1898 cf3a
00000380: cc79 e3bb 336b 573c bb42 aebb afb8 fcbb
00000390: 8d23 223c 38f2 debc 563b 323d 2c0d 1cbe
000003a0: 3532 bbbd fa31 3fbe edec 56bd da4a 13bd
000003b0: 45c9 cd3d da66 ed3d 8e8b 073c 72d3 a73d
000003c0: d448 683d 052d bc3d e159 deba 8223 d4bc
000003d0: 68dc b9bd f00e 973c 411e b3bc 6955 bebc
000003e0: d6ab ebbd 380e 253d 694e a03d 92c7 a0bc
000003f0: f9cf da3d fd7c 63ba e969 963d d2a1 3b3d

gc1.bias f4 [200]
-0.0009864798 0.00969816 -0.016768822 0.0008883254 -0.001687331 0.00012455296 0.013154483 0.003469167
-0.0029375078 -0.015697775 -0.011319726 -0.0011071241 -0.009830929 -0.004042522 -0.008257383 -0.0010889218
-0.0039621 0.0019956743 -0.0066289078 0.005276841 -0.0046908217 0.0016311056 0.00051037414 -0.006894082
-0.0013402206 -0.001284543 -0.010221977 0.0058431663 -0.0031277437 0.005318221 0.003977404 -0.0016400699
-0.008649861 0.0031792664 0.008911054 -0.0049781986 -0.0054707495 -0.00069157674 0.00067052804 0.0015524183
0.004896174 0.00075308327 -0.001527152 0.00052009703 -0.0050636563 0.0017821577 -0.011089288 -0.010357446
0.0039973855 -0.015175957 0.0081401905 0.000942163 0.0039085555 0.0034617581 0.0050996607 0.0021935492
0.015661923 0.011348592 -0.0053394185 -0.0024643857 -0.0069742785 -0.0015889658 0.00073438423 0.0045337705
0.007381078 -0.0034553693 0.003367515 0.00089463644 -0.01004747 0.0028513952 -0.0035443176 0.005767289
-0.00053280615 0.0010707305 -0.0014165313 0.01210882 0.004270929 -0.0071691647 0.0077189715 -0.0045618825
-0.00021541 -0.0061373794 -0.008936851 0.0055140136 0.0032655573 0.0075001414 -0.004440038 -0.005747675
-0.010562685 -0.0028152354 -0.010083635 -0.008090816 -0.001552094 0.00075265096 -0.006816784 -0.0060160663
-0.009140779 -0.004198999 0.0016664804 0.005907676 -0.008748109 -0.0018196083 0.012498276 0.0032295678
0.00050253124 0.0056588817 0.0021198348 -0.01066809 -0.015351207 0.012137278 0.007316503 -0.0029259278
-0.0053418516 -0.005093765 -0.0028935017 0.0081532905 0.0053754533 0.0026574703 0.006195943 0.005049651
0.014533845 -0.005416112 -0.008640616 0.0045086397 -0.0072450754 -0.005101699 0.012858992 -0.005121242
0.0016174321 -0.002380501 -0.007833246 0.0050023086 0.007175441 0.0075611407 0.0018699677 -0.0101096025
-0.001778057 -0.010822377 -0.0041044266 -0.0144960955 0.0015851405 -0.00442907 0.0007324699 -0.0015612592
-0.0059874654 0.0030415505 -0.014291937 0.001291797 -0.009128714 0.006503579 -0.003474486 0.008418568
-0.0010243896 -0.0069675366 0.0026580822 -0.010846871 -0.007854297 0.003769594 0.0057242275 -0.001687974
0.0034874491 -0.0033679078 -0.009617201 -0.003974489 -0.0077780485 -0.006972071 7.7986544e-05 0.0037374056
-0.00031424456 0.00085964915 0.010898813 0.00038704363 0.0035882022 0.0007850009 -0.0058380538 0.012227458
0.0029522032 -0.0037538086 0.007786544 -0.0064188726 0.011756449 2.1958567e-06 0.0036319622 0.00791096
-0.004043877 0.005844189 0.0059098774 -0.0019523688 -0.0070872055 -0.01348419 -0.011033508 -0.0005968433
0.00027214258 -0.009576091 0.013803252 -0.003351953 -0.0022395917 -0.006428181 -0.0025098673 -0.0015802962
00000000: c54c 81ba 08e5 1e3c c55e 89bc 82de 683a
00000010: 6f29 ddba 6e9a 0239 e785 573c f75a 633b
00000020: 3483 40bb 9f98 80bc 5f76 39bc ec1c 91ba
00000030: e811 21bc 2277 84bb f949 07bc 27ba 8eba
00000040: 81d4 81bb dcc9 023b 4f37 d9bb 5ae9 ac3b
00000050: 77b5 99bb d2ca d53a a1ca 053a c0e7 e1bb
00000060: 57aa afba 1c5e a8ba 147a 27bc 0878 bf3b
00000070: d5fa 4cbb 7944 ae3b e254 823b 9df7 d6ba
00000080: 26b8 0dbc 3d5b 503b abff 113c 2820 a3bb
00000090: f943 b3bb ee4a 35ba 60c6 2f3a 847a cb3a
000000a0: 1670 a03b 906a 453a b82a c8ba 1f57 083a
000000b0: 07ed a5bb 4a97 e93a d8af 35bc 47b2 29bc
000000c0: 80fc 823b 94a4 78bc 6f5e 053c 7dfb 763a
000000d0: 5713 803b aade 623b 0e1b a73b a6c1 0f3b
000000e0: 6f4d 803c 72ef 393c 4af6 aebb 8881 21bb
000000f0: 7d88 e4bb d844 d0ba b183 403a 0690 943b
00000100: f8dc f13b 7a73 62bb 87b1 5c3b 0986 6a3a
00000110: 259e 24bc 79de 3a3b c847 68bb 87fb bc3b
00000120: 04ac 0bba c157 8c3a e7aa b9ba 1264 463c
00000130: 26f3 8b3b 50eb eabb 6def fc3b d87b 95bb
00000140: aedf 61b9 121c c9bb df6b 12bc e6ae b43b
00000150: f602 563b bfc3 f53b bd7d 91bb fe56 bcbb
00000160: 1d0f 2dbc d07f 38bb d535 25bc 588f 04bc
00000170: a26f cbba 8d4d 453a 545f dfbb 6c22 c5bb
00000180: 35c3 15bc c297 89bb ce6d da3a 2e95 c13b
00000190: 3b54 0fbc ec7f eeba 92c5 4c3c 28a7 533b
000001a0: 4dbc 033a 246e b93b edec 0a3b 36c9 2ebc
000001b0: a183 7bbc 6fdb 463c 47bf ef3b ecc0 3fbb
000001c0: b30a afbb 99e9 a6bb e7a0 3dbb 6195 053c
000001d0: 9224 b03b f428 2e3b 5607 cb3b 8b77 a53b
000001e0: 5d1f 6e3c a479 b1bb 5f91 0dbc 36bd 933b
000001f0: 1968 edbb 272c a7bb 86ae 523c 17d0 a7bb
00000200: 0400 d43a 2e02 1cbb 0457 00bc 68ea a33b
00000210: f61f eb3b 72c3 f73b b419 f53a bfa2 25bc
00000220: b10d e9ba 5750 31bc 6d7e 86bb 0881 6dbc
00000230: 7dc4 cf3a bb21 91bb 3903 403a 2aa3 ccba
00000240: 8032 c4bb c054 473b bb28 6abc 8451 a93a
00000250: 9a90 15bc fa1b d53b 34b4 63bb 09ee 093c
00000260: d044 86ba ef4f e4bb 3833 2e3b 13b7 31bc
00000270: 4faf 00bc 4b0b 773b 4d92 bb3b 023f ddba
00000280: b08d 643b 1eb8 5cbb 7791 1dbc 6e3c 82bb
00000290: 00df febb f875 e4bb b58c a338 43ef 743b
000002a0: 31c1 a4b9 145a 613a ef90 323c 1eec ca39
000002b0: 0b28 6b3b 85c8 4d3a 254d bfbb ad55 483c
000002c0: c079 413b 7502 76bb 4426 ff3b 6855 d2bb
000002d0: 1f9e 403c 885c 1336 3706 6e3b f99c 013c
000002e0: 8082 84bb 9c80 bf3b a5a7 c13b a0e6 ffba
000002f0: ca3b e8bb cbec 5cbc e3c5 34bc 7a75 1cba
00000300: 5cae 8e39 09e5 1cbc 0927 623c 71ac 5bbb
00000310: 1dc6 12bb 7ea3 d2bb 967c 24bb f121 cfba

gc2.weight f4 [200, 200]
0.13533439 -0.12920532 0.07537686 0.0060776854 0.060823888 -0.0825238 0.1265228 0.13086255
0.08019989 -0.05267838 -0.056517508 0.09512271 -0.16160151 -0.009693539 -0.012381784 -0.0788125
0.055565473 -0.1754181 0.035815924 -0.11334777 0.06276519 0.039854657 -0.08630373 -0.0923288
-0.044671584 0.121086806 -0.020921668 0.071124166 0.15790224 -0.03599225 -0.097746365 -0.056318387
0.041202325 -0.047930535 0.0369506 0.12711483 -0.05414023 -0.107610926 0.021980047 0.05695072
0.2328393 0.030999921 0.039462272 0.15409121 -0.010424964 -0.09792716 -0.04079636 -0.048818655
0.13920596 0.12896779 -0.102245234 -0.08756838 -0.0964667 -0.098358825 0.08396624 0.13465907
-0.09238983 0.140111 -0.0025762585 -0.07319358 0.12724158 -0.041558884 0.11679209 0.12870252
-0.16007072 0.11110435 -0.069051675 0.022723567 0.088994734 0.030838773 0.1024724 0.12994659
-0.064473644 -0.020949773 -0.1081957 0.058456115 0.06177294 -0.11814448 -0.01949144 -0.0926491
-0.043400314 0.13245896 -0.07826277 -0.041834835 -0.038675707 0.13006864 0.06707219 0.07823744
0.04901705 0.17318635 0.020029347 0.039495405 -0.0036354668 0.029034063 -0.0066936915 0.09348651
0.064194776 0.14345531 -0.061252452 0.15596159 0.012814541 0.019513248 0.06977215 0.047153007
-0.045940634 0.021838088 0.08095813 -0.085978955 0.031490188 0.018422378 0.014924757 -0.11599937
-0.09453 -0.08830212 0.2494541 0.19611982 0.010975131 -0.03511911 -0.14063112 -0.12861823
0.0033652056 -0.02618064 -0.056025155 -0.0022426078 0.16007505 -0.11424805 -0.0738853 0.05651201
0.018407784 -0.105546385 -0.1188657 -0.076119274 0.030158337 -0.074986644 0.096364945 -0.09800446
0.057716552 -0.12459501 0.09106606 -0.19526087 -0.049457133 0.103875466 -0.07018132 -0.12884004
-0.060775388 -0.119771115 0.05837031 -0.11855146 0.05022427 -0.07896254 -0.08072461 -0.04043463
0.09749855 -0.033592116 -0.055987164 0.027764652 0.04083254 0.2725812 -0.09186259 -0.07735708
0.15824004 0.20849325 0.039961934 -0.11143892 -0.015014809 0.079763524 -0.12282992 -0.008734931
0.009413322 0.12491791 0.15731795 0.08843818 -0.07030021 0.11461265 -0.13014361 0.028892448
-0.11751279 -0.043789916 -0.10013705 0.120511405 0.10501295 0.17042576 0.23513517 -0.12313552
-0.13288125 0.07794129 -0.07059985 -0.093378544 -0.08765955 -0.0071505466 0.11706926 0.1822089
0.078452505 0.08602713 0.12639928 -0.09449463 0.04767353 -0.045046486 0.24479043 0.041950967
-0.0053798845 0.024037257 -0.15438117 -0.03182536 -0.00204717 0.030948892 0.004217984 -0.035683636
-0.03739393 0.07721094 -0.021032358 0.025874775 0.04788321 0.077579394 0.039010283 -0.036960695
0.087923184 0.04260461 -0.1442128 -0.009293547 0.012782963 0.087402485 0.031503893 -0.110746875
0.030511266 -0.09193616 -0.04261323 0.039789144 0.045665104 0.053296264 -0.006016671 -0.06289792
0.021687865 0.0733696 -0.1483315 -0.044434965 0.0070518134 -0.023938185 -0.026225526 -0.020051312
0.01806971 -0.01310884 -0.033685617 -0.03119932 -0.015598496 0.090304986 0.03860545 0.098103635
-0.042415198 0.005679291 -0.02140541 0.05943769 -0.022309704 0.11791025 0.046190925 -0.021368075
00000000: 1995 0a3e 664e 04be 2f5f 9a3d 5227 c73b
00000010: 7822 793d 3d02 a9bd 318f 013e d500 063e
00000020: d73f a43d 49c5 57bd e77e 67bd b2cf c23d
00000030: de7a 25be a6d1 1ebc f7dc 4abc 7368 a1bd
00000040: 9f98 633d cda0 33be b8b3 123d e022 e8bd
00000050: 098b 803d a33e 233d 03c0 b0bd e216 bdbd
00000060: 8df9 36bd 5cfc f73d eb63 abbc 8ca9 913d
00000070: 20b1 213e 9c6c 13bd 3f2f c8bd 1cae 66bd
00000080: c5c3 283d cf52 44bd 8359 173d 642a 023e
00000090: 25c2 5dbd 1e63 dcbd 800f b43c 2845 693d
000000a0: 6d6d 6e3e 8cf3 fd3c 31a3 213d 16ca 1d3e
000000b0: 78cd 2abc 098e c8bd 151a 27bd 12f6 47bd
000000c0: 028c 0e3e 2210 043e f365 d1bd 0d57 b3bd
000000d0: 5590 c5bd 5a70 c9bd 7ef6 ab3d 11e4 093e
000000e0: e136 bdbd 4279 0f3e 72d6 28bb 84e6 95bd
000000f0: 9e4b 023e a639 2abd b130 ef3d 98ca 033e
00000100: 94e9 23be ad8a e33d f76a 8dbd c626 ba3c
00000110: df42 b63d 98a1 fc3c 0ddd d13d b810 053e
00000120: c20a 84bd dc9e abbc b595 ddbd ae6f 6f3d
00000130: 9f05 7d3d bcf5 f1bd 83ac 9fbc d0be bdbd
00000140: 87c4 31bd 52a3 073e 3b48 a0bd 015b 2bbd
00000150: 6b6a 1ebd b730 053e 255d 893d f33a a03d
00000160: 1ac6 483d c357 313e 9614 a43c efc5 213d
00000170: 0341 6ebb d8d8 ed3c c156 dbbb db75 bf3d
00000180: 8d78 833d f3e5 123e dae3 7abd 65b4 1f3e
00000190: 15f4 513c 3fda 9f3c b3e4 8e3d 8323 413d
000001a0: 3f2c 3cbd cae5 b23c 60cd a53d bc15 b0bd
000001b0: dbfb 003d 87ea 963c f886 743c 1491 edbd
000001c0: f298 c1bd bed7 b4bd e570 7f3e a2d3 483e
000001d0: 09d1 333c 0ed9 0fbd 9b01 10be 7fb4 03be
000001e0: c88a 5c3b c878 d6bc a27a 65bd b7f8 12bb
000001f0: b7ea 233e e2fa e9bd 2d51 97bd 2379 673d
00000200: eccb 963c b428 d8bd dc6f f3bd 6ce4 9bbd
00000210: 9e0e f73c 9992 99bd fc5a c53d 90b6 c8bd
00000220: 3168 6c3d ab2b ffbd d880 ba3d 77f2 47be
00000230: 9093 4abd a9bc d43d 39bb 8fbd a5ee 03be
00000240: 9def 78bd 8f4a f5bd b515 6f3d 1ccb f2bd
00000250: f7b7 4d3d 1db7 a1bd f252 a5bd c89e 25bd
00000260: 52ad c73d e397 09bd cc52 65bd b272 e33c
00000270: 0540 273d c38f 8b3e 7422 bcbd 646d 9ebd
00000280: ad09 223e 417f 553e 20af 233d 173a e4bd
00000290: ac00 76bc 0f5b a33d 418e fbbd f51c 0fbc
000002a0: 563a 1a3c f6d4 ff3d f517 213e 141f b53d
000002b0: 8ef9 8fbd 09ba ea3d 5e44 05be dbaf ec3c
000002c0: 8caa f0bd 0e5d 33bd a714 cdbd afce f63d
000002d0: 0811 d73d 1784 2e3e 46c7 703e 7a2e fcbd
000002e0: 0612 08be af9f 9f3d a796 90bd 403d bfbd
000002f0: da86 b3bd 224f eabb 02c2 ef3d f894 3a3e
00000300: b5ab a03d fe2e b03d d06e 013e 6786 c1bd
00000310: 5245 433d aa82 38bd 58aa 7a3e c7d4 2b3d
00000320: be49 b0bb c8e9 c43c 1916 1ebe 4f5b 02bd
00000330: d029 06bb 8888 fd3c 0437 8a3b 0129 12bd
00000340: 612a 19bd c520 9e3d 0d4c acbc 56f7 d33c
00000350: 2f21 443d f2e1 9e3d 3fc9 1f3d 1964 17bd
00000360: 1211 b43d 2c82 2e3d 85ac 13be f643 18bc
00000370: a26f 513c 1300 b33d 3a0a 013d 42cf e2bd
00000380: c3f2 f93c 0749 bcbd 368b 2ebd f1f9 223d
00000390: 550b 3b3d 2f4d 5a3d 7f27 c5bb a0d0 80bd
000003a0: c0aa b13c cd42 963d 36e4 17be 7001 36bd
000003b0: e612 e73b 031a c4bc ead6 d6bc a642 a4bc
000003c0: ee06 943c 76c6 56bc eef9 09bd b795 ffbc
000003d0: d690 7fbc d2f1 b83d c020 1e3d 8fea c83d
000003e0: 8fbb 2dbd 5919 ba3b 665a afbc ef74 733d
000003f0: d7c2 b6bc ee7a f13d b232 3d3d 1a0c afbc

gc2.bias f4 [200]
-0.019684229 -0.019740168 -0.027638255 -0.027286679 -0.033046845 -0.010755162 -0.011626648 0.024054749
-0.029320162 -0.0026498518 -0.009957545 -0.008450392 -0.00039808903 -0.031049987 -0.013716696 -0.027234873
-0.011330123 -0.032463633 -0.04642576 -0.062201846 0.0087158345 -0.010769671 -0.02876342 -0.05386047
-0.0055081137 -0.013535973 -0.0145452265 0.00035484796 -0.062632464 -0.02351855 -0.025775418 -0.03151237
-0.010471503 -0.08383394 -0.033480708 -0.02576241 -0.013077271 0.0088844625 -0.04021788 0.022718698
-0.02596066 -0.0045655393 0.003051021 -0.014994908 -0.025290817 -0.0068226447 -0.018053345 -0.008338752
0.0012553623 0.009343755 -0.028127776 -0.06785992 -0.010563544 0.029899474 0.020968402 -0.02432854
0.018383471 -0.018886615 -0.015235348 -0.009608185 -0.018560983 -0.019706938 -0.008423518 -0.008224692
-0.04130234 -0.025757246 -0.019091127 0.034325857 0.009872539 0.0007915109 -0.008721829 -0.028599063
0.03155771 -0.013082413 -0.05268291 -0.018339265 -0.028620055 0.0008081377 -0.031515554 -0.004547205
-0.01604285 -0.0026919353 0.024584582 0.019566294 -0.015407863 -0.02351746 -0.017758356 -0.04789015
-0.03034462 -0.024521898 0.004859608 -0.014006875 0.018223805 0.012075668 -0.010806579 -0.002643047
-0.034334265 -0.00820511 0.0103918025 -0.061758243 -0.024664551 -0.06436519 -0.037070014 -0.019488722
-0.05898634 -0.008130632 -0.03510246 -0.032496333 0.033476148 -0.04963071 -0.03576584 -0.016591353
-0.029928463 -0.024297444 -0.020555144 -0.0060910922 0.028550629 -0.043068487 -0.044968944 0.00041125884
-0.029628102 -0.032523025 -0.013029337 0.008293655 -0.029472172 -0.036869973 -0.040657327 -0.009914562
0.0071395533 -0.017386511 -0.0013253139 -0.020461256 -0.0075726165 0.010924757 -0.01992607 -0.0055720285
-0.038203083 -0.0043580546 -0.008199603 -0.033097446 -0.037104886 0.009856256 -0.007595612 -0.019486748
-0.017215686 -0.056691602 -0.013005669 -0.058186192 -0.0040716003 -0.037113328 -0.02381214 -0.020065185
-0.01713487 -0.03764632 -0.0545045 -0.015925946 -0.041867383 -0.03897437 -0.028857924 -0.010929643
0.026727984 -0.039150164 -0.029178943 -0.008751738 -0.053578366 -0.035601545 -0.025787124 -0.002965249
0.012565287 -0.027733466 -0.01738354 -0.024143334 -0.010543703 -0.03298252 -0.041011836 -0.01558674
-0.02634562 -0.020010797 -0.026352324 -0.002167931 -0.0037635528 -0.0018475571 -0.012163738 -0.029790962
-0.03636153 -0.036035452 0.016109707 -0.027827693 -0.021099111 -0.017718023 -0.05142019 -0.062468812
-0.0076636816 -0.014357567 -0.0019156766 -0.021187367 -0.046237227 0.004620595 -0.022910543 0.025295092
00000000: d240 a1bc 22b6 a1bc 9f69 e2bc 5088 dfbc
00000010: 215c 07bd 6b36 30bc b27d 3ebc 770e c53c
00000020: d630 f0bc 23a9 2dbb f924 23bc 8373 0abc
00000030: 9bb6 d0b9 8b5c febc febb 60bc ab1b dfbc
00000040: fba1 39bc 96f8 04bd f028 3ebd 5dc7 7ebd
00000050: dccc 0e3c 4673 30bc 44a1 ebbc cc9c 5cbd
00000060: 687d b4bb fcc5 5dbc 1a4f 6ebc e30a ba39
00000070: 7345 80bd f9a9 c0bc f826 d3bc 1d13 01bd
00000080: ab90 2bbc 21b1 abbd 1123 09bd b10b d3bc
00000090: 0d42 56bc 2390 113c 81bb 24bd 901c ba3c
000000a0: 73ab d4bc 859a 95bb a3f3 473b 34ad 75bc
000000b0: b02e cfbc 7e90 dfbb 9ce4 93bc 439f 08bc
000000c0: f88a a43a 8d16 193c 396c e6bc 24fa 8abd
000000d0: b712 2dbc beef f43c edc5 ab3c a54c c7bc
000000e0: ef98 963c 1ab8 9abc ae9d 79bc a66b 1dbc
000000f0: 340d 98bc 7270 a1bc cc02 0abc dcc0 06bc
00000100: a42c 29bd dc00 d3bc ff64 9cbc 4599 0c3d
00000110: 6ec0 213c 667d 4f3a 01e6 0ebc 9548 eabc
00000120: a842 013d 9e57 56bc 09ca 57bd 3a3c 96bc
00000130: 9b74 eabc 34d9 533a 7416 01bd b800 95bb
00000140: 4c6c 83bc 2e6b 30bb 9b65 c93c 7e49 a03c
00000150: 4371 7cbc b0a7 c0bc f979 91bc 7628 44bd
00000160: 4895 f8bc 26e2 c8bc 593d 9f3b 187d 65bc
00000170: 174a 953c 06d9 453c 140e 31bc f836 2dbb
00000180: 16a2 0cbd ba6e 06bc 6142 2a3c 36f6 7cbd
00000190: 500d cabc e6d1 83bd bad6 17bd d0a6 9fbc
000001a0: a99b 71bd 5836 05bc 99c7 0fbd e01a 05bd
000001b0: 491e 093d 9249 4bbd 347f 12bd 97ea 87bc
000001c0: 892c f5bc 6f0b c7bc 4363 a8bc c997 c7bb
000001d0: 02e3 e93c 9568 30bd 5b31 38bd 3a9e d739
000001e0: a2b6 f2bc dd36 05bd 0079 55bc 1ce2 073c
000001f0: a06f f1bc f804 17bd 4c88 26bd b070 22bc
00000200: eaf2 e93b 286e 8ebc 28b6 adba 5d9e a7bc
00000210: b623 f8bb c1fd 323c ff3b a3bc 9095 b6bb
00000220: d67a 1cbd 03ce 8ebb a157 06bc 3091 07bd
00000230: 4bfb 17bd 227c 213c 9de4 f8bb aca2 9fbc
00000240: e907 8dbc 7435 68bd bb15 55bc a554 6ebd
00000250: 0f6b 85bb 2504 18bd ad11 c3bc be5f a4bc
00000260: 6d5e 8cbc 0733 1abd 1c40 5fbd 2177 82bc
00000270: 227d 2bbd 97a3 1fbd 7467 ecbc 3f12 33bc
00000280: a5f4 da3c ec5b 20bd ae08 efbc 7363 0fbc
00000290: fd74 5bbd edd2 11bd 853f d3bc 9f54 42bb
000002a0: a2de 4d3c 4b31 e3bc ed67 8ebc 3ec8 c5bc
000002b0: 7fbf 2cbc ae18 07bd 07fc 27bd 875f 7fbc
000002c0: c5d2 d7bc afed a3bc d4e0 d7bc d913 0ebb
000002d0: f0a5 76bb bb29 f2ba 6a4a 47bc 2d0c f4bc
000002e0: d4ef 14bd e999 13bd 81f8 833c e7f6 e3bc
000002f0: 0bd8 acbc 6325 91bc fa9d 52bd 4cdf 7fbd
00000300: 9f1f fbbb 003c 6bbc 7117 fbba 2191 adbc
00000310: 3f63 3dbd 5c68 973b e4ae bbbc a737 cf3c

gc3.weight f4 [200, 100]
-0.045492955 0.038438372 0.04695749 0.10846423 0.040171165 0.12497149 0.027520277 0.18111564
0.0712632 -0.13522565 -0.15995608 0.121087074 -0.06240499 0.058748994 -0.14222808 0.02875506
0.0063083414 -0.054705407 0.03941034 0.010897028 -0.047562163 -0.08735972 0.022657692 0.06320348
0.13750903 -0.03654049 0.039259505 0.10382292 0.0035935806 -0.093441755 -0.09260511 0.007624531
0.021502094 -0.0066647124 -0.16917889 -0.091777824 0.04064829 0.017018318 0.080773644 0.07365887
-0.08382745 0.07301192 -0.10201288 -0.022987306 -0.025532171 0.014342723 0.06197759 -0.14974962
0.09917917 0.015604885 -0.1135362 0.115076505 -0.052373182 -0.01814647 0.11096761 0.17931266
-0.15064125 0.08172654 0.1589746 0.074336275 -0.092597544 0.17462514 -0.011206061 -0.09121326
-0.07199743 -0.092706434 0.13553846 0.0059805433 -0.13192506 -0.075479954 0.008127533 0.03966908
-0.0830118 -0.121756874 0.07810501 -0.01930771 -0.051479034 -0.01482425 0.054769933 -0.080908075
-0.14038908 -0.0019496783 0.07810769 0.041993693 0.10768891 -0.008058358 0.22200783 -0.11104957
-0.06269846 -0.084930345 -0.10365221 -0.02949652 0.0969407 -0.055480342 -0.08339907 0.09513599
0.17664471 0.17468676 0.0020463641 -0.020725619 -0.08855071 -0.01583293 0.039239272 -0.00086533296
-0.12360995 -0.04684952 -0.06132828 0.048544254 -0.14799078 -0.043342993 0.14384134 -0.009260219
0.16145132 0.063355245 0.07036998 -0.09847821 -0.123023994 0.054264307 0.09431195 0.16622777
-0.014922573 0.07015017 0.06515887 0.09347854 -0.035733305 0.13612327 0.22640233 -0.052413486
-0.066823445 0.21523532 -0.009656121 0.07609585 0.074467175 0.028788028 0.028711509 0.040453807
-0.17910762 -0.0076262224 -0.021419436 -0.03115088 -0.22663099 -0.08345551 0.0926638 0.14967877
0.036262546 0.08126886 0.01995544 -0.04004498 -0.04752668 0.15678596 0.20252934 -0.033732075
-0.06616164 0.042673495 0.16231214 -0.08238197 0.20362309 -0.07334631 -0.14321125 -0.027175594
0.097994395 -0.055319365 0.16678518 -0.108002335 0.13437305 0.13695286 0.06262269 0.02007093
0.1493764 0.0009483822 0.0034182232 -0.040840823 -0.05975012 0.21471255 0.1953597 0.04308341
0.10970821 -0.10207797 -0.009389868 0.029669095 0.120992124 -0.14219485 0.09298695 0.026860576
-0.11295848 -0.0018525047 -0.11998832 -0.09518615 -0.017760841 -0.05304529 0.19168155 0.00062822155
0.044397466 0.1896022 0.026936013 -0.049636908 -0.07028396 -0.10060697 0.054255296 -0.03398703
-0.009493316 -0.0073646316 -0.22381318 -0.00656813 -0.042204026 0.07585692 -0.116104804 0.015901119
0.06310408 -0.0011513513 -0.06616836 -0.12817162 -0.13820425 -0.0753538 -0.061168313 0.34267595
-0.087109864 0.050221328 0.0377424 -0.068374604 0.030457698 0.01792009 -0.1317697 -0.32338348
0.03425298 -0.0020609682 0.14551179 -0.1612794 -0.044326488 0.067368716 -0.09429777 0.10981381
0.109901026 0.046737578 0.023336379 0.07338926 -0.09196643 -0.01263061 0.13169841 -0.032456312
0.11342781 0.030848099 0.019930307 0.011769126 -0.061361857 -0.20434557 -0.015398494 -0.055588342
-0.23829909 -0.019762091 -0.10674518 0.1755064 0.0838498 -0.005616309 -0.035350706 0.03751047
00000000: d256 3abd 8e71 1d3d 7f56 403d 7f22 de3d
00000010: 858a 243d 0df1 ff3d 3472 e13c 6176 393e
00000020: 71f2 913d 9878 0abe 87cb 23be 80fc f73d
00000030: 609c 7fbd c9a2 703d 3da4 11be bb8f eb3c
00000040: 34b6 ce3b c712 60bd bd6c 213d 7389 323c
00000050: 8bd0 42bd a7e9 b2bd a09c b93c d370 813d
00000060: 2bcf 0c3e 7bab 15bd 93ce 203d 1ca1 d43d
00000070: 4782 6b3b 645e bfbd bfa7 bdbd 34d7 f93b
00000080: 2925 b03c a963 dabb 3b3d 2dbe 03f6 bbbd
00000090: d27e 263d 006a 8b3c a76c a53d 76da 963d
000000a0: baad abbd 4687 953d 21ec d0bd e04f bcbc
000000b0: d828 d1bc befd 6a3c 37dc 7d3d f757 19be
000000c0: 731e cb3d a2ab 7f3c ab85 e8bd 3bad eb3d
000000d0: 4385 56bd e8a7 94bc fc42 e33d bd9d 373e
000000e0: b341 1abe 3f60 a73d 3dca 223e 9e3d 983d
000000f0: c8a3 bdbd efd0 323e a099 37bc 05ce babd
00000100: 6373 93bd dfdc bdbd 98ca 0a3e 6ff8 c33b
00000110: 5d17 07be 3c95 9abd 5829 053c 0c7c 223d
00000120: 1702 aabd ab5b f9bd 85f5 9f3d 342b 9ebc
00000130: aedb 52bd 69e1 72bc 7056 603d 22b3 a5bd
00000140: 28c2 0fbe 598c ffba edf6 9f3d 9401 2c3d
00000150: 018c dc3d 3407 04bc 0556 633e f56d e3bd
00000160: 0d68 80bd f6ef adbd 9c47 d4bd b0a2 f1bc
00000170: d988 c63d 5b3f 63bd 22cd aabd a8d6 c23d
00000180: 5ae2 343e 16e1 323e 4b1c 063b c6c8 a9bc
00000190: 135a b5bd 10b4 81bc 5cb9 203d 83d7 62ba
000001a0: 3727 fdbd 48e5 3fbd 5d33 7bbd 57d6 463d
000001b0: e58a 17be 6c88 31bd 254b 133e 2cb8 17bc
000001c0: 7f53 253e 65c0 813d 231e 903d f2ae c9bd
000001d0: 01f4 fbbd 4044 5e3d a026 c13d 9d37 2a3e
000001e0: cf7d 74bc e4aa 8f3d 0372 853d ad71 bf3d
000001f0: 165d 12bd e663 0b3e 03d6 673e 86af 56bd
00000200: bbda 88bd a666 5c3e b534 1ebc 24d8 9b3d
00000210: 3f82 983d dfd4 eb3c 6634 eb3c e4b2 253d
00000220: fd67 37be 64e5 f9bb d077 afbc 2130 ffbc
00000230: f411 68be b9ea aabd 85c6 bd3d 6445 193e
00000240: 0988 143d 4a70 a63d 9779 a33c 3406 24bd
00000250: 56ab 42bd 808c 203e da63 4f3e a52a 0abd
00000260: c17f 87bd 67ca 2e3d 2735 263e e1b7 a8bd
00000270: 9282 503e 9736 96bd f8a5 12be 5a9f debc
00000280: 49b1 c83d 8f96 62bd bcc9 2a3e 5430 ddbd
00000290: 1799 093e 5f3d 0c3e 5340 803d ca6b a43c
000002a0: 21f6 183e da9c 783a 4504 603b b548 27bd
000002b0: 8bbc 74bd 9bdd 5b3e 600c 483e 3b78 303d
000002c0: b3ae e03d 410e d1bd f6d7 19bc 9a0c f33c
000002d0: b8ca f73d 879b 11be f16f be3d b60a dc3c
000002e0: c756 e7bd becf f2ba 70bc f5bd f5f0 c2bd
000002f0: 2f7f 91bc 0546 59bd 2b48 443e 3caf 243a
00000300: 1eda 353d 1427 423e eaa8 dc3c 1250 4bbd
00000310: 09f1 8fbd 070b cebd cd3a 5e3d fc35 0bbd
00000320: da89 1bbc 0253 f1bb 482f 65be 7839 d7bb
00000330: 21de 2cbd df5a 9b3d 5bc8 edbd 1043 823c
00000340: b63c 813d f0e8 96ba 4783 87bd 6c3f 03be
00000350: 6a85 0dbe 1853 9abd a08b 7abd 3973 af3e
00000360: a866 b2bd e1b4 4d3d c697 1a3d fc07 8cbd
00000370: 6c82 f93c 27cd 923c a3ee 06be 8592 a5be
00000380: da4c 0c3d 4f11 07bb 0b01 153e 6d26 25be
00000390: b18f 35bd 9cf8 893d 301f c1bd 10e6 e03d
000003a0: ca13 e13d e76f 3f3d ef2b bf3c 1c4d 963d
000003b0: e558 bcbd 9ef0 4ebc f3db 063e e9f0 04bd
000003c0: d74c e83d 27b5 fc3c e244 a33c 4bd3 403c
000003d0: 9256 7bbd f73f 51be f749 7cbc 9ab0 63bd
000003e0: ad04 74be 1ce4 a1bc 389d dabd f3b7 333e
000003f0: 72b9 ab3d 0409 b8bb e7cb 10bd 94a4 193d

gc3.bias f4 [100]
-0.039130807 -0.013733163 -0.021534607 -0.004863794 0.00046194968 0.045909166 0.001810337 -0.026905725
-0.0086271055 -0.03065349 -0.0054906635 0.008723917 -0.020125289 -0.035373624 -0.0059513063 -0.0039576325
-0.005654652 -0.06075218 -0.033356283 -0.035274304 -0.052101474 -0.044016853 0.0021404254 -0.023493845
0.016451988 -0.022796744 -0.014843135 -0.02792084 -0.018303325 -0.023637895 0.010142824 -0.019311124
-0.05875591 -0.027692327 -0.0207443 -0.032056417 -0.02240961 -0.021653982 -0.029529832 -0.06497958
-0.028479155 -0.020025838 -0.020015262 -0.0077555454 -0.051423304 0.014219406 -0.028517138 -0.00528102
-0.0067674103 -0.038520265 -0.03708747 0.00024876668 0.018150534 -0.03176117 -0.041157138 0.027878571
-0.012826208 -0.04216146 -0.0113206385 -0.02525809 -0.023947235 -0.046454735 -0.004868927 0.0023079163
-0.03685186 -0.03422801 -0.0115802055 -0.0048955968 -0.040588323 -0.029971724 -0.021571895 4.0058145e-05
0.016119651 -0.031080278 -0.0076334556 -0.0023376876 -0.016498316 -0.046109013 -0.0062096524 -0.024484241
-0.048055053 0.009105585 -0.005623566 0.014891631 0.00048625926 -0.04550445 -0.035489213 -0.03169141
-0.03361378 0.009160264 -0.015563947 -0.027998067 -0.035624456 -0.016857198 -0.018307641 -0.00033348257
-0.0009913986 0.00031487757 -0.0025644957 0.011876466
00000000: a047 20bd 0f01 61bc 5869 b0bc 7660 9fbb
00000010: d631 f239 400b 3c3d d448 ed3a 6569 dcbc
00000020: b458 0dbc 071d fbbc 06eb b3bb c3ee 0e3c
00000030: cadd a4bc efe3 10bd 2d03 c3bb 07af 81bb
00000040: a94a b9bb 47d7 78bd 99a0 08bd ca7b 10bd
00000050: 5b68 55bd 044b 34bd 6146 0c3b 2a76 c0bc
00000060: 52c6 863c 3dc0 babc 9f30 73bc 3fba e4bc
00000070: dbf0 95bc 42a4 c1bc 162e 263c 5d32 9ebc
00000080: 09aa 70bd 05db e2bc f3ef a9bc 974d 03bd
00000090: 5c94 b7bc b163 b1bc 8ce8 f1bc 0414 85bd
000000a0: 1e4d e9bc 3a0d a4bc 0cf7 a3bc 3b22 febb
000000b0: 3ea1 52bd 83f8 683c c69c e9bc 680c adbb
000000c0: 27c1 ddbb 6dc7 1dbd 08e9 17bd e66c 8239
000000d0: 6eb0 943c 0018 02bd 6394 28bd 9a61 e43c
000000e0: 0425 52bc 7fb1 2cbd 337a 39bc 0eea cebc
000000f0: fe2c c4bc 5247 3ebd 858b 9fbb 6940 173b
00000100: faf1 16bd ab32 0cbd e7ba 3dbc 3e6b a0bb
00000110: f13f 26bd 4387 f5bc 8bb7 b0bc 1b04 2838
00000120: 5c0d 843c 119c febc 1122 fabb e433 19bb
00000130: 7a27 87bc cedc 3cbd 577a cbbb 2d93 c8bc
00000140: 60d5 44bd 972f 153c e445 b8bb 07fc 733c
00000150: 9df0 fe39 e062 3abd 235d 11bd dace 01bd
00000160: 9aae 09bd ef14 163c edff 7ebc 345c e5bc
00000170: f3ea 11bd 1b18 8abc e8f9 95bc 46d7 aeb9
00000180: d1f1 81ba 2716 a539 1911 28bb 8295 423c
