BRCA/models/5/C3.pth (torch, 5109 bytes, 2 tensors)

clf.0.weight f4 [5, 200]
0	0xbefe6ce4	-0.49692452
1	0xbeb627b9	-0.3557718
2	0xbe35ad73	-0.17741947
3	0xbdce8aef	-0.10085093
4	0xbdb02bbd	-0.086020924
5	0x3e1011e2	0.14069322
6	0x3df99ef8	0.12188524
7	0xbe0702c1	-0.13184644
8	0xbce84033	-0.028350925
9	0xbd61ac13	-0.055095743
10	0x3e153c13	0.14573698
11	0x3e34a817	0.17642246
12	0x3eba7b32	0.36422116
13	0xbd80c5e9	-0.06287748
14	0xbe82d8b3	-0.25555953
15	0xbcbd1f7d	-0.023086304
16	0xbee2bc7c	-0.44284427
17	0x3e9bfa85	0.3046457
18	0xbbddaebe	-0.0067652157
19	0x3e241202	0.16022494
20	0xbe83e2a0	-0.2575884
21	0xbe233703	-0.15938954
22	0xbdf5d012	-0.12002577
23	0x3e0337a2	0.12814191
24	0xbd66f7b4	-0.05638857
25	0xbc9b1723	-0.01893193
26	0x3e546e24	0.2074514
27	0x3e6cde83	0.23131756
28	0x3def77cd	0.11692772
29	0xbdebffcc	-0.11523399
30	0x3da576e5	0.08079318
31	0xbc7c6c5c	-0.015406694
32	0x3ae9aa05	0.0017827159
33	0xbba1859f	-0.004929259
34	0x3db16caf	0.08663308
35	0xbdb3daf5	-0.08781997
36	0xbe5f8df3	-0.21831493
37	0x3e64cca0	0.22343683
38	0x3cdd84f6	0.02704094
39	0x3e7e06ef	0.24807332
40	0x3eada4c3	0.33914766
41	0x39e1e705	0.00043087467
42	0x3e1c1130	0.15240932
43	0x3d28d481	0.041218285
44	0x3c223fcd	0.009902907
45	0x3dd21c0f	0.10259258
46	0x3da3a736	0.07990877
47	0xbd241e01	-0.040067676
48	0x3d0b6f39	0.034041617
49	0x3dc78bc0	0.09743452
50	0x3dbbd434	0.09171334
51	0x3c697114	0.014248151
52	0x3ce9eafe	0.028554436
53	0x3dd613c8	0.10452992
54	0xbe3b2faf	-0.18279909
55	0x3e6c4858	0.23074472
56	0x3e46cad5	0.19413312
57	0x3dc05f0a	0.09393127
58	0x3db1b314	0.086767346
59	0xbeeb6bfb	-0.4598082
60	0xbe12a4be	-0.14320657
61	0x3e267aa9	0.16257729
62	0x3d361ff7	0.044464078
63	0x3dd07072	0.10177697
64	0xbe99d356	-0.3004405
65	0xbe2e81af	-0.17041658
66	0xbe899f83	-0.2687951
67	0xbebf3c63	-0.3735076
68	0xbde1b19a	-0.11020203
69	0x3ec5cffb	0.3863524
70	0x3df1bd23	0.11803653
71	0x3e030fa3	0.12798934
72	0xbdc11b83	-0.094290756
73	0x3d31d784	0.043418422
74	0xbe4c2551	-0.1993611
75	0xbe9452ec	-0.28969514
76	0x3c812fb3	0.015769815
77	0x3e096fb6	0.1342152
78	0x3cf503e1	0.029909076
79	0xbe8b6098	-0.27222133
80	0x3d61c2d0	0.05511743
81	0xbd48f5c0	-0.04906249
82	0x3e81ba9e	0.2533769
83	0xbe35d5fa	-0.17757407
84	0x3d10a979	0.03531787
85	0xbe516ded	-0.2045209
86	0x3d0fb86a	0.03508798
87	0xbd3d0ea3	-0.046156537
88	0x3e111ee9	0.14171948
89	0x3dc83317	0.097753696
90	0x3de6426a	0.11243136
91	0x3ebc7bc5	0.3681318
92	0x3c9c1d02	0.0190568
93	0x3ca4e8d6	0.020130556
94	0x3d4bb8ed	0.049736906
95	0xbdc78da0	-0.0974381
96	0x3d250303	0.040286075
97	0xbe64b678	-0.22335231
98	0x3dd8fec0	0.10595465
99	0x3e2d0f7d	0.1690044
100	0xbc2289e6	-0.009920573
101	0x3da7caae	0.08192955
102	0x3a86572a	0.0010249366
103	0xbdc8fdea	-0.09814055
104	0xbeb12380	-0.34597397
105	0x3e4fe877	0.20303522
106	0xbdb0d63e	-0.086346135
107	0xbd8bc673	-0.068249606
108	0x3e717cc1	0.23582746
109	0x3e7554db	0.23958151
110	0x3da693cb	0.08133658
111	0xbd864b5f	-0.06557345
112	0xbd2dcb57	-0.042430248
113	0x3e2e5f0e	0.17028448
114	0xbd43eae9	-0.04783145
115	0x3b56e8d3	0.0032792583
116	0x3b715229	0.0036822653
117	0x3e2718be	0.16318032
118	0xbe2f6834	-0.17129594
119	0x3d5f98b7	0.054589
120	0x3e11744d	0.14204521
121	0xbdbd08f3	-0.092302226
122	0x3e08cb70	0.13358855
123	0xbe895f59	-0.26830557
124	0x3e4e6669	0.20156254
125	0x3d55b9b1	0.052179042
126	0x3e80046a	0.25003368
127	0x3e4e0a5c	0.2012114
128	0xbd9e8ec8	-0.07742077
129	0x3d6c0a7c	0.057627186
130	0x3d3dce23	0.046339165
131	0x3e359cb1	0.17735554
132	0x3d2c619b	0.04208527
133	0xbdd34dde	-0.10317586
134	0xbe0161f1	-0.12635018
135	0xbd3b26c2	-0.04569126
136	0xbe19d557	-0.15022789
137	0x3d1aa88f	0.037758406
138	0x3e0a6d65	0.13518293
139	0xbec0dc76	-0.37668198
140	0x3e53ec1c	0.20695537
141	0x3dc5b284	0.0965319
142	0x3ddd2020	0.10797143
143	0xbc81feca	-0.015868563
144	0xbe11b5e7	-0.14229546
145	0x3db1bde4	0.08678797
146	0xbd0b1529	-0.033955727
147	0xbe29d53f	-0.16585253
148	0x38a40950	7.821864e-05
149	0x3de6b86e	0.11265646
150	0x3dee2039	0.1162724
151	0xbdf07303	-0.11740687
152	0xbcf58214	-0.029969253
153	0xbcd294d5	-0.025705734
154	0xbcac5472	-0.02103636
155	0xbd5f4d5f	-0.054517146
156	0x3dc55b94	0.09636608
157	0xbccc53d4	-0.024942316
158	0xbdf8a327	-0.12140494
159	0x3dabd0d5	0.08389441
160	0x3c85d3f9	0.016336428
161	0x3dfbd1ce	0.122958764
162	0xbddf8000	-0.10913086
163	0xbe5b92e2	-0.2144275
164	0x3d228577	0.039678063
165	0x3ea1f6fd	0.3163375
166	0xbe3f4fec	-0.18682832
167	0xbd651e47	-0.055937078
168	0xbde02489	-0.109444685
169	0xbec7c800	-0.39019775
170	0xbcae3449	-0.021265166
171	0xbc648d50	-0.013949707
172	0xbb9f8f8b	-0.0048694066
173	0x3df7d29f	0.1210072
174	0xbd5f2c61	-0.054485682
175	0x3d3ea2ad	0.04654186
176	0xbdaa1ba0	-0.0830605
177	0x3d64923a	0.055803515
178	0x3d9608cc	0.073258966
179	0xbccaf07d	-0.024772877
180	0xbe17c44f	-0.1482098
181	0xbcd5f644	-0.026118405
182	0x3dd169c8	0.10225254
183	0x3d995765	0.07487372
184	0x3a77ad4f	0.0009448127
185	0xbefb18b6	-0.4904229
186	0xbe354345	-0.17701443
187	0xbd3c3385	-0.04594757
188	0xbd07b6cb	-0.03313331
189	0x3e4035c2	0.18770507
190	0x3e3b3511	0.18281962
191	0x3e8d3e3c	0.27586544
192	0x3e47e2bc	0.19520086
193	0xbde20d1d	-0.110376574
194	0xbe180e94	-0.14849311
195	0x3e949754	0.29021704
196	0x3e51e8a7	0.20498906
197	0x3e1edac6	0.15513143
198	0x3da240fb	0.0792255
199	0xbdfcbd1c	-0.12340757
200	0xbea4f42b	-0.32217535
201	0x3dec6313	0.115423344
202	0xbd9bd358	-0.0760867
203	0x3dd0ade5	0.10189418
204	0xbc9ac291	-0.018891605
205	0x3a51d482	0.00080043834
206	0xbf146f49	-0.5798231
207	0x3d38f2e5	0.045153517
208	0x3e4bc1ee	0.19898197
209	0x3d2c8321	0.04211724
210	0xbe48ac87	-0.19597064
211	0x3c3d669e	0.01156011
212	0x3d6abaef	0.05730718
213	0xbe002545	-0.12514217
214	0x3dc5e03e	0.096619114
215	0x3e41306e	0.1886613
216	0xbdf88631	-0.1213497
217	0x3c846229	0.016160088
218	0x3d2c4960	0.042062163
219	0xbdb18ddd	-0.086696364
220	0xbeba2438	-0.36355758
221	0x3e1fb565	0.1559654
222	0xbcb69672	-0.022288535
223	0xbd4695ac	-0.048482582
224	0xbd054756	-0.032538734
225	0xbe718822	-0.23587087
226	0xbcb7974d	-0.022411013
227	0x3ddf0dab	0.10891279
228	0xbcabc1e6	-0.020966481
229	0xbeb2280f	-0.34796187
230	0x3d3f576f	0.046714243
231	0x3e18613e	0.14880845
232	0xbea9aa0b	-0.33137545
233	0xbc608963	-0.013704631
234	0xbdb47dfd	-0.08813093
235	0x3e5bcc88	0.21464741
236	0xbd16d388	-0.036822826
237	0x3e28e2b1	0.16492726
238	0x3e40faf2	0.18845728
239	0x3dafae55	0.08578173
240	0xbdbe7216	-0.09299104
241	0x3e61dc01	0.22056581
242	0x3e1b16ae	0.1514537
243	0x3c6674e0	0.014065951
244	0xbde8422c	-0.11340746
245	0xbe764312	-0.24049023
246	0x3e4af6b0	0.19820666
247	0xbdc646fc	-0.09681508
248	0xbd20fc16	-0.039302908
249	0xbba8f612	-0.005156287
250	0x3ddc4857	0.10755985
251	0xbe8e6a17	-0.27815315
252	0x3e100726	0.14065227
253	0xbce0bb6c	-0.02743312
254	0x3dd06e78	0.1017732
255	0x3dbaa1b9	0.091128774

clf.0.bias f4 [5]
0	0xbd67ef4b	-0.056624692
1	0xbd3f015b	-0.046632152
2	0xbd0664b8	-0.032810897
3	0x3d3f02d6	0.046633564
4	0xbc5ea05c	-0.013588037
